trained_model/model0.pth (torch, 386251 bytes, 46 tensors)

weight f4 [4, 1, 3, 3, 3]
000000 5c 0d 8e c1 78 90 de c1 7d 57 2b c1 60 87 cb c1
       -17.756523 -27.820541 -10.708859 -25.441101
000010 cd 4f 54 40 52 7e 87 41 aa 24 98 c2 8d 66 6c c1
       3.3173707 16.93668 -76.07161 -14.775037
000020 54 8a db bf b9 c0 f6 3f 47 45 08 3f fc c8 32 c1
       -1.7151589 1.9277564 0.5323071 -11.174068
000030 83 df 5b c1 78 75 d0 41 cd 4b 9a 41 64 71 36 c2
       -13.742068 26.057358 19.287012 -45.610733
000040 60 db b4 c0 a3 5e 9a 41 f4 3e cc 3f 76 10 a6 c1
       -5.651779 19.29621 1.5956712 -20.758038
000050 62 16 92 c2 fd 56 05 c0 1d bb b8 40 ce 00 47 c1
       -73.04372 -2.0834343 5.772841 -12.437696
000060 8e 5a a1 c1 8f c9 e2 c0 65 df b6 41 54 34 11 c2
       -20.169216 -7.0871043 22.85908 -36.3011
000070 8e e7 57 c2 3e 44 b2 41 15 51 1e c2 dd 75 86 c1
       -53.976128 22.283321 -39.57918 -16.80755
000080 09 7a 67 41 ae c1 49 c0 c5 91 e8 c1 3b 00 7d 40
       14.467294 -3.1524463 -29.071177 3.953139
000090 28 18 1f c2 1e 03 a8 c1 dc e9 ef 40 76 6f 0b c2
       -39.77359 -21.001522 7.4972973 -34.85885
0000a0 e6 2a 44 c2 53 ff d1 41 80 08 10 c2 09 23 25 c1
       -49.041893 26.24967 -36.0083 -10.3210535
0000b0 af 2a ac 41 7e 28 5b c1 2d bd 38 c1 9d 97 c6 c1
       21.520842 -13.697386 -11.5461855 -24.82403
0000c0 64 90 cd c1 cf 20 27 40 81 82 52 3f 5a bc 25 bf
       -25.695503 2.6113775 0.82230383 -0.64740527
0000d0 55 36 2f c2 7a af b4 41 98 fe 01 42 49 2f 76 42
       -43.80306 22.585682 32.498627 61.546177
0000e0 dc dc a7 40 26 8a 9c 42 67 55 6e 42 ba db ff 40
       5.2457104 78.26982 59.5834 7.995572
0000f0 cf 16 ee 41 80 c6 29 41 f9 ba b1 c0 92 f4 a6 41
       29.761137 10.610962 -5.554074 20.86942
000100 23 26 14 42 ea 55 9f 40 af 56 3f 42 1e c7 10 42
       37.037243 4.9792376 47.834652 36.19445
000110 db eb 33 40 fa 6a b5 41 57 a0 f7 41 c3 32 d2 bf
       2.8112705 22.677235 30.95329 -1.6421741
000120 73 a8 aa c1 5c b7 60 c0 ad 15 df 3f 5a 7e c8 c1
       -21.33225 -3.5111914 1.742849 -25.061695
000130 17 d7 b6 c0 f2 f1 67 41 05 56 6b c1 72 59 4d 41
       -5.713756 14.496569 -14.708501 12.834337
000140 69 d5 a8 c0 ec 3f 6f 41 88 92 1d c2 71 ba f2 c1
       -5.276051 14.953106 -39.393097 -30.341036
000150 59 a6 34 41 c7 a7 33 bf 74 08 68 c1 8c 8b b8 40
       11.290612 -0.7017788 -14.502064 5.7670345
000160 ba bf 0b c1 a2 a3 8d c1 9d 2d 3b c1 c5 3e 4e c1
       -8.734308 -17.704899 -11.698636 -12.890325
000170 14 bc 52 c1 9e 55 12 40 db 50 d2 c1 62 d9 8e c0
       -13.1709175 2.2864757 -26.28948 -4.464036
000180 72 da 44 c1 0e 4b d4 c1 c7 51 b6 40 06 ab 8d c1
       -12.303331 -26.536648 5.6974826 -17.708508
000190 06 c3 b3 3f 51 18 53 41 f1 37 43 c1 ef 4a 0b 41
       1.4043891 13.193437 -12.201158 8.705794
0001a0 2a 02 69 41 36 78 7f c1 82 9a e7 40 c7 99 8f 3f
       14.563028 -15.966848 7.237611 1.1218804

bias f4 [4]
000000 5b 6d 98 c1 a5 be 6b c0 fd f6 8a c0 39 9d 87 c1
       -19.053396 -3.683511 -4.34265 -16.951769

weight f4 [8, 4, 3, 3, 3]
000000 34 50 29 41 7c be ba c1 fe 23 42 c2 cd 4a 3e 42
       10.582081 -23.34301 -48.53515 47.573048
000010 f3 5d 0f 41 5e 54 45 c1 79 05 a6 c1 23 2e 4c c1
       8.960437 -12.333097 -20.752672 -12.761264
000020 24 3f 28 c1 8c e4 68 41 50 9f 77 c1 81 66 9a c1
       -10.515415 14.555798 -15.476395 -19.30005
000030 03 32 3d 42 ab 57 a9 c0 77 27 fd c0 9b 2e bd 3e
       47.29884 -5.2919517 -7.9110675 0.3694962
000040 eb 3a 56 3f 5d 6b 29 c2 02 ca 1c 40 cd 7c fe c0
       0.8368365 -42.354847 2.4498296 -7.9527345
000050 62 f4 3b c1 91 f8 23 41 40 02 cf c1 b5 d8 02 c2
       -11.747164 10.248185 -25.876099 -32.711628
000060 1d 8f 9f c0 0f 67 50 c1 8f 29 60 c2 c9 9e c4 41
       -4.98622 -13.025161 -56.040585 24.577532
000070 e5 36 09 c2 dd bc 8a c1 6f 44 6b 42 72 c5 27 c1
       -34.303608 -17.342218 58.81683 -10.485704
000080 84 50 3f c1 25 b5 76 41 aa 70 da c0 36 5a 02 c1
       -11.957157 15.419225 -6.826253 -8.147024
000090 f6 de d3 40 c8 ce 46 c1 86 7a a5 41 28 31 3d 42
       6.620967 -12.425484 20.684826 47.298004
0000a0 64 15 8a c0 7b a1 8f 40 d7 a5 02 42 f7 15 3f c1
       -4.315111 4.488462 32.661953 -11.9428625
0000b0 0a fb 83 c1 5c 2a 00 42 01 b2 b5 c0 d7 52 d0 41
       -16.497578 32.041367 -5.677979 26.04045
0000c0 44 0e 12 42 4d a1 1e bf f5 a6 93 c0 79 96 75 40
       36.51393 -0.61964875 -4.6141305 3.8373091
0000d0 24 10 19 c1 c5 28 ac be af 46 38 c1 e4 af f3 c1
       -9.566441 -0.33624855 -11.517257 -30.460884
0000e0 91 65 f5 c1 41 c9 75 41 d7 0a 3b 41 56 f4 fa c1
       -30.674593 15.361634 11.690146 -31.369305
0000f0 7a 40 84 41 ea 8f 6a 41 ff 72 4e c1 05 fa 43 c1
       16.531483 14.660135 -12.903075 -12.24854
000100 60 46 9f 3f 35 59 c4 c0 13 de 64 41 f4 f8 87 bf
       1.2443352 -6.1358895 14.304217 -1.062285
000110 1b e4 2b c1 6f 3f 76 41 1f f8 27 bf 02 ab 9b 40
       -10.74319 15.390487 -0.6561298 4.864625
000120 9a 6d 26 c2 c5 91 49 c1 e9 ae 8e 3f ef 90 e7 c0
       -41.607033 -12.598088 1.1147128 -7.236442
000130 c9 0e 8d 40 29 7c a7 41 58 fe 5d 41 34 4f a5 40
       4.408055 20.935625 13.874596 5.1659184
000140 62 d4 dd 3e 37 ce b7 40 09 f6 01 c2 39 e9 5c c0
       0.43326098 5.7439227 -32.49027 -3.4517348
000150 cd 61 40 40 fe 75 b2 c0 63 8c 8e 41 6e b7 e2 41
       3.0059693 -5.5769033 17.818548 28.339565
000160 ed 5a 0f c1 b3 21 bd 41 27 fb 5c c1 e0 ee 6e c1
       -8.959699 23.641455 -13.8113165 -14.933319
000170 eb 33 41 41 5c 3b 94 3f 0f de d4 40 b6 79 80 41
       12.075175 1.1580615 6.652107 16.05943
000180 6d cc 55 41 ca 82 1b c1 c3 30 36 41 c0 95 08 c1
       13.362409 -9.719431 11.386905 -8.53656
000190 41 0f e4 c0 77 a7 44 41 60 79 69 c0 0c 02 a1 40
       -7.126862 12.290885 -3.6480331 5.0315
0001a0 ee 58 3a c0 93 8a aa c1 69 8c 18 c1 55 72 19 41
       -2.9116778 -21.317663 -9.53428 9.590413
0001b0 b4 7a 54 c1 e1 cf 3a 40 cc be 50 c1 17 57 cb c1
       -13.279957 2.918938 -13.046581 -25.417524
0001c0 ba 39 6b 40 07 e6 ff 41 a3 80 1a c1 a2 e0 9f c0
       3.6753983 31.987318 -9.656405 -4.996171
0001d0 ba 5e b6 c1 3f f3 af 41 24 70 aa 41 f3 93 50 41
       -22.796253 21.993773 21.304756 13.03612
0001e0 c6 b0 f1 c0 4f e1 61 41 e3 ea ed 41 29 a2 1a 41
       -7.552829 14.117507 29.73969 9.66459
0001f0 68 2e 8b 3f cf 8f a7 c0 58 88 12 42 c9 1a 3c 42
       1.0873537 -5.2363048 36.63315 47.026157
000200 28 c1 91 40 13 3c 91 41 e1 57 d4 41 2b fe d1 41
       4.5548286 18.154333 26.54291 26.249105
000210 80 b8 60 41 30 f0 3b 41 f5 a7 0c 42 a1 db 84 c1
       14.045044 11.74614 35.16402 -16.60724
000220 53 aa 03 c2 91 69 e7 c0 eb 7e c3 c1 ad 93 d8 c1
       -32.916332 -7.2316365 -24.436972 -27.072107
000230 8c d7 a0 c1 d8 a4 7c 41 ba bb 62 c1 4d 63 79 c1
       -20.105247 15.790245 -14.170832 -15.586743
000240 7d fc 6f 42 14 c2 a6 41 2e 77 d0 40 77 a0 0c c0
       59.99657 20.844765 6.5145483 -2.197294
000250 e5 8b 8a 41 ca 6d 41 c1 cd 3f ed 40 b4 00 ec c1
       17.318308 -12.089304 7.414038 -29.500343
000260 44 20 76 c1 73 cd 32 42 66 f9 7c 41 fa 44 aa bf
       -15.382877 44.700634 15.810888 -1.33023
000270 ce a6 0d 42 2e c5 5d 41 bf 58 45 c1 1f f7 ac 41
       35.412895 13.86064 -12.334167 21.620665
000280 20 93 8e 3f a2 ca ac 41 69 76 30 c2 9c 4f 9c c1
       1.1138649 21.598942 -44.115635 -19.538872
000290 d5 f4 13 c2 4b d6 0c c2 a7 30 4e c2 6e d4 07 c2
       -36.989094 -35.20927 -51.547512 -33.95745
0002a0 56 c1 e1 c1 d2 23 1e c2 8d d6 18 c2 dc 25 d0 c0
       -28.219402 -39.53498 -38.209522 -6.5046215
0002b0 25 1b 85 41 48 f4 a0 41 fd 81 aa c1 62 42 0c 40
       16.638254 20.119278 -21.31347 2.1915517
0002c0 0c 26 8f 41 25 c5 21 c2 7e df 2f c1 d2 06 82 c0
       17.893578 -40.442524 -10.9920635 -4.0633326
0002d0 65 38 9f 40 0b 98 03 42 22 17 24 42 ea 92 00 c2
       4.975634 32.89848 41.02259 -32.14347
0002e0 24 68 c1 41 55 fc 0c 42 47 96 1c c2 8e 22 89 bf
       24.17585 35.246418 -39.146755 -1.071367
0002f0 54 06 3d 41 ed 2d dc be 07 ca 4c c0 89 29 e9 c0
       11.814045 -0.4300379 -3.1998308 -7.28632
000300 1e e1 1e c2 fb 9b 02 c2 f3 10 89 c1 0b 1a 2c c1
       -39.71984 -32.652325 -17.133276 -10.756358
000310 6e 6f 94 3e e6 03 16 c1 31 06 fb 41 8a da 10 42
       0.28991264 -9.375952 31.378023 36.213417
000320 65 45 75 41 a3 bb 29 41 d7 e3 46 41 23 ff 5a 41
       15.329442 10.60831 12.430625 13.687289
000330 21 00 b8 41 66 b9 31 41 b6 6b 9f 40 32 eb eb 40
       23.000063 11.107763 4.9818983 7.3724604
000340 96 f0 4b 41 df 66 4c 41 2e 50 77 41 f2 83 38 41
       12.746237 12.775115 15.457075 11.532213
000350 0d ae dd 3f 03 0d 10 41 51 2e 90 40 50 82 26 41
       1.7318741 9.003177 4.505654 10.406815
000360 02 2f 05 42 8c d2 26 42 97 ee 5d 40 3d ed e3 40
       33.295906 41.705612 3.4676874 7.1227098
000370 5d fb 6f 41 10 eb b6 c1 40 aa 0e 40 4b 94 58 41
       14.998868 -22.864777 2.2291412 13.536204
000380 dd d1 e0 c1 20 79 03 c1 e7 f8 95 41 3b de 51 c0
       -28.102472 -8.217072 18.746534 -3.2791889
000390 2f dd e8 c1 27 65 75 40 44 99 87 c1 09 62 23 c1
       -29.108 3.8342988 -16.949837 -10.211434
0003a0 24 3f 9c 41 9a 2a 16 c1 a7 f9 6a 41 fe 08 55 c0
       19.53083 -9.385401 14.68595 -3.3286738
0003b0 cc 34 18 c1 46 4c 2a c2 c0 43 07 c2 6e 8d 18 c1
       -9.51289 -42.574486 -33.816162 -9.534529
0003c0 05 90 e0 c0 e5 bf 40 c1 b5 92 a9 c1 32 cf 18 41
       -7.0175805 -12.046849 -21.196634 9.550585
0003d0 e1 e5 e0 41 7a c7 32 41 85 59 ce c0 ba e0 96 c1
       28.112246 11.1737 -6.4484277 -18.85973
0003e0 f8 25 80 c1 eb f3 28 c2 47 6e 35 c2 9b a0 07 c2
       -16.01854 -42.2382 -45.357693 -33.90684
0003f0 5f 6d ee bf 8b ac 1a c1 40 ec aa 41 3d d4 a3 c1
       -1.8627127 -9.667125 21.365356 -20.478632

bias f4 [8]
000000 d5 1d a9 c1 7b 5f 6b 41 ac 9d fb c1 6e d7 12 c2
       -21.139566 14.710811 -31.451988 -36.71038
000010 0f 78 18 c2 d8 28 cc c1 7c 7b 07 42 0d df 67 c0
       -38.117245 -25.519943 33.87059 -3.622989

weight f4 [16, 8, 3, 3, 3]
000000 1a 23 0b 41 78 b6 29 40 e1 eb 7d c2 fd b2 9f 40
       8.69607 2.651762 -63.48035 4.990599
000010 94 a2 a6 c0 e5 49 f6 c1 8e ab 8f c1 87 8c 21 c2
       -5.207346 -30.786081 -17.958767 -40.387234
000020 f4 2f 3d c2 38 3b 6e bf 34 aa 23 41 d0 7e b1 c1
       -47.29683 -0.9305911 10.2290535 -22.18692
000030 2b 48 8b c1 f0 81 ae 3f 79 53 8e c1 0a 5c dd c1
       -17.410238 1.3633404 -17.790758 -27.66994
000040 3e 75 e9 c1 dc 15 f7 3f f9 ab 54 41 83 cd 0f 42
       -29.182247 1.9303546 13.2919855 35.950695
000050 56 87 0c 3f ea 78 4c 40 7d cb c5 41 88 7f 5b c0
       0.54894006 3.19488 24.72436 -3.429659
000060 8d 9f 5b c2 6b 7e 6c c1 3f 0f 97 41 ce 48 92 41
       -54.90581 -14.780864 18.882444 18.28555
000070 dd 58 1a 42 a4 d7 4a 41 47 54 a8 c1 ff b7 a0 c1
       38.58678 12.677647 -21.041151 -20.089842
000080 d2 f3 15 c2 3b 47 3a c2 44 f2 44 c2 2b 76 e5 c1
       -37.488106 -46.56956 -49.236588 -28.6827
000090 5f 98 ce 41 fe 41 90 41 68 7f e9 41 48 7a dc 40
       25.8244 18.032223 29.18721 6.889927
0000a0 4d 3c b2 bf a6 17 76 41 3a 42 04 41 23 66 9d c1
       -1.3924652 15.380774 8.266169 -19.674871
0000b0 36 46 01 c2 ab b0 2f c2 d5 d9 36 c2 c1 98 e1 41
       -32.318565 -43.922527 -45.712727 28.199587
0000c0 76 88 d5 c0 39 fd 99 c1 a6 e4 46 c0 8c 50 ed 41
       -6.672908 -19.248644 -3.1077056 29.66433
0000d0 6e f6 c4 41 75 d0 9e c1 ea ef c7 c1 c9 ab 16 c2
       24.620327 -19.851786 -24.992146 -37.66776
0000e0 93 6a 06 c2 77 79 91 c0 f8 2b 1d c2 16 f3 07 c2
       -33.604076 -4.5460773 -39.29294 -33.98739
0000f0 b7 70 cb c0 b0 0b 70 c1 c6 3c af c1 f8 01 e0 40
       -6.357509 -15.002853 -21.904675 7.0002403
000100 a0 e8 a3 bf 6b ce fa 3d b2 ba a6 3f e5 a5 43 c2
       -1.2805367 0.12246402 1.3025725 -48.912006
000110 2d ca 18 c2 78 8e f2 c1 91 e2 ef c1 93 18 77 c1
       -38.197437 -30.319565 -29.985628 -15.4435
000120 54 0c d3 41 4c e3 13 42 76 14 04 42 61 ed e9 40
       26.38102 36.97197 33.01998 7.310227
000130 06 1f d2 c0 08 86 20 40 f9 37 1b c2 59 99 cb c1
       -6.566287 2.5081806 -38.80466 -25.449877
000140 02 6c 81 c0 45 39 44 c1 0e 94 a9 c0 40 39 c8 c1
       -4.0444345 -12.263982 -5.299323 -25.027954
000150 9f 9c 67 c0 be 11 89 c0 e4 f3 bc c1 2b 94 ed c1
       -3.6189344 -4.283416 -23.619087 -29.697348
000160 fa 28 ca c0 08 f8 a6 c1 8d 54 b0 c1 46 76 79 41
       -6.317502 -20.871109 -22.041285 15.591375
000170 59 26 ff c0 15 e8 cb c1 41 0b 55 41 ca e5 c5 c1
       -7.973431 -25.488321 13.315248 -24.737202
000180 a9 b1 15 c2 a7 10 38 c2 65 76 c1 c1 a9 8f 47 c0
       -37.423496 -46.016262 -24.18281 -3.1181433
000190 7c 0d cc 41 b6 ce b9 41 65 34 17 41 05 49 e7 41
       25.506584 23.225933 9.450292 28.910654
0001a0 2c fe a7 40 f0 31 dc c1 88 4c cd c1 3b 2e a6 41
       5.249777 -27.524384 -25.662369 20.772573
0001b0 65 03 a6 c1 f0 2b eb c1 9c e5 1c c2 51 64 88 c1
       -20.751657 -29.396454 -39.224228 -17.048983
0001c0 56 90 04 c2 0b 2d ff c1 6f a5 23 c1 a6 36 9e c1
       -33.140953 -31.896994 -10.227889 -19.776684
0001d0 47 54 a6 c1 70 65 3f 40 e7 25 b7 41 6e 6f 77 40
       -20.791151 2.9905663 22.893507 3.8661761
0001e0 20 ea a8 c0 00 dd 94 be 39 d2 d4 c1 2e 74 22 c2
       -5.2785797 -0.2907486 -26.602648 -40.613457
0001f0 fe 14 0f c2 4a 6e ee c1 32 18 18 42 ff 19 50 42
       -35.7705 -29.803852 38.02363 52.025387
000200 1c c3 4d 41 c5 53 34 41 96 65 93 41 51 a7 fb c1
       12.860134 11.270452 18.424603 -31.456697
000210 f7 67 b8 c1 9e fd bb c1 fe 62 ad c1 37 a9 60 40
       -23.050764 -23.498837 -21.673336 3.510328
000220 87 06 37 3f 08 d8 18 c2 06 44 24 c1 e3 46 0d c1
       0.71494335 -38.210968 -10.266607 -8.829806
000230 81 15 28 c2 cd a9 86 c1 ea e9 d1 c0 2a b3 c3 c1
       -42.021 -16.83291 -6.559804 -24.462482
000240 12 1b ad 40 ba 32 a1 41 89 72 73 41 bc 78 8d bf
       5.4095545 20.149769 15.215463 -1.105247
000250 a4 92 28 bf 6d bf 79 c1 17 a6 9d c1 b8 8b 30 c2
       -0.65848756 -15.609235 -19.706099 -44.136444
000260 3e 26 b1 c1 8a 93 b2 40 59 35 92 41 93 0d 04 41
       -22.143673 5.58051 18.276049 8.253314
000270 81 ad 91 41 23 2d a3 41 08 8b 98 c1 8e 1a 1d c2
       18.209719 20.39704 -19.067886 -39.275932
000280 47 4a 00 c2 2d 17 75 c1 bc 76 e7 41 69 a7 68 41
       -32.072536 -15.318158 28.932976 14.540872
000290 43 aa 6a c0 fc 33 5b c0 19 a6 25 41 70 d5 82 c1
       -3.666642 -3.4250479 10.353051 -16.354218
0002a0 6c ec a0 c0 fa a6 1f c2 76 5f 1e c1 2b 32 98 c1
       -5.02886 -39.913063 -9.898306 -19.024496
0002b0 0d 00 e2 c1 d3 b3 b4 41 fb c5 82 41 5c c1 2d 41
       -28.250025 22.587805 16.34667 10.859707
0002c0 d7 2d e7 3e 23 30 1c 42 e7 58 1d 40 96 33 b9 40
       0.4515216 39.04701 2.4585512 5.787547
0002d0 34 69 e9 c1 0d 71 0d c2 b3 4c 34 40 96 7f 23 c1
       -29.176369 -35.3604 2.8171813 -10.218649
0002e0 22 61 2a 41 94 2d 1a 41 99 c1 8c 41 1b 40 2f 41
       10.648714 9.636127 17.59453 10.953151
0002f0 cb 90 66 c0 f5 eb 35 41 20 58 98 c1 32 a7 96 c2
       -3.6025875 11.370107 -19.04303 -75.32655
000300 a7 fa 6d 41 f6 37 21 c1 64 24 d3 c1 d0 74 cf c0
       14.873694 -10.076162 -26.392769 -6.4830093
000310 36 3f 37 c1 26 a1 dd c1 59 3b b9 3f 7b 92 61 41
       -11.452932 -27.703686 1.4471236 14.098262
000320 05 1a 25 c0 b6 c2 82 bf 53 d0 78 c0 22 f4 b7 c1
       -2.579713 -1.0215671 -3.887715 -22.994205
000330 83 80 21 3e 83 40 b8 c1 77 89 af c1 45 3a 32 41
       0.1577168 -23.0315 -21.942122 11.139226
000340 e1 e3 c6 41 e9 22 29 41 9c 8e cb 41 1d 3c 10 41
       24.861269 10.571023 25.444633 9.014676
000350 9c a1 1e c1 4f ff 26 c2 8f 2e 89 c1 8d b9 4a 41
       -9.914455 -41.749325 -17.147734 12.6703005
000360 70 15 ce 41 5b 2a 1b c2 8c 38 9c c0 0c 4d 98 c1
       25.760468 -38.791363 -4.8819027 -19.03762
000370 9e 49 7b c2 ce a0 d1 c1 54 db 91 41 27 b8 33 c1
       -62.82189 -26.203518 18.232094 -11.232459
000380 16 3b 88 c1 b4 62 42 c2 83 06 95 c2 b8 8e 28 c2
       -17.02885 -48.59639 -74.51272 -42.139374
000390 a8 d6 1f c2 e7 5b fd c1 09 df ee c0 8f 8d 84 c2
       -39.959625 -31.669874 -7.464726 -66.27648
0003a0 1b 90 14 c0 2e fa ad 40 d0 ff 12 c2 b4 a0 18 c2
       -2.3212955 5.4367895 -36.749817 -38.156937
0003b0 67 be 92 c1 f8 a6 cc c2 b7 ad 90 c1 e4 42 e0 40
       -18.34297 -102.32611 -18.084822 7.0081654
0003c0 ad 91 22 c2 ed 68 0a 41 85 56 1c 42 86 34 92 c1
       -40.64226 8.650617 39.08449 -18.275646
0003d0 b6 21 67 c0 0a 19 6b c0 76 6d 74 c1 58 ff 03 41
       -3.6114326 -3.6734033 -15.276724 8.24984
0003e0 0d f3 03 42 2d dd d7 41 b9 71 d7 41 9d f7 33 42
       32.987354 26.982996 26.930529 44.99181
0003f0 1c 8f 28 42 76 5a f8 c1 e6 23 e1 c1 a3 ee 16 c2
       42.139755 -31.04417 -28.142529 -37.733044

bias f4 [16]
000000 c4 64 42 c0 92 d6 aa 41 4f 34 74 c1 fb f6 46 c1
       -3.0374002 21.35477 -15.262771 -12.435298
000010 f1 39 20 c2 56 53 0b c0 dd 9f 2f c1 c9 d2 86 c0
       -40.056583 -2.1769614 -10.976529 -4.2132306
000020 00 ff d0 41 63 c7 95 41 a3 23 92 41 d1 c9 ca be
       26.124512 18.722357 18.2674 -0.396071
000030 75 94 5b c1 2a 9c 59 41 ae d9 c3 40 ba a1 05 c2
       -13.723744 13.600626 6.120322 -33.407936

weight f4 [32, 16, 3, 3, 3]
000000 ba 35 18 c2 35 4d 8f c2 9b 2c b7 c1 25 96 96 40
       -38.052467 -71.650795 -22.89678 4.705828
000010 67 24 31 41 ea 10 0f 41 56 af 81 41 64 f0 8d 41
       11.071387 8.941629 16.210613 17.742378
000020 44 84 7c 41 ef 84 4d c2 ab c4 1e c2 ab 34 fa c1
       15.782291 -51.379818 -39.69206 -31.275717
000030 4a 8a 5c c2 35 75 82 c1 2e 0a 11 c1 fc 4a be 41
       -55.135048 -16.30723 -9.064985 23.786613
000040 f4 c3 07 42 dc 68 fe 40 a1 ec cb 40 66 1e 5d c1
       33.94136 7.9503 6.3726354 -13.8199215
000050 c1 f2 15 c1 f0 14 93 c2 1b be c2 c1 0d 6c fa c1
       -9.371766 -73.54089 -24.342825 -31.30276
000060 cc a2 b4 41 d1 4d 01 42 3c 64 84 c0 af c8 e4 c0
       22.57949 32.325993 -4.1372356 -7.1494975
000070 d8 2e 03 40 b0 7b a4 c1 c5 4c 00 c2 da 3d 27 c0
       2.049734 -20.560394 -32.07497 -2.6131501
000080 ab 14 fd bf ea f9 62 c1 ea c1 ed 41 73 4a 8c 41
       -1.9771932 -14.186014 29.719685 17.536352
000090 0b de 27 41 af e2 51 42 c2 f2 c3 41 53 0a 82 c1
       10.49171 52.47137 24.493534 -16.255041
0000a0 8e 22 25 3e 7b f4 b8 c1 25 35 90 41 99 c0 7c c2
       0.16126463 -23.119375 18.02595 -63.188084
0000b0 eb fc 2a c1 3e 6b 21 41 a0 4c 32 c1 22 61 4d 42
       -10.686748 10.088682 -11.143707 51.344856
0000c0 b6 74 42 c1 af cf bc c1 ba d4 a5 c1 71 39 40 42
       -12.153494 -23.601408 -20.72887 48.056095
0000d0 de 22 c7 41 e1 0c 10 41 5b 4f dd c0 35 2c 0e c2
       24.892025 9.003144 -6.915937 -35.54317
0000e0 7b 54 6c c0 36 a1 b9 c1 ec bd e1 c1 14 3a 17 41
       -3.6926563 -23.203716 -28.217735 9.451679
0000f0 a1 8c ea c1 a8 c3 79 41 8c ad 69 41 97 73 62 c1
       -29.318666 15.610268 14.60487 -14.15322
000100 37 87 47 3e 73 e6 31 41 53 51 12 c2 89 ce 08 c2
       0.19485174 11.118762 -36.57942 -34.201694
000110 92 9a 9f 41 5b 83 20 c2 26 62 0d c2 ac 87 c4 c1
       19.950474 -40.128277 -35.345848 -24.566246
000120 13 9f 29 c2 3d 3c 6a c2 9d 26 03 42 ac 68 62 c2
       -42.405346 -58.558826 32.78771 -56.60222
000130 5b 7f 51 c2 52 c1 1a 41 b1 03 da 41 44 6a 91 c1
       -52.37437 9.672197 27.251802 -18.176888
000140 59 06 41 c2 e7 e9 c4 c1 e2 19 45 41 19 b8 50 42
       -48.2562 -24.61421 12.318819 52.179783
000150 89 4c 0a c2 12 c9 0d 41 92 e8 14 42 fb a6 cf c1
       -34.57474 8.861589 37.22712 -25.956533
000160 89 f9 d5 c1 83 f5 3a 41 a0 62 14 c2 53 1f 9e 41
       -26.746843 11.684939 -37.096313 19.765295
000170 17 af b2 41 e0 f2 99 c1 9c cd 43 42 7d 44 cb 41
       22.335493 -19.243591 48.95079 25.408442
000180 4b de 5d c2 0f 32 32 40 88 1c 4b c1 ad 71 32 c0
       -55.467083 2.7843053 -12.694466 -2.7881882
000190 4a 72 13 41 ca 75 4c 40 25 b9 89 c1 ff 0b ec 41
       9.215403 3.1946893 -17.215403 29.505857
0001a0 45 be 08 41 a5 e3 b1 c1 1f a5 82 41 06 76 3c c1
       8.5464525 -22.236155 16.330626 -11.778814
0001b0 40 d8 1a c2 d8 f4 c6 c1 86 7e 96 41 c5 80 97 c1
       -38.71118 -24.869553 18.811779 -18.937876
0001c0 5e 0b 5d c1 d6 70 e7 be 92 ab 24 c2 fe 83 e3 c1
       -13.815275 -0.45203274 -41.16755 -28.43945
0001d0 93 59 d4 c1 ba 62 3e c1 23 34 22 c1 04 25 59 c1
       -26.543737 -11.899103 -10.137729 -13.571537
0001e0 e0 a4 cc c0 f8 52 4b 41 52 93 dc 41 da 03 81 c1
       -6.3951263 12.707756 27.571934 -16.12688
0001f0 2b d6 80 c1 a1 c9 49 c0 a8 1b ff 40 94 2b 97 c1
       -16.104574 -3.1529315 7.972126 -18.896278
000200 7a e7 4c c0 16 1c 25 c0 5a d4 fe 3e 99 c0 e5 c1
       -3.2016282 -2.5798392 0.49771386 -28.719042
000210 d5 d1 ad 41 d1 87 cc 41 f1 59 45 41 32 67 ba 41
       21.727457 25.566317 12.334458 23.300388
000220 a6 43 b7 41 5a 06 28 42 d8 fd cd c1 25 ec 64 c0
       22.908031 42.006203 -25.748947 -3.576913
000230 6d ee a8 40 9e c7 e1 c1 6c 11 82 c2 5e fb 88 41
       5.2791047 -28.22247 -65.03403 17.122738
000240 79 e7 f6 c1 b3 8e d6 40 8f 16 97 bf 31 9a 06 c1
       -30.863024 6.7049193 -1.1803759 -8.412644
000250 5d df 2f c0 4c 35 96 c1 f1 74 1e c2 b3 d8 7d c2
       -2.748008 -18.776024 -39.6142 -63.46162
000260 b8 d5 61 c2 de b7 7c 41 fc 9d a0 41 ba 90 c0 be
       -56.45871 15.794889 20.07714 -0.37610418
000270 61 e1 18 41 69 cf 1e 41 4b a8 00 c1 99 ec 51 c0
       9.555024 9.925637 -8.041087 -3.2800658
000280 57 6d db c0 d5 ef ef c0 fd ad 9b 41 e5 83 12 c1
       -6.857097 -7.4980264 19.459955 -9.157201
000290 24 4c f3 c0 f0 c4 80 c1 d9 5b d1 c1 89 e8 7d c1
       -7.6030445 -16.09616 -26.169847 -15.869271
0002a0 77 ca 68 c2 03 8d 49 c2 04 06 0f c2 78 77 27 c1
       -58.19772 -50.387707 -35.755875 -10.466667
0002b0 3f 3e 9d be ce 02 65 c0 7b d5 0a c0 3d 69 15 42
       -0.30711553 -3.5782962 -2.1692798 37.35277
0002c0 ea 82 d7 bf 51 57 10 c2 c1 7d f6 c1 b5 d0 b2 c1
       -1.6836827 -36.08527 -30.811403 -22.351908
0002d0 81 e5 c0 bf f7 05 d3 40 c6 f0 04 c1 44 0d 0b c0
       -1.5070039 6.594478 -8.308783 -2.1726847
0002e0 27 d7 a2 41 b8 64 be 40 07 df c7 c1 b5 6f 04 c2
       20.355055 5.949795 -24.9839 -33.10909
0002f0 d1 08 c3 c0 f3 5f 2f c1 7a a9 49 c1 6a e9 fa 40
       -6.094826 -10.960925 -12.603876 7.840993
000300 f3 57 f9 c1 bf f3 9b bf 60 fc 53 c0 da 2b a2 c2
       -31.167944 -1.218376 -3.3122787 -81.08565
000310 98 eb 69 c2 84 b1 06 42 26 18 3b c1 fd c3 b3 bf
       -58.480072 33.673355 -11.693396 -1.4044186
000320 35 08 ad 41 09 65 ee 40 e7 d7 35 41 8c ee 25 c0
       21.629007 7.4498334 11.365211 -2.5926847
000330 98 1d 17 c1 e1 4c 21 c2 ee 56 9b c2 03 4e 70 41
       -9.444725 -40.325077 -77.669785 15.019046
000340 ee 34 f2 c1 4e fd b5 bf 58 e4 ed c0 b7 b3 ac c1
       -30.275845 -1.4217927 -7.434124 -21.587751
000350 4f c4 1c c1 51 90 01 c1 84 ba 8c c1 3f e4 7f 41
       -9.797927 -8.0977335 -17.591072 15.993224
000360 6c 20 b3 41 32 97 b3 c0 ed 5e c5 41 df 6d cb c1
       22.390831 -5.6122065 24.67135 -25.428648
000370 90 c6 ea c1 80 62 d0 c1 7f 13 d7 c2 2a 75 d2 c1
       -29.346954 -26.048096 -107.53808 -26.307209
000380 ce b3 b4 41 be 56 9a 41 ee 36 83 41 05 ea 6b c1
       22.587795 19.292355 16.401821 -14.744634
000390 8a 48 5c 40 32 35 eb 41 d6 d7 87 c2 74 95 01 c2
       3.4419274 29.400974 -67.921555 -32.39595
0003a0 71 22 97 bf 89 c9 2c 42 61 95 5c 41 3a 15 e3 3f
       -1.1807386 43.19681 13.786469 1.7740853
0003b0 fc 73 b4 c0 36 cf da 3e 84 dd 98 41 68 b9 af c1
       -5.6391582 0.42736214 19.108162 -21.96553
0003c0 b2 b5 a1 c0 da 55 10 c2 3d da 2c c2 30 63 5d c1
       -5.0534296 -36.08384 -43.213123 -13.836716
0003d0 8f bd eb c0 87 08 19 c2 90 ef 74 c1 e0 9e 60 c1
       -7.3668895 -38.258327 -15.308487 -14.038788
0003e0 4c e1 2f c2 40 8f 11 c2 0d d2 51 41 3d e6 bb bf
       -43.970016 -36.389893 13.113782 -1.4679638
0003f0 c1 7c b4 c0 3a 1f 97 41 85 94 b9 40 7f 8c 9f c0
       -5.6402287 18.890247 5.79938 -4.9859004

bias f4 [32]
000000 bd d3 92 c1 4b 8f 4e c1 f6 13 20 c1 f3 21 bc c0
       -18.353388 -12.909984 -10.004873 -5.879144
000010 a9 60 35 40 c7 91 bf c0 cf e5 a7 3f ae e0 12 c1
       2.8340247 -5.986545 1.3117007 -9.179853
000020 dd 29 77 c1 67 41 98 c1 7a 73 18 c1 36 79 10 40
       -15.447721 -19.031935 -9.5281925 2.2573981
000030 d5 4b 3e c1 96 d6 dc c0 e8 44 41 c1 cc 2b 2f c1
       -11.893514 -6.9011946 -12.079323 -10.948193
000040 ff 8a 0f c0 f0 3b 04 c1 0a b4 37 40 aa 3b 21 c0
       -2.2428586 -8.264633 2.8703637 -2.5192666
000050 6a 4a 33 c0 dd 19 30 c1 6b 92 a3 c0 00 3d 81 3f
       -2.8014169 -11.006314 -5.1116233 1.0096741
000060 d2 0d 0e c0 40 bd 36 c1 9c 79 76 c1 53 f0 a0 bf
       -2.2195935 -11.421204 -15.40469 -1.2573341
000070 ff 34 3a c1 a0 ac 0e c1 de 88 27 c0 59 6d 45 c1
       -11.6379385 -8.917145 -2.6177287 -12.339196

weight f4 [64, 32, 3, 3, 3]
000000 9b 58 8f 41 1a 86 de 40 ca cb 85 40 d2 ce 4b 41
       17.918264 6.95387 4.1811266 12.737993
000010 5d 3e 31 c2 64 6e 92 c1 6a 14 09 42 7c 1a d8 41
       -44.3109 -18.303902 34.269936 27.012932
000020 ae c3 88 c1 32 74 20 c0 19 41 0c 41 99 9e da bf
       -17.095547 -2.507092 8.765893 -1.707965
000030 b1 87 70 c2 6b a3 f1 c1 40 be 38 41 2c 22 be 41
       -60.13251 -30.204794 11.546448 23.766685
000040 80 63 02 42 5b 55 41 c0 64 9b 19 41 dc ed b9 3f
       32.597168 -3.0208347 9.600437 1.4525714
000050 e3 a1 10 41 6f 07 07 c2 0d 9a ae c1 68 28 b0 bf
       9.039523 -33.75726 -21.82522 -1.3762331
000060 ca d3 af 41 b6 d3 9c 41 42 80 b9 41 02 21 9d 3d
       21.978413 19.603374 23.187626 0.07672311
000070 e7 06 3f 41 89 0a b8 41 07 0d 9b bf ef 5a 23 41
       11.939185 23.005144 -1.2113351 10.209701
000080 98 8f 62 41 dc eb 29 42 41 8a 1c c0 cb 21 26 42
       14.160057 42.48033 -2.4459383 41.533
000090 86 f4 1d 41 aa c3 9c 41 c3 62 27 c1 88 fa 90 c1
       9.872198 19.59554 -10.461612 -18.12233
0000a0 8c e7 be c1 b9 21 85 bf f1 f7 41 42 45 d1 0c 42
       -23.86306 -1.0400916 48.49213 35.204365
0000b0 c0 1a 84 c1 1c 8c 6a c0 aa d2 c8 40 b8 b6 31 c1
       -16.513062 -3.6648016 6.275716 -11.107109
0000c0 8c 28 30 c1 02 86 84 41 41 0a 04 c2 c1 36 1a c2
       -11.009899 16.565434 -33.010014 -38.55347
0000d0 cb 96 7e c0 c0 c1 f3 c0 af 53 2a 42 50 72 e3 40
       -3.9779537 -7.617401 42.581722 7.107704
0000e0 41 61 b1 c1 cb ec 17 42 13 a8 1e c1 da ee 6b c1
       -22.172487 37.981243 -9.916034 -14.745813
0000f0 95 2e de 41 2b bc 32 c2 22 53 ef 41 c3 e6 ca 41
       27.772745 -44.683758 29.915592 25.362677
000100 4b b7 b2 40 14 5e 9a c1 8d 07 af 41 11 78 1b bf
       5.5848746 -19.295937 21.878687 -0.6073008
000110 e2 e8 7c 40 29 01 2a 42 5f 94 21 c1 20 fd a0 c0
       3.951714 42.501133 -10.098723 -5.030899
000120 8d 0b 75 c1 a1 f7 d6 40 38 83 4f c1 a1 d8 b4 c1
       -15.31532 6.717728 -12.969536 -22.605776
000130 fc 28 cc 40 86 b0 96 3d 99 13 bd bf 69 9e 2f 41
       6.380003 0.07357888 -1.4771606 10.976174
000140 b8 fb d8 c0 36 e9 4d c2 27 86 f1 c1 1d 7f ac bf
       -6.7807274 -51.477745 -30.190504 -1.3476292
000150 30 5b 54 c2 91 aa 0f 40 a3 ea 81 42 c4 98 25 41
       -53.08905 2.2447855 64.958275 10.349796
000160 a7 d7 9e 3f 2f 0f a4 41 53 d4 87 c1 ff 33 a9 3f
       1.2409562 20.507414 -16.978674 1.3218993
000170 b8 0c ae 40 01 97 57 c2 3b 90 bf c1 0f 7f cf 41
       5.4390526 -53.897465 -23.945425 25.93704
000180 8f e8 56 c2 ea ab 2b c1 64 f6 a4 42 f9 31 4f 40
       -53.727108 -10.729471 82.48123 3.237425
000190 a1 f4 84 42 70 b2 03 c1 57 51 26 42 b0 98 89 c2
       66.47779 -8.231064 41.579433 -68.79822
0001a0 a2 64 6d 41 2e 51 77 42 ba 0b cf 41 e5 85 d5 40
       14.837069 61.829277 25.880726 6.6725945
0001b0 94 86 40 c2 e3 97 78 41 86 31 c8 41 f6 19 31 42
       -48.131424 15.537082 25.024181 44.275352
0001c0 49 40 00 41 13 39 5d 42 6d 7f e8 41 b4 fc 93 42
       8.015695 55.305737 29.06222 73.99356
0001d0 4f bf 98 41 ca d8 33 42 47 0e bc 41 84 45 3e c0
       19.093412 44.961708 23.506971 -2.972993
0001e0 fd 4f a5 40 2d 2e 69 40 7c 4b 5f c1 eb fe 3a 42
       5.166014 3.6434433 -13.955929 46.748943
0001f0 c2 64 52 42 98 0b 35 41 36 7a d2 41 7c 7d 3b 42
       52.598396 11.3153305 26.309673 46.872543
000200 d7 40 e0 c0 0a b2 7b bf 61 dd 35 41 c3 38 02 c2
       -7.007915 -0.9831854 11.366548 -32.55543
000210 24 d0 98 41 2f a7 2b 42 af ef b8 c1 79 9e 66 c1
       19.101631 42.913265 -23.117033 -14.41369
000220 93 52 80 bf 8e b1 3a c0 94 ac 31 c1 61 fc 78 41
       -1.00252 -2.917087 -11.104633 15.561616
000230 47 7e 42 42 84 8e 6c 42 65 6a 1f 41 99 fc 37 bd
       48.623318 59.139175 9.963475 -0.04491863
000240 12 8a 18 41 c0 e0 b2 41 73 d3 9c c1 17 cb 18 42
       9.533709 22.359741 -19.603247 38.19833
000250 fe 3e 0a c2 d8 31 c9 c0 3e 03 9f 41 a0 e6 43 c1
       -34.561516 -6.2873344 19.876583 -12.243805
000260 43 c1 4e c1 7f 46 c0 41 0b b9 c6 c1 be 2e 14 c1
       -12.922183 24.034422 -24.840353 -9.261412
000270 11 05 03 41 62 f1 e4 c1 2d e9 14 42 1b f2 1b c2
       8.188737 -28.617863 37.22771 -38.98643
000280 01 84 a6 c1 27 09 53 bf 62 7d 6c c2 51 76 8b 41
       -20.814455 -0.8243584 -59.122444 17.432772
000290 ce 3c 6e 41 3d 42 93 42 e6 6b 7f 42 7c 81 e8 41
       14.889845 73.62937 63.85537 29.063225
0002a0 cb c9 8c 41 f5 3d 4e 42 bc d6 05 41 e2 72 50 c2
       17.598532 51.560505 8.364925 -52.11219
0002b0 8c 40 0a c2 42 86 63 41 6b 05 ee 41 2c 82 10 42
       -34.563034 14.220278 29.752645 36.12712
0002c0 f3 81 29 bf 37 da 30 c0 bb 1d c8 41 ad fb 5a c1
       -0.6621391 -2.7633188 25.014517 -13.686444
0002d0 44 51 1c 42 15 28 4a 41 f3 f2 d8 c1 6b a5 01 42
       39.07936 12.634786 -27.118628 32.41154
0002e0 b0 8f 20 c2 2d a3 39 c1 fd 2a cb 41 14 dc d8 41
       -40.14032 -11.602338 25.39599 27.10746
0002f0 1d 13 90 c0 ab 3e 0d 42 d5 8c b6 40 84 2e d3 bf
       -4.502333 35.3112 5.7046914 -1.649857
000300 a4 cf a2 c1 58 1d 1a c2 1d db 20 41 f6 4a fb 41
       -20.351387 -38.528656 10.053494 31.411602
000310 63 58 76 c1 a1 53 9c bf a2 63 06 40 e1 9c 1b c2
       -15.396579 -1.2213022 2.099831 -38.903202
000320 be 09 1e 41 73 2f 93 c1 53 24 14 c2 62 c3 83 41
       9.877378 -18.398169 -37.035473 16.470402
000330 41 3f 06 42 68 fb d5 c1 c4 54 ed bf 8c 06 c6 c0
       33.56177 -26.747757 -1.8541493 -6.188299
000340 20 bd fd 41 5e e0 52 c2 e7 6d 0d c2 33 e4 1c 41
       31.717346 -52.71911 -35.357327 9.805713
000350 88 81 ca c1 94 03 e6 41 4b 4c aa c1 99 21 13 c1
       -25.313248 28.751747 -21.287252 -9.195703
000360 42 f4 93 41 19 56 fd 3d ae 25 b5 41 17 8e d5 41
       18.494267 0.123699374 22.643398 26.69438
000370 ff df 79 c2 9c 88 0c 41 99 b4 1a 41 dd fd 96 c2
       -62.468746 8.783352 9.669091 -75.49583
000380 90 a5 b5 41 d6 25 38 41 d4 31 41 41 19 f6 31 c1
       22.705841 11.509237 12.074665 -11.122582
000390 90 5f 91 c0 1a e4 5a 3f 0e 46 66 41 92 35 06 c2
       -4.5429153 0.85504305 14.392103 -33.552315
0003a0 9e b9 60 c2 f4 bd 6c c1 09 f4 b4 40 d8 9e 8f c2
       -56.181267 -14.796375 5.6547894 -71.81024
0003b0 72 87 ad 42 c3 e3 df 40 3f 88 c5 41 5b 27 05 41
       86.76454 6.996553 24.691526 8.322108
0003c0 7c 4b 88 c1 6a 97 ea c1 55 b5 19 c0 01 69 58 40
       -17.036858 -29.323933 -2.4016926 3.381409
0003d0 98 42 50 42 b3 21 55 42 39 e5 a3 c0 62 02 ac 41
       52.065033 53.28291 -5.1217313 21.501163
0003e0 5b 33 be 41 44 47 45 be ba b1 b6 41 6a 7f 97 40
       23.775076 -0.19265467 22.83678 4.7343035
0003f0 ff b5 a3 40 6a bb 04 c1 a6 49 92 bf 37 b4 11 c1
       5.1159663 -8.295755 -1.1428726 -9.106498

bias f4 [64]
000000 b5 ad 09 3f 34 67 5f 3d 15 0a d1 3e a3 65 50 bf
       0.5378068 0.05454178 0.40828004 -0.81405085
000010 45 82 d9 be 32 44 88 3e 95 25 9a 3e 56 b5 53 bf
       -0.424822 0.2661453 0.30106798 -0.8269857
000020 98 82 a7 3e 6a 81 26 bf 21 d1 17 bf 29 13 0a bf
       0.32716823 -0.6504122 -0.5930348 -0.53935486
000030 80 47 ae be 8f 35 2b 3e 9f 8e e5 3e e7 e0 7b bf
       -0.34038925 0.1671965 0.44835374 -0.9839005
000040 de 1e 0c bf c7 7a 15 bf 80 d9 09 bf cf ed 63 3e
       -0.547346 -0.5839047 -0.53847504 0.22258686
000050 89 5c 23 3e 97 b6 a0 3f 55 28 08 3f 67 00 66 be
       0.15953268 1.2555722 0.5318654 -0.22461091
000060 73 4b 43 3f 75 7d 60 3f 70 dc 06 be df 19 71 bd
       0.76287 0.8769143 -0.13170028 -0.058862563
000070 1c e1 0e bf c1 9d c0 3e c9 1b a3 3e 69 da 60 bf
       -0.5581224 0.37620357 0.31857136 -0.8783327
000080 a2 83 be 3e fc 86 fe be 10 0c ec 3e 60 b6 fd be
       0.37209803 -0.4971236 0.46102953 -0.49553204
000090 03 e5 94 bc 8a 71 0b bf 72 88 ce 3e 54 a2 ee 3e
       -0.018175608 -0.5447012 0.40338475 0.46608222
0000a0 fa fb a0 3e 1d 18 22 bf 77 d9 42 bf 9e df e2 be
       0.31442243 -0.63318044 -0.76113075 -0.4431123
0000b0 03 ba e0 be 17 f8 33 bf b1 07 2e 3f 1a e5 5d bf
       -0.43891916 -0.7030043 0.67980486 -0.86677706
0000c0 24 a4 e5 3d 9b 61 00 bf 5b 0e 3e 3e 75 79 86 be
       0.11212948 -0.50148934 0.18560164 -0.2626454
0000d0 36 d9 17 3e 95 bf ee be 71 b2 a6 3d 3c c3 86 3e
       0.14828953 -0.4663054 0.08139504 0.26320827
0000e0 68 52 a6 be 92 c1 6a 3e dd 42 1a bf b9 ec 4e bc
       -0.32484746 0.22925404 -0.60258275 -0.012629681
0000f0 c0 e4 33 3f bc f5 46 bf 24 43 4b bf 0a 10 cd 3e
       0.7027092 -0.7771871 -0.79399323 0.400513

weight f4 [32, 64]
000000 c3 3d 48 41 d7 39 ca c1 53 2e d4 40 43 e2 69 c1
       12.515079 -25.278242 6.630655 -14.61774
000010 7d 5e b6 c1 83 eb be c1 d5 b3 b8 c1 27 33 00 41
       -22.796137 -23.864996 -23.087809 8.012488
000020 08 85 bf 40 04 99 f3 c1 0d b4 f0 41 0f d3 a7 40
       5.984989 -30.449715 30.087915 5.244514
000030 b3 08 c5 c1 fd 7b 48 41 4f 35 43 3f f6 12 e8 3f
       -24.629248 12.530271 0.7625322 1.8130786
000040 2b df 6b 3f 1b 23 d3 c0 a7 a1 dd c0 9d 8f f0 41
       0.921374 -6.5980353 -6.925983 30.070124
000050 ff bc 54 41 6c 4d 80 c0 22 55 05 c1 eb a6 5f c1
       13.296142 -4.009451 -8.333284 -13.978251
000060 2b 99 c4 c1 82 cf f7 40 17 4c 96 41 8d 6e 0f c1
       -24.57479 7.7440805 18.787153 -8.96449
000070 74 76 cd 41 a9 8a 0f c1 27 5e 06 c0 03 c8 a5 40
       25.682838 -8.971353 -2.0994966 5.1806655
000080 75 63 dc c1 01 c1 a7 c0 50 aa a7 c1 89 c0 12 42
       -27.548563 -5.24231 -20.95816 36.688023
000090 f2 b0 ba 3e 9a 61 e1 40 03 c1 3c c1 59 fa 54 c1
       0.36463124 7.0431643 -11.797122 -13.31112
0000a0 13 be e7 41 ec c3 cc 40 a4 a8 80 41 8b ad 71 3f
       28.96781 6.3989162 16.082344 0.9440543
0000b0 d8 84 c9 40 b1 bd 13 c2 71 ea 9b c1 33 6b b7 41
       6.2974663 -36.935246 -19.489473 22.927343
0000c0 24 a2 a9 c1 34 cc 2f 42 27 eb 83 40 d2 41 e6 3f
       -21.20417 43.949417 4.122455 1.7988837
0000d0 ff 30 4d c1 2a 22 3e c2 b0 54 de 40 72 ec 9d 40
       -12.824462 -47.533363 6.947838 4.935113
0000e0 2d 91 d9 c1 ab a8 87 41 6c af 98 41 04 26 f8 41
       -27.195887 16.957357 19.085655 31.018562
0000f0 c9 c7 3b 41 bc 74 19 41 5c 1d 93 40 c2 c0 22 be
       11.736276 9.591 4.597334 -0.15893844
000100 92 0b 31 40 c1 b7 3f c0 f8 9b 2d c1 1d e9 8e c1
       2.7663312 -2.9955904 -10.850578 -17.863825
000110 80 c1 c3 c1 93 0b 5f c1 77 cc 9c c1 0e a7 dd 41
       -24.469482 -13.940326 -19.599836 27.70657
000120 37 2f 04 40 1c 90 89 41 7f 56 df 41 67 bf 6e c1
       2.0653818 17.195366 27.917234 -14.921729
000130 f6 9b 7a c0 c8 a9 f2 41 77 ca 04 c2 2c 0b 42 40
       -3.915769 30.332901 -33.19772 3.0319319
000140 31 d3 fd c1 12 88 8b c1 fb e1 ec 41 45 39 b9 41
       -31.72812 -17.44144 29.610342 23.152964
000150 5e 75 22 c1 9b ef 06 c2 6d 10 8d c1 39 3d 8b c1
       -10.153654 -33.73399 -17.63302 -17.404894
000160 48 8b 4a c2 70 01 78 c2 be 20 a7 40 11 c4 46 3f
       -50.636017 -62.001404 5.222747 0.77642924
000170 2f 26 6c c2 46 5c 12 42 e6 cc 67 c2 d6 23 1b c0
       -59.03729 36.59011 -57.950096 -2.4240623
000180 82 e1 d4 c1 d3 ad 38 c1 14 01 fb 41 e9 d2 c9 c1
       -26.610111 -11.542438 31.375526 -25.227983
000190 a7 cc 37 41 06 8e a0 3f bb 4d 30 c2 8a f5 a6 c1
       11.487464 1.2543342 -44.07591 -20.869892
0001a0 0f 02 06 c2 7d 26 9f 41 30 c1 7d 40 34 f5 76 3f
       -33.50201 19.893793 3.9649162 0.964679
0001b0 f3 de 87 c0 6d eb 32 c0 cb 5f 0a c2 c5 4c 80 c1
       -4.2459655 -2.7956192 -34.593548 -16.037485
0001c0 ff 86 0b c2 84 ce ff c1 91 04 99 c1 c0 4b d4 41
       -34.881832 -31.975838 -19.12723 26.536987
0001d0 23 1b 05 40 32 01 03 c2 18 b1 e7 c0 f6 b3 d7 c0
       2.0797813 -32.751167 -7.240368 -6.740718
0001e0 b7 19 c6 3f 1e 69 bc c1 5c ff 6d c0 54 ff 92 41
       1.5476598 -23.551327 -3.718711 18.374672
0001f0 b5 dc 01 c1 94 5d 68 c0 32 05 65 41 56 16 36 c2
       -8.116384 -3.6307116 14.313768 -45.521812
000200 35 56 29 c1 b6 db 8f bf d7 65 4e 42 7c 87 55 41
       -10.583547 -1.1238925 51.599453 13.345577
000210 1b 66 63 c1 f0 f8 ff c1 e0 2a 2f 42 2c a9 9a bf
       -14.212428 -31.996552 43.79187 -1.2082877
000220 e8 0f b1 c1 4a 10 59 c1 bc e0 da 41 6f 71 a2 c1
       -22.132767 -13.566477 27.359734 -20.305387
000230 71 cb 99 c1 6b 26 a4 bf 1d 86 3e c2 f0 99 fe c0
       -19.224337 -1.2824224 -47.63097 -7.956291
000240 b8 f8 76 c2 dc a2 d2 c1 28 8e 39 41 03 3c b6 41
       -61.74289 -26.329521 11.597206 22.779303
000250 59 f7 93 40 41 56 98 41 da ff f0 40 52 02 90 c1
       4.623944 19.042116 7.531232 -18.001133
000260 d2 cc fd 3f ce 91 c1 40 21 43 95 c0 ea 47 39 42
       1.9828131 6.0490484 -4.6644444 46.32023
000270 cd cf 22 c2 3e 73 32 c1 b3 c4 d9 c1 cf 54 11 41
       -40.70293 -11.153135 -27.221045 9.083205
000280 be a6 8c 41 a1 bb 08 40 03 50 21 41 64 5e aa c1
       17.581417 2.136452 10.082034 -21.29609
000290 65 6c a0 c1 a5 a8 21 40 e8 b0 b0 c1 a7 02 9d c1
       -20.052927 2.5259182 -22.08638 -19.626295
0002a0 af 8b c8 c0 fa 5a b6 c1 95 ae b2 41 09 bb 9b c0
       -6.267051 -22.794422 22.335245 -4.8665814
0002b0 5d e5 c7 c1 da 74 7f c1 aa a4 c4 41 7b a9 68 c1
       -24.986994 -15.966028 24.580402 -14.541377
0002c0 1b f7 1a 42 98 55 10 c2 ec 07 c3 c0 d0 9d ca 41
       38.741314 -36.083588 -6.094717 25.327057
0002d0 48 18 e5 41 36 37 c9 c1 5a cc 47 c0 91 8c dd 40
       28.636856 -25.151958 -3.1218476 6.923409
0002e0 94 2d b7 40 ac 4e 94 40 b0 28 03 42 a8 8d c7 40
       5.7243137 4.6346035 32.789734 6.236042
0002f0 60 bf 89 c1 70 4b 1a bf dc 05 7b 41 e4 d4 70 c2
       -17.218445 -0.6027136 15.6889305 -60.2079
000300 43 97 19 c1 a8 7c f8 41 ba 49 e1 c1 16 29 a6 3e
       -9.599429 31.060867 -28.161 0.3245322
000310 8e 66 0a c2 10 1c 5a 41 72 15 65 42 83 93 01 c1
       -34.60015 13.631851 57.270943 -8.098514
000320 59 a9 50 c2 45 6b 0d 41 cb 47 6d 41 c0 c5 3a 41
       -52.16538 8.838689 14.830028 11.673279
000330 e5 ab c4 40 50 8e e9 bf 9a 99 1e c2 67 28 02 42
       6.145983 -1.8246555 -39.65 32.539455
000340 ac c0 8f bf f2 f8 35 c2 63 c0 88 41 50 8b 4d c2
       -1.1230674 -45.49311 17.093939 -51.386047
000350 51 6a 9a 40 9a 8e 6b bf 6f ba b1 41 33 09 9b 40
       4.825478 -0.9201447 22.216032 4.844873
000360 05 06 8f 40 82 26 b0 c0 a0 b8 23 c1 c6 9d cf 40
       4.469485 -5.5047007 -10.232574 6.4880095
000370 1e c6 72 c2 a6 6d 7b c2 fb 5f 24 c1 0a 94 8a 41
       -60.693474 -62.85708 -10.273433 17.322285
000380 a3 17 e6 40 fb d3 af 41 13 45 86 41 43 9b ed c1
       7.1903853 21.978506 16.783728 -29.700811
000390 82 0b b8 40 e3 f7 23 41 9f 97 a6 c1 62 9a 0d 40
       5.751405 10.248019 -20.824034 2.2125478
0003a0 b8 7b 73 c0 23 6a a4 c1 96 81 db be c8 a9 dc 41
       -3.8044262 -20.551825 -0.42872304 27.582901
0003b0 98 26 cc 41 f9 2f 68 c1 9d 0f ee 41 a0 40 d6 40
       25.518845 -14.511712 29.757624 6.695389
0003c0 bb 05 4a 41 78 ba e0 c1 ce f8 32 42 26 ff 44 c1
       12.626399 -28.09105 44.742973 -12.312292
0003d0 4f d6 b7 41 7c ef 73 bf cb 0a a7 41 2e ec ef 40
       22.979643 -0.952873 20.88027 7.4975805
0003e0 84 92 4b bf e2 3f 23 42 21 fb ae 40 9a cc bf c1
       -0.7952044 40.812386 5.4681554 -23.974903
0003f0 2f 39 84 c0 fc d0 8b c1 2c d1 aa bf 6b eb 18 c2
       -4.1319804 -17.477043 -1.3345084 -38.2299

bias f4 [32]
000000 2b 53 92 3b 0d 17 fd be 97 a2 01 bf 1f a7 f5 be
       0.004465481 -0.4943165 -0.5063872 -0.47979066
000010 30 08 07 bf 91 83 0e bf 33 5e 51 3f eb 05 0a 3f
       -0.5274687 -0.55669504 0.8178436 0.5391528
000020 bc 98 43 bf 39 f2 2d bf 7a 32 0d bf 05 29 88 3e
       -0.7640493 -0.6794773 -0.55155146 0.26593795
000030 4a ac fe be e6 b5 50 3f 87 e7 20 3f 83 69 58 3e
       -0.4974082 0.81527555 0.6285328 0.21134
000040 6b 32 6e 3f 4e ec 27 3f 17 57 17 3f 80 fb 10 bf
       0.9304568 0.6559495 0.59117264 -0.5663376
000050 09 6f 29 bf c6 d5 1f 3f 06 4b 22 3f b7 26 4a bf
       -0.6618505 0.6243557 0.63395727 -0.78965324
000060 63 65 d4 3e 42 ec f7 be 4c 05 27 3f 7f cf 05 bf
       0.41483602 -0.48422438 0.6524246 -0.5226974
000070 94 a4 bd 3e 30 54 01 3f 43 e1 dc 3e 9f 04 e1 3e
       0.37039626 0.50519085 0.4314061 0.43948838

weight f4 [16, 32]
000000 a5 24 81 40 7c ca 08 42 a9 ad eb 41 86 32 17 c0
       4.035723 34.19774 29.459795 -2.3624587
000010 0a e1 7b 40 ee e9 28 3e 51 1f af 41 b5 73 0f c1
       3.9356103 0.16495487 21.890291 -8.965749
000020 5d 22 5f 41 53 2b 1d 40 50 4c 67 c2 14 1f dc c0
       13.945889 2.4557693 -57.824524 -6.8787937
000030 03 fa 74 bf 1e 31 44 c1 14 00 d0 c0 e9 2b 93 40
       -0.9569399 -12.2619915 -6.5000095 4.59911
000040 03 0d 8a 42 83 70 5f c1 57 57 42 c2 b0 50 ac c1
       69.02541 -13.964969 -48.585293 -21.539398
000050 a8 2b 89 c0 26 fb 4f c1 03 4e e2 41 8c 4c d4 41
       -4.286579 -12.998816 28.288092 26.537376
000060 7c b1 52 40 e3 1e 57 c1 41 60 ad 41 1f f7 85 c1
       3.2920828 -13.445041 21.671999 -16.745665
000070 d1 e7 48 c2 59 27 ee 41 48 8e a1 40 20 3f 04 3f
       -50.226383 29.769213 5.0486183 0.5165882
000080 41 fc 8b 40 dd e1 9d 41 84 c4 97 c1 97 f8 08 c2
       4.3745427 19.735285 -18.970955 -34.242764
000090 ec ff d3 41 ba 9c 44 42 a6 9f b3 40 b3 cc 88 40
       26.499962 49.153053 5.6132383 4.2749877
0000a0 7c ef 12 41 29 f9 8c c1 ce 50 a7 42 a6 84 10 c2
       9.183468 -17.62166 83.65782 -36.12954
0000b0 e5 87 ee 40 70 da 94 41 38 fa 36 41 42 b6 4a 41
       7.4540887 18.606659 11.436089 12.669497
0000c0 fe 8b 68 c2 ba fb f3 41 5e e3 d8 41 fa 85 4e c2
       -58.13671 30.497913 27.11102 -51.630836
0000d0 38 ca ac 41 17 b0 3b 41 d0 dc 2d c2 01 8b 90 41
       21.59874 11.730491 -43.465637 18.067873
0000e0 a6 96 d4 c0 c0 cb e7 40 47 a2 d2 3f 90 31 0a 41
       -6.6433897 7.243622 1.6455773 8.6371
0000f0 d4 f0 76 c2 37 87 e2 40 63 3e 8a bf 02 90 d1 c0
       -61.735184 7.0790057 -1.0800289 -6.548829
000100 d4 b3 57 c1 a2 7b 4e 40 e1 4d 48 42 26 a0 1e 40
       -13.481403 3.226296 50.076054 2.4785247
000110 7d 29 b7 c1 f0 c8 21 c2 1f 82 26 40 c1 d5 49 c2
       -22.895258 -40.446228 2.601692 -50.458744
000120 84 61 fb 40 04 d8 d1 c1 aa 49 9d 42 f2 de 0b 41
       7.855654 -26.230476 78.643875 8.74193
000130 e1 c9 02 42 70 7f 45 42 3a 6c 61 42 a8 6b f2 c0
       32.697147 49.37445 56.35569 -7.5756416
000140 2a ee 0f c2 22 ed 0d c1 c0 5b 72 c2 af 7e 5f c2
       -35.982582 -8.870394 -60.5896 -55.873714
000150 86 8e c3 c0 06 f6 f5 41 d3 ba 02 42 8e b3 87 c1
       -6.111148 30.745129 32.682446 -16.962673
000160 53 49 3d c2 c3 02 f0 3f a0 c8 42 c1 67 b6 cb 3f
       -47.321606 1.8750843 -12.173981 1.591504
000170 b4 91 ec 3f 03 65 7a c1 f1 ff 83 40 93 34 b0 c0
       1.8481965 -15.649661 4.124993 -5.5064178
000180 0d 16 14 42 8b a2 f3 c1 1e 6d f5 41 0a f6 1b c1
       37.021534 -30.454367 30.67828 -9.747568
000190 d5 d3 b4 bf 73 28 17 41 d5 68 3a c1 96 3a 9b c1
       -1.4127146 9.447375 -11.650594 -19.403606
0001a0 4d 1b 56 40 9a b5 9e c1 04 67 00 41 3f 7a a5 3e
       3.3454163 -19.838673 8.02515 0.3231983
0001b0 29 4b 2d c2 54 b1 49 c2 ac f4 5c 3f 95 9c 73 c1
       -43.3234 -50.423172 0.8631084 -15.225728
0001c0 5d d7 11 42 28 9e 27 c1 42 a6 82 42 53 36 1b c2
       36.460316 -10.476112 65.32472 -38.80305
0001d0 f2 17 cb c0 4f 67 1f c1 67 f3 dd 41 04 aa 44 41
       -6.346673 -9.962722 27.743849 12.291508
0001e0 91 20 98 c1 bc 56 c4 c1 1a 93 05 c1 4d 07 9c 41
       -19.015902 -24.54235 -8.348413 19.503565
0001f0 62 25 d2 c0 c4 8c a7 40 a6 7d 79 40 e4 e3 3e c0
       -6.5670633 5.2359333 3.898294 -2.9826593
000200 d8 7b 99 41 f6 67 ba 40 96 40 0c 42 a7 ea 73 c0
       19.18547 5.8251905 35.063072 -3.811197
000210 c3 dd 94 c1 bd fe 20 42 0f 86 86 42 34 ce 46 42
       -18.608282 40.248768 67.26183 49.70137
000220 8d b5 70 41 9a 5c 71 3f 75 0e 3b 40 8e fc 52 c1
       15.044324 0.94281924 2.9227574 -13.186659
000230 dc a2 76 c0 f4 e9 1d c1 9b 14 ae 3f fc a2 1d c2
       -3.8536901 -9.869617 1.3600038 -39.409164
000240 aa 75 c5 c1 be 40 29 42 d4 fe 5c 42 1a cc 56 41
       -24.682453 42.313225 55.248856 13.4248295
000250 ce 39 18 c1 8e 2d 33 41 86 61 be c1 eb 53 82 c1
       -9.514112 11.198622 -23.797619 -16.290976
000260 f3 93 10 42 26 6c 00 c0 b5 81 8f c1 37 cf 97 c1
       36.14448 -2.0066009 -17.938334 -18.97618
000270 07 59 62 c1 5d 10 3b c1 00 a6 40 40 a4 e7 4e 42
       -14.146735 -11.691495 3.0101318 51.72621
000280 7a 4c 86 c0 6f f5 0e 41 21 14 d3 c0 80 6d 4b c2
       -4.1968355 8.93492 -6.596207 -50.856934
000290 ba d6 80 41 e4 54 86 c1 d2 e0 70 c2 66 c4 8d c2
       16.104847 -16.79145 -60.21955 -70.88359
0002a0 68 b6 2d 41 6a 53 2f c2 cb 8e 3a 42 03 df 96 40
       10.857033 -43.83146 46.639446 4.714723
0002b0 a6 16 8a c2 b7 eb 69 42 27 5a e3 c0 b0 7a b7 c0
       -69.044235 58.48019 -7.104755 -5.7337265
0002c0 89 4b 72 42 05 01 5f 40 df 87 65 40 7c 4c 06 c1
       60.573765 3.4844372 3.586418 -8.393673
0002d0 cf 1f 3c c1 7c 4e ef c0 d5 4a 00 42 f5 9c ce bf
       -11.757766 -7.4783306 32.07308 -1.614165
0002e0 97 dc 18 40 69 6b 25 c1 3b e5 3c 40 2d 89 5e 42
       2.3884637 -10.338723 2.951491 55.63396
0002f0 57 ff 9d 3d a7 06 64 c0 a5 6a 14 40 09 e4 00 c0
       0.07714718 -3.562906 2.319009 -2.0139182
000300 43 62 99 bf db bd 45 42 0d df cf c0 67 ed 73 40
       -1.1983112 49.435406 -6.495978 3.811365
000310 9b ec 31 42 7f d7 07 c2 d5 2f 48 41 c1 35 18 41
       44.48106 -33.960445 12.511678 9.5131235
000320 e7 86 c0 41 57 72 bf 3f f9 ba ac c2 bd d1 a3 c1
       24.06587 1.4956769 -86.36518 -20.477411
000330 51 85 bc c0 61 20 ba 40 c0 3c 9b c1 bc 28 40 41
       -5.891274 5.8164525 -19.404663 12.009945
000340 6f c8 31 c0 d5 ca bc 41 a4 32 3e c2 a7 3f a4 40
       -2.7778585 23.59904 -47.549454 5.13277
000350 cc 90 66 41 af 8f b4 41 86 ab 96 41 8d 62 17 42
       14.410351 22.570158 18.833752 37.84624
000360 25 c1 da c0 b4 7b 45 41 77 39 96 c1 cb 3e 34 c2
       -6.836077 12.342701 -18.778059 -45.06132
000370 17 d9 08 42 3b f0 04 42 99 41 35 40 3d 54 c1 c1
       34.212 33.2346 2.8321288 -24.166132
000380 f9 19 14 41 5e 96 54 c1 f7 71 22 c1 ca 17 ed c0
       9.256341 -13.286711 -10.152823 -7.409154
000390 dd 3d 72 c2 14 b5 19 41 f0 de e4 41 f7 cb 7d 42
       -60.560413 9.606709 28.608856 63.449184
0003a0 2d 40 2c 42 75 1b 8d c1 57 f5 d6 c2 db ee dd c1
       43.06267 -17.638407 -107.47918 -27.741629
0003b0 15 63 70 c2 37 b3 bf c0 a5 82 43 c2 2b 3c f1 41
       -60.09676 -5.990627 -48.877583 30.154379
0003c0 94 75 33 40 6f 94 2f 42 a5 81 05 42 67 08 96 41
       2.8040514 43.894955 33.376606 18.754103
0003d0 ee c2 90 40 5e 03 08 c2 89 12 3c c1 e2 07 34 40
       4.523795 -34.00329 -11.754525 2.8129811
0003e0 62 e9 ff 41 27 65 a9 40 58 3c aa 41 de 03 a1 c2
       31.988956 5.2935977 21.279465 -80.50755
0003f0 4b f0 37 c2 a9 61 af c0 a5 23 2f 42 ac 6e d4 41
       -45.98466 -5.4806714 43.78481 26.554039

bias f4 [16]
000000 1f 28 ac 3e df ac d8 be b7 8b 3b 3e 0e 1c 31 be
       0.3362436 -0.4231939 0.18315016 -0.17295858
000010 8a c8 08 3f 1e d8 72 be 8f 19 06 bf 42 87 d7 be
       0.53431 -0.23715255 -0.5238275 -0.4209538
000020 b5 4d 0c bf 03 27 19 bf d4 5c 1e 3f 64 70 0a bf
       -0.5480607 -0.5982515 0.61860394 -0.54077744
000030 d6 d9 4e 3f f4 05 4a 3f 49 12 5a 3f 00 ee 00 bf
       0.8080114 0.78915334 0.8518415 -0.5036316

weight f4 [4, 16]
000000 c8 cc 09 c2 db 4b 90 42 f6 9a 00 41 6c d8 61 c1
       -34.44998 72.148155 8.037832 -14.115337
000010 04 f2 ae bf 9b 7d d8 42 99 63 4b 3f b6 b2 ab c1
       -1.3667607 108.24532 0.7944885 -21.462261
000020 e7 8c 93 42 35 3f 45 c1 9a 4d 38 c2 b2 75 ca 41
       73.7752 -12.327931 -46.075783 25.307468
000030 5a ac 24 42 73 ed 26 42 e1 59 21 42 48 0b 81 c2
       41.168312 41.731884 40.337772 -64.52203
000040 0f 61 f8 c1 5a 75 83 42 23 3f 99 c2 dc 63 67 42
       -31.047392 65.7292 -76.623314 57.84752
000050 5d 0f 97 42 c0 41 0d 42 39 3e cc c2 27 2e b9 42
       75.53001 35.31421 -102.12153 92.59014
000060 14 c4 3f c2 70 78 51 42 c5 9d d9 c1 26 60 53 c2
       -47.941483 52.367615 -27.202036 -52.843895
000070 aa 61 57 42 2f 23 35 c0 69 8d 3e 42 65 b4 8d 42
       53.845375 -2.8302724 47.638096 70.85233
000080 24 ed ae 41 08 bb 7a c1 d2 73 b6 42 57 11 e0 3f
       21.865791 -15.670662 91.22621 1.7505292
000090 5f 67 9a 41 0b 9d 47 42 e3 eb 5b c2 23 ad a3 42
       19.300474 49.903362 -54.98036 81.83816
0000a0 d4 99 25 c2 03 12 46 42 03 03 e4 41 6a 2c 3b c2
       -41.400223 49.51759 28.50147 -46.793373
0000b0 90 75 0c 42 ba 10 32 c2 5a ad c4 41 ba 36 e8 41
       35.114807 -44.516335 24.584644 29.026722
0000c0 11 db 48 40 db 2a a6 c0 cf ef 8d be be 6b 3e 40
       3.1383708 -5.1927314 -0.27722022 2.975326
0000d0 82 50 a8 bf 39 92 a1 c0 2b b1 68 40 e3 25 1e c0
       -1.3149569 -5.0490994 3.6358135 -2.4710624
0000e0 3a 91 ad c0 ba b6 ff bf da 4a 20 40 1a 72 4f 3f
       -5.423978 -1.9977639 2.5045686 0.8103348
0000f0 ea 63 7c c0 4a eb 6f 3f fa dd 92 c0 38 f3 c0 3e
       -3.9435983 0.937184 -4.5895967 0.3768556

bias f4 [4]
000000 6a 54 3e be 6d 24 de 3d ca 7c d8 3f 3f 02 ec be
       -0.18586889 0.108467914 1.6913083 -0.46095464
