trained_model/model0.pth (torch, 384666 bytes, 46 tensors)

weight f4 [4, 1, 3, 3, 3]
0.08426101 0.09430146 -0.1404743 0.041400198 0.09262928 0.18911234 -0.03247476 -0.02315681
-0.12095696 0.06298118 0.19275847 0.051723253 -0.05676159 0.15903865 0.058200844 -0.000614252
0.005155513 0.15269564 0.095954284 0.037770025 -0.08828424 0.013137147 -0.054692008 -0.052698348
-0.15626511 -0.18789119 -0.14981227 -0.19738446 0.015225152 0.056288604 -0.014131329 -0.086681336
-0.17843837 -0.041835777 0.18581332 -0.16182822 -0.14796367 -0.042103082 -0.07482056 -0.053569417
0.05049889 0.044501416 -0.0028200059 -0.025188485 -0.19690093 -0.15245895 -0.086819194 0.1381602
-0.19793361 -0.0356849 0.045696694 0.09210914 -0.17571019 0.07169812 -0.022803234 -0.064907245
0.116896346 0.11664707 0.10164679 0.104411826 0.01854173 -0.061984096 -0.029340748 -0.16741684
-0.12498214 0.18533865 -0.008725602 -0.04851675 0.056077983 -0.033574343 -0.11081643 -0.017850334
0.12288554 -0.1596033 -0.043701816 -0.14472835 -0.009212299 0.06637868 -0.09089712 -0.037585888
0.12655339 0.021758175 -0.1363303 0.05701465 -0.0920652 0.19179837 -0.09369592 0.08743304
0.07247384 -0.029363334 0.04004154 -0.18174073 -0.084103964 -0.17096138 -0.16208078 0.13952245
0.11356862 0.014695641 0.1759964 -0.1435115 0.040491775 -0.13062802 -0.057311453 -0.17084745
0.021072049 0.1472783 -0.16117442 0.06887326
00000000: 0991 ac3d 2021 c13d 7fd8 0fbe 4193 293d
00000010: 6cb4 bd3d aaa6 413e 4104 05bd 5ab3 bdbc
00000020: 48b8 f7bd 47fc 803d 7a62 453e c3db 533d
00000030: d77e 68bd 07db 223e 0264 6e3d c105 21ba
00000040: 94ef a83b 3f5c 1c3e ae83 c43d beb4 1a3d
00000050: 5ece b4bd 303d 573c ba04 60bd 39da 57bd
00000060: f603 20be 8c66 40be 6368 19be 271f 4abe
00000070: ea72 793c e18e 663d 1787 67bc fc85 b1bd
00000080: 8cb8 36be fe5b 2bbd d945 3e3e 4cb6 25be
00000090: ca83 17be 4874 2cbd 863b 99bd 9b6b 5bbd
000000a0: edd7 4e3d 1e47 363d d9cf 38bb 1558 cebc
000000b0: 66a0 49be 331e 1cbe 43ce b1bd de79 0d3e
000000c0: 1caf 4abe 542a 12bd 752c 3b3d b7a3 bc3d
000000d0: 5fed 33be 77d6 923d d9cd babc 17ee 84bd
000000e0: 5a67 ef3d a9e4 ee3d 312c d03d ded5 d53d
000000f0: d3e4 973c 09e3 7dbd 025c f0bc 526f 2bbe
00000100: a3f6 ffbd 6ac9 3d3e d4f5 0ebc 80b9 46bd
00000110: 07b2 653d 4085 09bd b9f3 e2bd dd3a 92bc
00000120: 6aab fb3d 0c6f 23be ad00 33bd ab33 14be
00000130: 2fef 16bc 8cf1 873d 4528 babd a9f3 19bd
00000140: 3697 013e 333e b23c 2c9a 0bbe 3288 693d
00000150: ae8c bcbd cb66 443e a6e3 bfbd 1810 b33d
00000160: 2a6d 943d 608b f0bc 9902 243d 3e1a 3abe
00000170: b33e acbd 8010 2fbe 81f8 25be f9de 0e3e
00000180: aa96 e83d fcc5 703c 6638 343e aef4 12be
00000190: b4da 253d 5ac3 05be 6abf 6abd a2f2 2ebe
000001a0: 4a9f ac3c 1fd0 163e e80a 25be 6c0d 8d3d

bias f4 [4]
-0.044076316 0.16325764 0.06031227 -0.0464002
00000000: 5e89 34bd 032d 273e 000a 773d 230e 3ebd

weight f4 [8, 4, 3, 3, 3]
-0.043779414 0.049923018 0.03328497 -0.069371864 -0.03837511 -0.029642085 0.06793071 -0.064880796
0.081100315 -0.0037476746 -0.014070806 -0.02996661 0.07288233 0.031811647 0.009004648 -0.011672243
-0.068359025 -0.035470515 0.0673368 0.00055786275 0.0031530345 -0.07088342 -0.078104936 -0.08982105
-0.0893835 0.04428331 -0.008906558 -0.08873467 0.095139064 -0.08521839 -0.05009918 -0.090334795
0.049532566 -0.03483647 0.059996486 -0.047984067 -0.08357926 -0.0457903 -0.091882445 -0.015572865
0.021661261 0.05102209 0.039488293 0.04812362 -0.06313606 -0.02837449 0.030511828 -0.026284724
-0.082646824 -0.06666885 0.06031944 0.09364077 -0.045537136 0.0032758142 -0.037524123 -0.07812705
0.019788466 -0.007857784 -0.06168136 0.013261174 0.0678164 0.0773257 0.06314911 -0.08356326
-0.042342376 -0.03614391 -0.058788564 0.07444005 -0.03436588 -0.015867764 0.030699996 0.020668317
0.062166058 -0.04678021 -0.07387682 -0.06881417 -0.038972348 -0.00012684 0.011313213 -0.07453085
-0.010014194 -0.039677236 -0.01854326 -0.095781125 0.06712781 -0.09438473 -0.098199055 -0.05476645
-0.040865857 0.07135156 -0.004125186 -0.056792457 -0.091328286 -0.088871345 0.025227964 0.06428912
-0.043184176 -0.020828633 0.018176705 0.0066928514 0.06756525 0.0040734014 -0.022971617 -0.035945628
0.02779547 -0.00403595 0.05361632 -0.05314495 -0.09654611 -0.04556248 -0.058162075 -0.09478697
-0.029047118 -0.09413184 -0.07061463 -0.01584691 0.070717365 -0.07587629 -0.040361553 -0.008327815
0.06358851 -0.09718955 -0.0031277048 0.05625692 -0.08282587 0.0767948 0.05003827 0.050468016
0.021627039 -0.05608905 0.019717632 0.025331283 0.050893165 -0.1010142 0.026352005 -0.06056288
-0.019429673 -0.081212044 -0.07908021 0.061235778 -0.098560154 0.008384974 -0.04852782 0.040621262
0.026469687 0.014466941 -0.07094239 0.0141510805 0.05734981 0.025952054 -0.10026126 -0.045701493
-0.046850145 0.032991003 0.009590501 0.07770326 0.032831054 -0.075492 0.0776194 -0.011213312
0.02517275 -0.07622297 -0.02068649 -0.07878486 -0.05884507 0.053610284 0.041977223 0.021816367
0.0403273 -0.024253424 -0.058822215 -0.06194238 -0.089707226 0.07692259 0.012187912 -0.08621331
-0.02283918 -0.07931438 -0.025202392 0.005500041 -0.093291536 0.006834352 0.007320224 0.035434704
-0.044791497 -0.08803331 -0.058148693 0.07921734 -0.080721706 0.027986549 0.038156927 -0.023089739
-0.00095461484 -0.09603311 -0.052051913 0.0639443 0.0722035 0.08721176 -0.022420768 -0.061703596
0.06648705 0.011109415 -0.0162872 0.034538455 -0.0065106796 -0.03141625 0.034902588 -0.08501976
-0.017577581 -0.07756629 -0.04906734 -0.093797706 0.028100071 0.061212715 -0.0768156 0.022168674
0.06294386 -0.042760234 -0.0038312338 0.08075571 0.07752172 0.072074406 -0.026759453 0.02423989
-0.08852275 -0.02745942 -0.06131484 0.09072863 0.0949408 -0.044082515 0.038105886 0.052162003
-0.03624221 -0.0036626922 -0.0154998535 0.08092927 0.068547264 0.0121670915 0.05768426 0.03165084
0.022342978 0.006304464 -0.03595737 -0.094921924 -0.033470992 0.008613067 -0.05892434 0.05681678
0.06679335 -0.05410005 0.031066075 -0.037039876 0.010429408 0.008905292 -0.06891024 0.019958332
00000000: 0b52 33bd 147c 4c3d d255 083d d612 8ebd
00000010: 382f 1dbd f5d3 f2bc 421f 8b3d 39e0 84bd
00000020: ec17 a63d 8c9b 75bb 3d89 66bc 897c f5bc
00000030: 5543 953d ee4c 023d 3b88 133c ef3c 3fbc
00000040: d1ff 8bbd 8849 11bd e0e7 893d 893d 123a
00000050: 24a3 4e3b 542b 91bd 7bf5 9fbd 19f4 b7bd
00000060: b20e b7bd 6b62 353d d0ec 11bc 86ba b5bd
00000070: 45d8 c23d fb86 aebd cc34 4dbd 7301 b9bd
00000080: a9e2 4a3d b0b0 0ebd e0be 753d f18a 44bd
00000090: 9a2b abbd 9c8e 3bbd dd2c bcbd 5425 7fbc
000000a0: f572 b13c 8afc 503d 7abe 213d 461d 453d
000000b0: 7b4d 81bd 9e71 e8bc f1f3 f93c 1053 d7bc
000000c0: bd42 a9bd ae89 88bd 8411 773d bbc6 bf3d
000000d0: 2685 3abd 0baf 563b e5b2 19bd 1301 a0bd
000000e0: 6c1b a23c efbd 00bc 98a5 7cbd 6545 593c
000000f0: 53e3 8a3d f05c 9e3d 5254 813d 3723 abbd
00000100: 336f 2dbd a30b 14bd 47cc 70bd 0674 983d
00000110: 3dc3 0cbd 1dfd 81bc 8f7e fb3c 9a50 a93c
00000120: d6a1 7e3d 9b9c 3fbd bb4c 97bd 72ee 8cbd
00000130: 78a1 1fbd 5a00 05b9 0e5b 393c a1a3 98bd
00000140: 9312 24bc 9984 22bd 09e8 97bc e528 c4bd
00000150: 4e7a 893d c84c c1bd 961c c9bd c952 60bd
00000160: f562 27bd c420 923d 912c 87bb 359f 68bd
00000170: 530a bbbd 2e02 b6bd e0aa ce3c 04aa 833d
00000180: e4e1 30bd cfa0 aabc 50e7 943c b54f db3b
00000190: a65f 8a3d 2b7a 853b f92e bcbc b93b 13bd
000001a0: 53b3 e33c 0140 84bb c99c 5b3d 85ae 59bd
000001b0: f8b9 c5bd b99f 3abd 5b3b 6ebd ac1f c2bd
000001c0: 39f4 edbc 32c8 c0bd 679e 90bd 61d1 81bc
000001d0: 44d4 903d 0765 9bbd 2852 25bd 6371 08bc
000001e0: b13a 823d 510b c7bd 2efa 4cbb a86d 663d
000001f0: 9ca0 a9bd 9846 9d3d eef4 4c3d 8db7 4e3d
00000200: 302b b13c a2bd 65bd df86 a13c 8d83 cf3c
00000210: 5a75 503d 88e0 cebd 29e0 d73c c810 78bd
00000220: fa2a 9fbc 8052 a6bd cef4 a1bd 5ed2 7a3d
00000230: e8d9 c9bd 2161 093c 1bc5 46bd 7b62 263d
00000240: f5d6 d83c c006 6d3c 3e4a 91bd efd9 673c
00000250: a2e7 6a3d 6799 d43c c755 cdbd 7d31 3bbd
00000260: f0e5 3fbd 9321 073d 7a21 1d3c e322 9f3d
00000270: db79 063d 8d9b 9abd ecf6 9e3d 0ab8 37bc
00000280: 1537 ce3c ca1a 9cbd b776 a9bc f559 a1bd
00000290: 8707 71bd 7596 5b3d 4ff0 2b3d 3db8 b23c
000002a0: 3d2e 253d 1eaf c6bc 90ef 70bd 4bb7 7dbd
000002b0: 6cb8 b7bd 9789 9d3d cfaf 473c 9b90 b0bd
000002c0: 3b19 bbbc 946f a2bd 3f75 cebc b039 b43b
000002d0: a20f bfbd b3f2 df3b 7dde ef3b fb23 113d
000002e0: 4a77 37bd cf4a b4bd 532d 6ebd b33c a23d
000002f0: 6c51 a5bd 0c44 e53c 704a 1c3d b126 bdbc
00000300: 1e3f 7aba 02ad c4bd 6334 55bd 3bf5 823d
00000310: 6edf 933d 149c b23d c2ab b7bc e9bc 7cbd
00000320: 5d2a 883d 4404 363c bc6c 85bc 3278 0d3d
00000330: 8a57 d5bb 53ae 00bd 04f6 0e3d d71e aebd
00000340: dcfe 8fbc 13db 9ebd d6fa 48bd 0319 c0bd
00000350: 1f32 e63c 2fba 7a3d 7f51 9dbd 149b b53c
00000360: b6e8 803d 5b25 2fbd 7015 7bbb 4063 a53d
00000370: b5c3 9e3d bf9b 933d a436 dbbc bc92 c63c
00000380: 6a4b b5bd 94f2 e0bc 4525 7bbd efcf b93d
00000390: 5270 c23d de8f 34bd eb14 1c3d d3a7 553d
000003a0: b672 14bd c709 70bb 19f3 7dbc 3fbe a53d
000003b0: 8262 8c3d 7b58 473c 5546 6c3d 50a4 013d
000003c0: 9f08 b73c ad95 ce3b 0948 13bd 6d66 c2bd
000003d0: e118 09bd d21d 0d3c a65a 71bd b6b8 683d
000003e0: f4ca 883d 0498 5dbd 487e fe3c 20b7 17bd
000003f0: 1ce0 2a3c 80e7 113c d020 8dbd a87f a33c

bias f4 [8]
0.06186159 -0.100112826 -0.0657915 -0.04929303 -0.006285543 0.053644754 -0.0070446488 -0.0764121
00000000: 9462 7d3d f407 cdbd b2bd 86bd 7de7 49bd
00000010: f5f6 cdbb 9aba 5b3d ccd6 e6bb f27d 9cbd

weight f4 [16, 8, 3, 3, 3]
0.024651958 -0.052725058 -0.023553694 0.0040967846 -0.05585852 -0.007792586 0.057396032 0.01372297
-0.030201757 -0.042688772 0.05673948 -0.06848721 -0.028882189 -0.043741584 -0.030092886 0.01163729
0.04375942 0.0391119 -0.0039648935 0.011786463 0.011593584 0.037309334 -0.04685741 0.010406421
0.057679176 0.032343235 -0.027726024 -0.031689573 0.005125599 -0.056598954 -0.04831792 -0.05811866
-0.05882325 -0.037676554 -0.007212426 0.01313529 -0.0051063984 0.026576854 -0.009847675 0.011242833
-0.06704576 0.029396614 -0.009901072 -0.06775997 -0.053526204 0.053668175 -0.031174073 -0.044277232
0.028552825 0.010413621 -0.05466324 0.007850308 -0.010241899 -0.062492054 0.03584124 -0.02562261
-0.014215772 -0.061770447 0.05714849 -0.051057477 0.025274435 -0.0032312924 0.009100685 -0.013087484
0.048309706 0.06275977 0.039897576 0.009561398 -0.027905662 -0.056446474 -0.059440706 0.055877138
-0.01012172 0.01859553 0.0217626 0.04425315 -0.05927609 0.04804535 0.02056171 0.024266366
-0.063818395 0.0028344644 0.06086513 -0.008959492 0.030501753 -0.040782765 0.03725284 -0.057392668
0.05896107 0.070212506 0.028978737 -0.06284619 0.019511003 -0.048677858 -0.025039578 -0.050458524
0.0021075865 0.01209353 0.0029226327 0.02886852 0.00039937493 -0.05370831 0.0439572 0.03736675
0.041861743 -0.013673848 0.06118562 0.026480706 0.069273256 -0.05066576 0.061418552 0.07100524
-0.035132896 0.0040434524 -0.034225497 0.0055886023 -0.04580962 0.059882108 0.034889806 -0.04315082
-0.050087146 -0.016854871 0.02531818 0.015786123 0.065042496 0.021895435 -0.027249021 0.04399159
-0.063747354 -0.040083822 -0.01920861 0.010001422 0.066767 0.06172648 -0.0209639 -0.026426855
0.048498426 -0.047635376 0.053748984 -0.052531175 0.020676665 0.049752615 -0.062041253 0.049367797
0.06894795 -0.0013541811 0.025305925 0.06272734 0.020146579 -0.022114195 0.02340315 0.012182525
-0.0003527777 -0.0047097337 -0.039680894 -0.010092907 0.060514156 -0.015088878 -0.011043541 -0.052772503
-0.024434164 0.059537277 0.06807781 -0.02133704 -0.021281285 -0.029633202 0.007584806 -0.037379507
0.046343833 -0.037339933 0.05645987 0.0039389078 0.010956272 0.05037128 -0.03006529 0.013288199
-0.046123773 0.059863687 -0.04468519 -0.05137191 -0.035703253 0.026434721 0.018394798 -0.014833943
0.00042154026 0.042933915 0.018658828 -0.03913953 -0.0041850912 0.03918124 0.006739316 -0.04680015
-0.040184993 0.0004944786 0.04238837 0.018033486 0.0073887333 0.011806265 0.020446677 -0.05382334
0.041427504 0.008406316 0.03851583 -0.010983135 0.061273426 0.050236735 0.026062116 0.05938334
-0.050054222 -0.05639434 0.005887634 -0.056337573 -0.04488294 -0.05677146 -0.020955322 -0.030926
-0.050567783 -0.01655689 0.013696744 0.046882223 0.0019158476 0.038833283 0.07050576 -0.03558234
-0.0031269703 0.009737281 0.049298536 -0.046146702 0.054013003 0.0072960053 -0.061280794 0.07179889
0.032978863 0.0086425 -0.05063083 -0.046095114 -0.008380664 0.037579034 -0.037492596 0.03204815
-0.045545354 0.015558698 0.031920295 0.04762219 -0.020421613 0.034192774 0.034915365 -0.065694615
-0.025634205 -0.05155368 -0.030875316 -0.0037448222 -0.04196099 -0.033359487 -0.03902326 0.05426814
00000000: e7f2 c93c 3bf6 57bd adf3 c0bc 523e 863b
00000010: e7cb 64bd f358 ffbb 1a18 6b3d 4fd6 603c
00000020: ad69 f7bc 6cda 2ebd a867 683d 0643 8cbd
00000030: 579a ecbc 602a 33bd 5b85 f6bc 55aa 3e3c
00000040: 143d 333d cd33 203d f0eb 81bb 021c 413c
00000050: 04f3 3d3c acd1 183d 8eed 3fbd b17f 2a3c
00000060: 0041 6c3d 577a 043d b021 e3bc edcc 01bd
00000070: a4f4 a73b 4ed4 67bd 03e9 45bd d50d 6ebd
00000080: a6f0 70bd bb52 1abd 3756 ecbb 6635 573c
00000090: 9353 a7bb b4b7 d93c 2558 21bc dc33 383c
000000a0: 4a4f 89bd 2bd1 f03c 1b38 22bc bdc5 8abd
000000b0: 4b3e 5bbd 29d3 5b3d c560 ffbc 0b5c 35bd
000000c0: 9de7 e93c e49d 2a3c 90e6 5fbd 949e 003c
000000d0: a3cd 27bc abf7 7fbd 44ce 123d 82e6 d1bc
000000e0: 45e9 68bc 0203 7dbd 8914 6a3d a521 51bd
000000f0: 550c cf3c 17c4 53bb 0a1b 153c e36c 56bc
00000100: 66e0 453d 3288 803d a46b 233d 69a7 1c3c
00000110: 6a9a e4bc 6b34 67bd 1978 73bd 6ddf 643d
00000120: 92d5 25bc a755 983c 7b47 b23c ca42 353d
00000130: 7ccb 72bd 33cb 443d 0871 a83c 42ca c63c
00000140: 38b3 82bd 6cc2 393b b74d 793d d5ca 12bc
00000150: d0de f93c d40b 27bd 6f96 183d 9314 6bbd
00000160: 2a81 713d 93cb 8f3d d164 ed3c 81b5 80bd
00000170: 8ad5 9f3c 6f62 47bd cd1f cdbc 99ad 4ebd
00000180: 6f1f 0a3b f123 463c a489 3f3b ad7d ec3c
00000190: 3263 d139 3ffd 5bbd 770c 343d e10d 193d
000001a0: 3877 2b3d 4608 60bc c69d 7a3d 11ee d83c
000001b0: 23df 8d3d e686 4fbd 0592 7b3d 326b 913d
000001c0: 83e7 0fbd f07e 843b 0930 0cbd 9820 b73b
000001d0: dea2 3bbd f146 753d 9de8 0e3d eabe 30bd
000001e0: 2e28 4dbd 3a13 8abc 1268 cf3c e651 813c
000001f0: 0035 853d 0e5e b33c 5739 dfbc 8730 343d
00000200: f98d 82bd ef2e 24bd 605b 9dbc 01dd 233c
00000210: 23bd 883d e8d4 7c3d 7cbc abbc 227d d8bc
00000220: 49a6 463d 501d 43bd e527 5c3d ee2a 57bd
00000230: 1c62 a93c 66c9 4b3d f81e 7ebd e335 4a3d
00000240: 9534 8d3d c77e b1ba 5f4e cf3c 3177 803d
00000250: 700a a53c d428 b5bc f6b7 bf3c 3799 473c
00000260: 05f5 b8b9 1c54 9abb 6f88 22bd b85c 25bc
00000270: b1dd 773d 5737 77bc f8ef 34bc fb27 58bd
00000280: 282a c8bc 5cdd 733d 616c 8b3d 04cb aebc
00000290: 1756 aebc 54c1 f2bc f789 f83b 411b 19bd
000002a0: 08d3 3d3d c2f1 18bd 7742 673d f411 813b
000002b0: ef81 333c 1e52 4e3d 7c4b f6bc bfb6 593c
000002c0: 48ec 3cbd a033 753d d107 37bd 5a6b 52bd
000002d0: 933d 12bd a18d d83c b0b0 963c 110a 73bc
000002e0: 2d02 dd39 79db 2f3d 66da 983c c650 20bd
000002f0: 1723 89bb 827c 203d 7bd5 dc3b 84b1 3fbd
00000300: 0599 24bd e69f 013a 6d9f 2d3d f6ba 933c
00000310: 301d f23b 116f 413c ca7f a73c dd75 5cbd
00000320: e3af 293d a5ba 093c c6c2 1d3d 9bf2 33bc
00000330: d8f9 7a3d 09c5 4d3d 3880 d53c f23b 733d
00000340: a805 4dbd c0fd 66bd 0eed c03b 3ac2 66bd
00000350: 2cd7 37bd 3189 68bd 7faa abbc 8658 fdbc
00000360: 2a20 4fbd 51a2 87bc 4f68 603c 9307 403d
00000370: 2e1d fb3a a60f 1f3d 5365 903d cabe 11bd
00000380: dbed 4cbb 1e89 1f3c 43ed 493d 5304 3dbd
00000390: bd3c 5d3d 5413 ef3b 9201 7bbd 4c0b 933d
000003a0: d814 073d 4699 0d3c 4662 4fbd 3bce 3cbd
000003b0: 0d4f 09bc 79ec 193d d691 19bd ec44 033d
000003c0: c48d 3abd e9e9 7e3c dbbe 023d 7c0f 433d
000003d0: 3a4b a7bc b90d 0c3d 6a03 0f3d e68a 86bd
000003e0: d3fe d1bc f429 53bd 3bee fcbc b16b 75bb
000003f0: 49df 2bbd f5a3 08bd dbd6 1fbd 4548 5e3d

bias f4 [16]
0.04338722 -0.00857725 0.024768438 -0.0122175515 -0.056619026 -0.013998796 0.043171164 -0.008929634
0.074048914 0.06762391 0.037164807 -0.01769857 0.023273215 -0.020755865 -0.052016765 0.026349094
00000000: ccb6 313d 9887 0cbc 2ee7 ca3c 202c 48bc
00000010: 5ae9 67bd 355b 65bc 3fd4 303d 994d 12bc
00000020: f5a6 973d 687e 8a3d 203a 183d 97fc 90bc
00000030: 78a7 be3c 3408 aabc 880f 55bd 0eda d73c

weight f4 [32, 16, 3, 3, 3]
-0.044859674 0.026841987 0.030659446 -0.014321588 0.030738782 0.041291084 -0.016084742 0.040556107
-0.01828986 0.012227152 0.032615837 -0.01774206 -0.052757934 -0.046846185 -0.048490405 0.027851816
0.03854834 0.03684107 0.04672003 -0.013756301 0.03186464 0.009627607 -0.042850237 -0.03454811
-0.04528559 -0.002041232 -0.031428795 -0.041401047 -0.044250034 0.04076997 -0.0295895 0.035958264
0.018557549 -0.012636073 0.019758498 0.020231506 -0.024962578 0.041143272 -0.0127994 0.030160377
0.008070067 0.039135333 0.008106239 -0.045192935 0.029780779 -0.014329471 0.037564877 0.040141065
0.013281996 0.0020590245 0.03734966 -0.010381731 0.024122797 0.00514917 -0.018093603 -0.04021874
0.004936929 -0.017567605 -0.015528865 -0.048708986 -0.03345661 -0.041508324 0.02722409 -0.022685222
0.03567757 -0.0007283472 -0.054094825 -0.006235765 -0.030670179 -0.018297527 -0.02954398 -0.040741168
0.009117421 0.014616322 -0.0077469954 -0.040282615 0.033110123 0.029232798 0.00036638262 -0.045170043
0.021099575 0.019520108 0.015151118 0.022124417 -0.0074064396 -0.036832657 -0.0177055 0.008283474
0.041764844 -0.0065896004 -0.04215875 0.023632688 0.029698512 0.008390199 0.021519331 -0.031904507
-0.015321385 -0.0062336633 0.038174357 -0.03290017 -0.038083874 -0.043404825 0.0005600333 -0.0055266484
0.023737757 0.0106830485 0.009327028 -0.0033916782 0.021932911 -0.0057440926 -0.021171039 0.01074554
0.031038687 0.0036767381 0.011038952 -0.04459037 0.02893365 -0.0145602 -0.025990099 -0.04162076
-0.035640076 -0.024394136 -0.038631514 -0.024337657 -0.017966762 -0.011268406 -0.018570116 -0.019723196
-0.026805835 -0.03850141 -0.027284058 -0.01420147 -0.046970546 -0.05156674 0.0061219144 -0.027587544
0.015291629 0.035790626 -0.009412434 0.011142295 0.003334355 0.0150845535 0.03982148 0.016781403
-0.03377159 0.0050417613 -0.048289273 0.031608995 0.041844036 -0.04767572 -0.010880072 0.040632907
0.0058523933 -0.029316114 0.0062362733 -0.037132535 -0.02495888 0.03524505 0.040682267 -0.022407122
-0.047563873 0.039801892 0.012727838 0.018147463 -0.03817953 -0.015153006 -0.028136393 -0.047121298
0.0071232356 -0.008157084 -0.04651947 -0.015714206 -0.0030147089 0.00032437447 0.041018475 0.041166138
0.03819203 0.0054052756 -0.01996467 -0.032667466 0.008651294 0.0113260485 0.020409415 -0.04042489
-0.013959326 -0.042967986 0.006359529 -0.05353582 -0.01663618 -0.045418467 -0.022764625 -0.02199228
-0.026797118 0.00882155 0.034668367 0.009152964 0.039613504 -0.04860235 -0.014783923 0.01236948
0.026107013 -0.045327757 -0.023776185 -0.033071652 -0.0066401595 0.011749352 -0.027394243 -0.045179065
0.0040208045 0.026383277 0.018422706 -0.024745151 -0.0032362149 -0.018867938 0.029960541 0.022712817
0.0023642033 0.0140637765 0.015401271 -0.025517788 0.008068953 -0.011704783 0.0034560375 -0.02295225
-0.0148503 0.025948372 -0.03710986 0.026523717 -0.032078207 -0.003683316 -0.051636115 0.027742233
-0.008324301 -0.014731806 -0.040096972 -0.02406987 -0.051657736 -0.010099482 4.445841e-05 0.02069243
-0.047102194 0.027484627 0.026036628 0.019398097 0.016587278 -0.02339009 7.9900026e-05 0.00072128634
-0.032665633 0.021170016 -0.009674713 -0.048448283 -0.026818551 -0.041035205 0.014351941 0.023810051
00000000: c7be 37bd bae3 db3c 8529 fb3c 18a5 6abc
00000010: e6cf fb3c d720 293d 26c4 83bc 291e 263d
00000020: 9ed4 95bc 6454 483c 2f98 053d cc57 91bc
00000030: b418 58bd c9e1 3fbd e09d 46bd 7e29 e43c
00000040: dde4 1d3d a9e6 163d 815d 3f3d 1c62 61bc
00000050: 7f84 023d 1cbd 1d3c bb83 2fbd 5282 0dbd
00000060: 627d 39bd 31c6 05bb 7bbb 00bd 2594 29bd
00000070: 863f 35bd 69fe 263d ae65 f2bc f948 133d
00000080: 0006 983c 8807 4fbc 93dc a13c 8bbc a53c
00000090: 527e ccbc d985 283d 93b4 51bc e512 f73c
000000a0: 5038 043c 5f4c 203d 08d0 043c 3a1c 39bd
000000b0: d2f6 f33c 28c6 6abc a1dd 193d f56a 243d
000000c0: bb9c 593c b3f0 063b f5fb 183d 2318 2abc
000000d0: 2c9d c53c 5eba a83b 0939 94bc 68bc 24bd
000000e0: f6c5 a13b f0e9 8fbc c86c 7ebc 1383 47bd
000000f0: cc09 09bd a204 2abd 0e05 df3c 5cd6 b9bc
00000100: a522 123d 8eee 3eba 8992 5dbd 6355 ccbb
00000110: 0740 fbbc b2e4 95bc 3706 f2bc 36e0 26bd
00000120: 3c61 153c 4c79 6f3c 82da fdbb 62ff 24bd
00000130: 7b9e 073d 9f79 ef3c 0b17 c039 3904 39bd
00000140: 04d9 ac3c a2e8 9f3c 653c 783c 443e b53c
00000150: b8b1 f2bb d7dd 16bd 200b 91bc 68b7 073c
00000160: 9d11 2b3d 93ed d7bb a7ae 2cbd 5799 c13c
00000170: 4b4a f33c 0c77 093c 4f49 b03c 4dae 02bd
00000180: 8c06 7bbc c243 ccbb b75c 1c3d 54c2 06bd
00000190: d6fd 1bbd 42c9 31bd 33cf 123a e318 b5bb
000001a0: af75 c23c f407 2f3c 64d0 183c eb46 5ebb
000001b0: a6ac b33c f138 bcbb e36e adbc 100e 303c
000001c0: d844 fe3c 6ef5 703b b8dc 343c 64a4 36bd
000001d0: 4306 ed3c e88d 6ebc 30e9 d4bc 887a 2abd
000001e0: 54fb 11bd 36d6 c7bc 143c 1ebd c45f c7bc
000001f0: 082f 93bc 1f9f 38bc 5b20 98bc 8a92 a1bc
00000200: e997 dbbc a8b3 1dbd d182 dfbc 48ad 68bc
00000210: 3064 40bd a537 53bd 579a c83b 46ff e1bc
00000220: be89 7a3c 3199 123d 9c36 1abc 2c8e 363c
00000230: 3285 5a3b 3425 773c d91b 233d 2779 893c
00000240: 1454 0abd 5c35 a53b f9ca 45bd 6f78 013d
00000250: a764 2b3d 9e47 43bd 5442 32bc b16e 263d
00000260: 6fc5 bf3b 5928 f0bc a759 cc3b 4918 18bd
00000270: 9176 ccbc 1d5d 103d 73a2 263d 248f b7bc
00000280: 56d2 42bd 4f07 233d 6c88 503c fda9 943c
00000290: 2462 1cbd 5044 78bc 4b7e e6bc 4302 41bd
000002a0: 086a e93b 4aa5 05bc 338b 3ebd 14bb 80bc
000002b0: 6c92 45bb ce10 aa39 fd02 283d d39d 283d
000002c0: 3f6f 1c3d bd1e b13b f38c a3bc 52ce 05bd
000002d0: 28be 0d3c e490 393c a531 a73c 9294 25bd
000002e0: a8b5 64bc 33ff 2fbd 9963 d03b 6048 5bbd
000002f0: 9948 88bc b708 3abd e17c babc 2729 b4bc
00000300: a185 dbbc 4388 103c 6b00 0e3d 50f6 153c
00000310: c541 223d 4213 47bd 4438 72bc 5ca9 4a3c
00000320: 60de d53c 99a9 39bd 46c6 c2bc 2476 07bd
00000330: b295 d9bb 5b80 403c e469 e0bc af0d 39bd
00000340: f4c0 833b be21 d83c 37eb 963c 58b6 cabc
00000350: ad16 54bb ef90 9abc cf6f f53c 3b10 ba3c
00000360: c0f0 1a3b c16b 663c 9d55 7c3c ae0a d1bc
00000370: a433 043c 6bc5 3fbc b07e 623b 5b06 bcbc
00000380: ac4e 73bc ae91 d43c 8200 18bd 4448 d93c
00000390: 7064 03bd ca63 71bb 6480 53bd ae43 e33c
000003a0: a662 08bc ac5d 71bc b93c 24bd 2d2e c5bc
000003b0: 1097 53bd 4c78 25bc db78 3a38 2c83 a93c
000003c0: 3bee 40bd 7127 e13c c44a d53c c2e8 9e3c
000003d0: 0be2 873c 939c bfbc 0090 a738 b514 3d3a
000003e0: 66cc 05bd be6c ad3c b082 1ebc b571 46bd
000003f0: 94b2 dbbc 8814 28bd 6724 6b3c 4c0d c33c

bias f4 [32]
-0.032023504 0.015246547 0.027942093 -0.06785761 0.0029993467 0.019148348 -0.0064566857 -0.02563376
0.021456111 0.046294034 0.029998027 -0.009791524 0.036017068 -0.013065565 -0.011881324 -0.035630446
-0.021830974 0.038814403 0.03761712 0.023579938 0.04929253 -0.0036853743 -0.0106916465 -0.019350376
0.020525068 -0.04496586 -0.05035412 0.015643384 0.0016086686 0.0055785826 0.027409108 0.017632663
00000000: 142b 03bd a7cc 793c d1e6 e43c eef8 8abd
00000010: b090 443b ffdc 9c3c 9b92 d3bb e4fd d1bc
00000020: bac4 af3c d09e 3d3d 6cbe f53c a16c 20bc
00000030: a286 133d f410 56bc e3a9 42bc 3bf1 11bd
00000040: dfd6 b2bc dafb 1e3d 6914 1a3d b72a c13c
00000050: f7e6 493d 5286 71bb 042c 2fbc ae84 9ebc
00000060: 3024 a83c 1f2e 38bd 1f40 4ebd 8e26 803c
00000070: f6d9 d23a 8bcc b63b 1189 e03c 6072 903c

weight f4 [64, 32, 3, 3, 3]
0.0023420937 -0.014370738 0.003832854 0.014058519 0.010183863 -0.0062928405 -0.01872626 0.0226513
0.00071293116 0.0053335503 0.009398192 0.0077636316 -0.023595598 -0.0059034806 -0.018832285 -0.008146603
0.02318694 0.017324548 0.015322313 -0.021284642 0.020541597 0.0010622673 0.01958827 0.009080656
-0.00076374784 0.021184836 -0.008828035 0.007835645 0.0072911535 -0.037212364 0.033013433 -0.013147574
-0.016691776 -0.012950435 -0.009435702 0.024961997 0.020783106 -0.02592676 0.0017722846 0.022842469
-0.021809582 -0.02965037 0.031982213 0.018416291 0.018714672 -0.020791128 -0.004412123 0.021934878
-0.026698962 0.02404056 -0.005295136 0.02177322 0.006631425 -0.022557668 -0.015558327 0.011008926
-0.020538071 0.022502683 -0.028629193 0.0040250514 0.0044304617 0.009738717 0.027078927 -0.016219405
-0.038957495 0.024318988 -0.038392875 0.010103024 -0.0127843255 -0.022542773 -0.024860254 -0.031887364
-0.030833775 -0.018826261 -0.0005888827 -0.029738659 0.011123792 -0.031324014 -0.013280844 0.02371207
-0.0107439235 0.032302603 -0.019903688 -0.009754045 0.021085046 0.015556194 0.0013992451 -0.014882971
0.024593875 0.0019256659 -0.0018994175 0.016405229 -0.033786375 0.011418615 -0.00043247433 0.01229004
-0.027622897 0.026116634 0.01154832 0.011024248 0.029280066 0.030071288 0.026506871 -0.011995116
0.009958513 -0.01527882 -0.017545782 0.02072726 0.016115084 0.0016521029 -0.02934669 -0.010802336
-0.013619004 0.006776221 -0.012595909 0.02177054 -0.025322368 -0.015750732 -0.0047340323 -0.011377235
0.000927791 -0.033336204 0.010195817 0.014231466 -0.03838295 -0.027845265 -0.007550561 -0.030655753
0.013376795 -0.0094486335 0.022212295 -0.0043619294 -0.027993947 0.02309979 0.0014911165 0.03160873
-0.029866887 -0.022725249 -0.030546408 -0.025818145 -0.023519618 0.018728472 -0.0006695725 -0.024962857
0.019585485 -0.00044491864 0.0001360321 -0.023085518 -0.0058605345 -0.0012612047 -0.029452704 0.017897569
-0.016653081 -0.012393783 0.02777535 0.00392247 0.016686207 -0.027543934 0.01888363 0.030515693
0.019045081 -0.017319333 0.014499985 -0.029091178 0.008906975 -0.013089888 -0.0018660947 -0.015587195
-0.030533329 0.0137733035 -0.027167581 -0.0020079971 0.02150204 -0.012430689 -0.0016631556 -0.00569167
-0.012166233 -0.012452029 0.02190664 0.033118553 -0.02812178 -0.013937591 0.023209818 0.017500764
-0.03555227 -0.023185907 0.013033628 -0.025771942 -0.009548152 -0.0049072187 -0.0023546398 0.017766496
-0.022857998 -0.03902008 0.014250111 -0.025187252 -0.009331154 -0.0061333105 0.018861575 0.0072232494
0.010092374 -0.038317077 0.014621936 -0.024737073 -0.028623486 0.026874002 0.0253533 -0.006300242
-0.012762423 -0.0253013 -0.0385207 0.013263654 -0.0072464016 -0.003408648 0.027788715 -0.030545248
-0.008567506 -0.020538416 0.004078679 0.032774888 0.011593189 0.011233117 0.026071366 -0.0044440143
-0.0076605733 -0.027314639 -0.030553076 0.014224023 0.022272715 -0.015647747 -0.008827594 0.0056025498
-0.012159356 -0.0051021804 -0.039680906 0.0073988033 -0.017702341 -0.009596927 -0.00446743 -0.03194815
-0.01814982 -0.0071049896 0.00075961626 -0.033795588 0.0069637457 0.0079862885 -0.022186082 -0.003167617
0.026136575 0.0029914975 -0.008721888 0.002664391 -0.033340875 0.015075818 -0.033121206 -0.024252594
00000000: d07d 193b 3e73 6bbc 9f30 7b3b b455 663c
00000010: 38da 263c 2c34 cebb d067 99bc 388f b93c
00000020: 00e4 3a3a 10c5 ae3b e0fa 193c 1066 fe3b
00000030: 8e4b c1bc fc71 c1bb 2a46 9abc 5479 05bc
00000040: 8af2 bd3c 36ec 8d3c 700a 7b3c 215d aebc
00000050: da46 a83c c73b 8b3a 9477 a03c 08c7 143c
00000060: 4036 48ba d28b ad3c 76a3 10bc 1461 003c
00000070: a1ea ee3b fe6b 18bd 1839 073d ec68 57bc
00000080: 31bd 88bc 102e 54bc 3498 1abc 1a7d cc3c
00000090: 5541 aa3c 5b64 d4bc 014c e83a 2120 bb3c
000000a0: 02aa b2bc 55e5 f2bc c8ff 023d c3dd 963c
000000b0: 834f 993c 2852 aabc 9293 90bb c6b0 b33c
000000c0: c8b7 dabc b5f0 c43c d282 adbb c05d b23c
000000d0: 6d4c d93b dcca b8bc 5ae8 7ebc c85e 343c
000000e0: 753f a8bc 8c57 b83c c587 eabc 94e4 833b
000000f0: 682d 913b 248f 1f3c a0d4 dd3c 8fde 84bc
00000100: e591 1fbd 9d38 c73c d941 1dbd 2787 253c
00000110: 5975 51bc 9fab b8bc bba7 cbbc 539c 02bd
00000120: 1d97 fcbc 8839 9abc 405f 1aba 7d9e f3bc
00000130: 9140 363c 9c4d 00bd e697 59bc d13f c23c
00000140: 4807 30bc bc4f 043d 0f0d a3bc 6ecf 1fbc
00000150: 8cba ac3c 68df 7e3c e066 b73a b4d7 73bc
00000160: 1879 c93c a066 fc3a e0f5 f8ba 4264 863c
00000170: 9563 0abd 2415 3b3c b9bd e2b9 2a5c 493c
00000180: 6a49 e2bc 8df2 d53c 2a35 3d3c 0c9f 343c
00000190: c0dc ef3c 1058 f63c f024 d93c 2a87 44bc
000001a0: 0829 233c 0454 7abc 2cbc 8fbc 37cc a93c
000001b0: c803 843c 608b d83a 7868 f0bc 48fc 30bc
000001c0: 3e22 5fbc 100b de3b 125f 4ebc 2258 b23c
000001d0: db70 cfbc ae07 81bc f11f 9bbb 9567 3abc
000001e0: 0037 733a 8b8b 08bd 5b0c 273c 182b 693c
000001f0: 7137 1dbd c11b e4bc b26a f7bb c621 fbbc
00000200: 582a 5b3c 71ce 1abc 8ff6 b53c 84ee 8ebb
00000210: 9053 e5bc c53b bd3c 9171 c33a 2878 013d
00000220: 67ab f4bc 4d2a babc 763c fabc 9380 d3bc
00000230: 37ac c0bc 746c 993c 4086 2fba e87e ccbc
00000240: bd71 a03c f843 e9b9 d7a3 0e39 d71d bdbc
00000250: ba09 c0bb 024f a5ba cc46 f1bc ec9d 923c
00000260: 0b6c 88bc 4b0f 4bbc 2189 e33c 1088 803b
00000270: 83b1 883c d1a3 e1bc d8b1 9a3c 0cfc f93c
00000280: 6e04 9c3c 46e1 8dbc 5891 6d3c 9f50 eebc
00000290: 90ee 113c f876 56bc bf97 f4ba 6f61 7fbc
000002a0: 0821 fabc 6ca9 613c 8c8e debc 9a98 03bb
000002b0: 0c25 b03c 17aa 4bbc 3efe d9ba 3081 babb
000002c0: e154 47bc 9803 4cbc 8e75 b33c 52a7 073d
000002d0: a65f e6bc 7e5a 64bc 8422 be3c c35d 8f3c
000002e0: 429f 11bd 5ff0 bdbc 008b 553c ae1f d3bc
000002f0: da6f 1cbc bccc a0bb 4d50 1abb 0b8b 913c
00000300: b240 bbbc 85d3 1fbd 4c79 693c 7f55 cebc
00000310: b2e1 18bc f0f9 c8bb 9783 9a3c 02b1 ec3b
00000320: 7c5a 253c 5ef2 1cbd d890 6f3c 67a5 cabc
00000330: cd7b eabc de26 dc3c b9b1 cf3c 4372 cebb
00000340: 7b19 51bc ac44 cfbc e2c7 1dbd cc4f 593c
00000350: 3973 edbb a063 5fbb 29a5 e33c 073a fabc
00000360: ba5e 0cbc 2e40 a8bc 70a6 853b f63e 063d
00000370: 5cf1 3d3c 1c0b 383c 9e93 d53c 189f 91bb
00000380: 8c05 fbbb f3c2 dfbc 724a fabc e00b 693c
00000390: 4575 b63c b42f 80bc 9da1 10bc 9895 b73b
000003a0: 0938 47bc 3130 a7bb 7288 22bd a971 f23b
000003b0: 8004 91bc 6e3c 1dbc 8563 92bb 10dc 02bd
000003c0: eeae 94bc f9d0 e8bb fc20 473a 3e6d 0abd
000003d0: 2230 e43b ecd8 023c 96bf b5bc cb97 4fbb
000003e0: 5f1c d63c 000d 443b 40e6 0ebc 109d 2e3b
000003f0: 7190 08bd 9000 773c 1aaa 07bd 60ad c6bc

bias f4 [64]
-0.03009503 -0.01908654 0.017728562 0.04262445 -0.0004894765 0.02401807 0.04466277 0.009394534
0.036732275 -0.030304193 -0.005561385 0.007808376 0.023505364 0.021864118 -0.018204989 0.013205301
0.018479768 -0.0030596352 -0.000448463 -0.010909389 -0.024783455 -0.00609972 0.0042331596 0.022308547
0.00028862964 0.03993695 -0.0251332 0.011187098 0.020142302 -0.024673915 0.036473 -0.0030271264
0.0075466377 0.010955248 -0.039760858 0.0019748735 -0.032440387 0.039497454 -0.021503383 0.010715312
0.012127701 -0.022355825 -0.005973188 0.03209373 -0.021537287 -0.005858029 0.031511765 0.023346031
-0.02221806 -0.016514244 0.04503797 -0.028576162 0.0014314323 -0.011490391 -0.009243577 0.016373822
-0.025434587 -0.012044669 0.009788902 -0.029923031 -0.0025958042 -0.042220194 0.014810542 0.017137902
00000000: da89 f6bc 605b 9cbc 7d3b 913c fa96 2e3d
00000010: 3650 00ba 8bc1 c43c 4ff0 363d 88eb 193c
00000020: 9574 163d 8040 f8bc 473c b6bb 68dd ff3b
00000030: 528e c03c 611c b33c a122 95bc 0c5b 583c
00000040: e262 973c 2984 48bb af1f ebb9 4bbd 32bc
00000050: ac06 cbbc 29e0 c7bb 51b6 8a3b 6ac0 b63c
00000060: 3753 9739 ed94 233d 24e4 cdbc 174a 373c
00000070: 7801 a53c f320 cabc b664 153d c162 46bb
00000080: c949 f73b a47d 333c 48dc 22bd e16c 013b
00000090: 36e0 04bd 15c8 213d dd27 b0bc 478f 2f3c
000000a0: 44b3 463c 9023 b7bc bcba c3bb b774 033d
000000b0: f76e b0bc b5f4 bfbb 7b12 013d 2d40 bf3c
000000c0: a602 b6bc e148 87bc bc79 383d 8e18 eabc
000000d0: e69e bb3a 3142 3cbc 5f72 17bc 6522 863c
000000e0: 325c d0bc 0157 45bc a161 203c 2521 f5bc
000000f0: 5e1e 2abb 15ef 2cbd eaa7 723c c964 8c3c

weight f4 [32, 64]
0.07562484 -0.09309126 0.10284398 0.02202646 0.008597907 -0.054002337 0.08410512 -0.03013451
0.0879184 -0.051192813 -0.0637143 -0.06010901 -0.036311574 -0.10808657 0.11099333 -0.06287496
-0.10267645 -0.07257649 0.12144996 0.06876559 -0.122155204 -0.0029898882 0.020937577 -0.08843211
-0.029387489 -0.03963945 0.09027392 -0.100524515 0.078707255 -0.06739369 0.022142332 -0.11658488
0.040434197 -0.13569835 -0.087129235 -0.0022108704 0.008313075 -0.03727265 -0.04483646 -0.06476191
-0.0803879 -0.10057267 0.040850356 0.07184945 -0.024049634 -0.10817442 -0.12886861 -0.050473657
0.01580368 0.043526683 -0.060663518 -0.009845495 0.086309046 -0.077622205 0.046243485 0.10390194
0.07841928 0.06359753 0.069410585 -0.025124582 -0.11774078 -0.10931777 0.057200607 -0.011241529
0.053564094 -0.05758038 -0.110815816 0.05649667 -0.07307271 -0.095269635 -0.0923653 0.03409084
0.099226505 -0.041183293 0.010806687 -0.018391123 -0.123629116 0.05319397 0.038175043 -0.018939633
0.036187477 -0.04560497 0.10236402 -0.059527643 -0.02704711 -0.086389594 -0.0887948 -0.104098685
-0.07069697 0.042773716 0.04862132 -0.10902811 -0.049328398 0.026811203 -0.08119289 0.047836628
0.056929365 0.023254476 -0.11991371 0.019798761 0.10884764 -0.07978349 -0.0053205136 0.10689934
0.04170878 0.09717166 -0.0022273308 -0.0027181038 -0.06694408 -0.12144423 0.054099753 -0.12041172
-0.032256 -0.066396534 -0.040753953 -0.07418994 -0.106632106 -0.093010075 0.029348493 -0.0628585
0.04869031 -0.10732346 -0.02404983 -0.04587312 0.029841118 0.021145185 0.09227417 -0.008993883
0.12887079 0.061049778 -0.109082274 -0.009458019 -0.005498237 0.120975494 -0.0835365 0.10305051
0.0010247568 -0.0733641 -0.104190156 -0.0034918948 0.11987211 0.04923663 -0.08054125 -0.096028924
-0.021944279 -0.04616859 0.013414335 0.062468316 -0.095367335 0.1053847 -0.09038073 0.08307028
-0.08829433 0.12525682 0.08523523 -0.11318802 0.021202961 0.09681549 0.051109366 0.029622037
0.0200989 0.022660106 -0.11142081 0.07622495 -0.012708813 0.07143511 0.12085165 -0.06332638
-0.055415682 0.054388717 0.09509231 0.07953699 -0.008379072 -0.10931592 0.08279304 0.008827816
-0.006817454 0.008422815 -0.035306588 -0.026836941 -0.047774717 0.073119886 0.11776833 -0.03783432
0.027012566 -0.042191543 0.13605747 0.06325354 0.03853785 -0.043229 -0.031020017 -0.037921876
-0.030882487 -0.0717793 -0.005627559 0.052971162 -0.009442514 -0.0072141686 -0.008933123 -0.009913967
0.0696917 -0.1400276 -0.12002839 -0.092403464 0.10653922 -0.0551306 -0.043397 -0.027148947
-0.1316437 -0.1291573 -0.038865063 -0.121263914 -0.06444421 -0.07715394 -0.05672865 -0.11107228
-0.03272269 0.04096155 0.0054238313 -0.12332637 -0.04725494 0.092990585 0.063995436 0.026909461
0.064186476 -0.07752803 -0.020941548 -0.06340854 -0.09382353 -0.13617046 0.07644313 -0.013534449
0.029400418 -0.024866503 0.11052485 0.032482363 0.10025417 0.078836426 -0.09080605 0.040061463
-0.11762418 -0.08650665 0.05643199 0.07425543 -0.035397515 -0.004956119 -0.09125269 -0.071572214
-0.027691884 -0.054360904 0.08889301 -0.07286205 -0.025773454 -0.048052914 -0.04038226 -0.002245817
00000000: 32e1 9a3d a1a6 bebd dd9f d23d d670 b43c
00000010: 3cde 0c3c 8e31 5dbd 4e3f ac3d a6dc f6bc
00000020: 900e b43d 8eaf 51bd a57c 82bd de34 76bd
00000030: 72bb 14bd 7e5c ddbd 7950 e33d 96c4 80bd
00000040: 0848 d2bd fca2 94bd c2ba f83d f9d4 8c3d
00000050: 822c fabd 00f2 43bb 4885 ab3c e51b b5bd
00000060: 08be f0bc fa5c 22bd 88e1 b83d ccdf cdbd
00000070: 4531 a13d b405 8abd d663 b53c 0ec4 eebd
00000080: 549e 253d 82f4 0abe d070 b2bd 40e4 10bb
00000090: 9033 083c 35ab 18bd 70a6 37bd e4a1 84bd
000000a0: 69a2 a4bd 0bf9 cdbd b452 273d ce25 933d
000000b0: bd03 c5bc 8d8a ddbd 22f6 03be 77bd 4ebd
000000c0: b876 813c 0949 323d 4f7a 78bd 004f 21bc
000000d0: ccc2 b03d 64f8 9ebd cf69 3d3d 8aca d43d
000000e0: 4a9a a03d 6c3f 823d 2327 8e3d 11d2 cdbc
000000f0: 1422 f1bd ffe1 dfbd 2f4b 6a3d 642e 38bc
00000100: 0666 5b3d 68d9 6bbd 67f3 e2bd 0d69 673d
00000110: 25a7 95bd ba1c c3bd 052a bdbd d6a2 0b3d
00000120: 4437 cb3d d0af 28bd 880e 313c fba8 96bc
00000130: 4331 fdbd ece1 593d 6f5d 1c3d 4a27 9bbc
00000140: 5239 143d 47cc 3abd 3aa4 d13d 42d3 73bd
00000150: e791 ddbc 07ed b0bd 0cda b5bd b131 d5bd
00000160: 93c9 90bd 7e33 2f3d 2627 473d 214a dfbd
00000170: 930c 4abd 2ba3 db3c 7548 a6bd 57f0 433d
00000180: c42e 693d 2c80 be3c 5295 f5bd 0331 a23c
00000190: 83eb de3d 8765 a3bd b457 aebb 0bee da3d
000001a0: d3d6 2a3d ef01 c73d 69f8 11bb 3722 32bb
000001b0: fa19 89bd c1b7 f8bd b497 5d3d 6b9a f6bd
000001c0: de1e 04bd e8fa 87bd 9eed 26bd e5f0 97bd
000001d0: ef61 dabd 117c bebd 406c f03c f5bb 80bd
000001e0: 7e6f 473d 67cc dbbd 2604 c5bc 74e5 3bbd
000001f0: 5c75 f43c ab38 ad3c 3dfa bc3d 145b 13bc
00000200: b4f6 033e 550f 7a3d 8766 dfbd cff5 1abc
00000210: 8e2a b4bb 00c2 f73d 2f15 abbd 250c d33d
00000220: 2251 863a eb3f 96bd a661 d5bd 46d8 64bb
00000230: 827f f53d 59ac 493d d0f2 a4bd d0aa c4bd
00000240: 7dc4 b3bc 471b 3dbd cdc7 5b3c c7de 7f3d
00000250: f34f c3bd efd3 d73d 8819 b9bd c020 aa3d
00000260: a8d3 b4bd 5343 003e cf8f ae3d 1fcf e7bd
00000270: d5b1 ad3c 3347 c63d 0e58 513d eaa9 f23c
00000280: 73a6 a43c b0a1 b93c 9830 e4bd d41b 9c3d
00000290: a038 50bc 924c 923d 1281 f73d 43b1 81bd
000002a0: 8efb 62bd b4c6 5e3d c2bf c23d 4ae4 a23d
000002b0: 6048 09bc 06e1 dfbd 668f a93d 8ba2 103c
000002c0: f364 dfbb d9ff 093c a49d 10bd 25d9 dbbc
000002d0: 6caf 43bd e1bf 953d 8630 f13d 29f8 1abd
000002e0: 7549 dd3c 0ad1 2cbd a652 0b3e 128b 813d
000002f0: ddd9 1d3d e410 31bd b11d febc f853 1bbd
00000300: 45fd fcbc 0701 93bd 6367 b8bb 4af8 583d
00000310: c6b4 1abc d564 ecbb 3c5c 12bc 316e 22bc
00000320: 86ba 8e3d 6563 0fbe 72d1 f5bd 073e bdbd
00000330: 3c31 da3d a0d0 61bd 0dc1 31bd 7867 debc
00000340: 9bcd 06be d041 04be f930 1fbd 3759 f8bd
00000350: 53fb 83bd e302 9ebd 4d5c 68bd dd79 e3bd
00000360: 3a08 06bd 4cc7 273d 65ba b13b 8992 fcbd
00000370: 658e 41bd d971 be3d 0a10 833d 3b71 dc3c
00000380: 3374 833d 04c7 9ebd 9c8d abbc 56dc 81bd
00000390: 8d26 c0bd 4570 0bbe 378e 9c3d 98bf 5dbc
000003a0: 25d9 f03c d6b4 cbbc da5a e23d 3a0c 053d
000003b0: 0f52 cd3d fe74 a13d 86f8 b9bd 7d17 243d
000003c0: f2e4 f0bd 662a b1bd 3b25 673d 3b13 983d
000003d0: fcfc 10bd f166 a2bb b1e2 babd 7494 92bd
000003e0: 17da e2bc 8aa9 5ebd 8a0d b63d b338 95bd
000003f0: da22 d3bc 22d3 44bd de67 25bd 8f2e 13bb

bias f4 [32]
-0.074847676 0.107952654 0.006542337 0.079881236 0.07213459 -0.0035835106 -0.072779655 0.010790871
-0.11679119 -0.10355455 0.04905634 -0.04373144 0.033676643 0.04214645 -0.059725083 0.09904411
0.07158876 -0.045327336 0.05744027 0.09497164 -0.11607487 0.096730806 -0.07330327 0.06574521
-0.10979268 0.12332771 -0.058917277 0.07388233 0.015552701 -0.10754487 -0.12176062 -0.0012059361
00000000: bd49 99bd 4816 dd3d 1a61 d63b c698 a33d
00000010: 4dbb 933d 55d9 6abb 800d 95bd 32cc 303c
00000020: 3830 efbd 6814 d4bd 4def 483d bd1f 33bd
00000030: 85f0 093d c2a1 2c3d 4aa2 74bd a3d7 ca3d
00000040: 219d 923d 28a9 39bd 7d46 6b3d 7e80 c23d
00000050: a9b8 edbd cd1a c63d 0620 96bd 6da5 863d
00000060: fcda e0bd 3d93 fc3d 3e53 71bd 9e4f 973d
00000070: c2d0 7e3c 7c40 dcbd a25d f9bd 8010 9eba

weight f4 [16, 32]
0.08716445 0.057450682 -0.025779039 0.14050673 -0.09806345 -0.10573624 0.077335075 -0.03289953
0.07368596 0.15899046 0.15318228 0.17656823 -0.11510216 -0.004535511 -0.01381205 -0.12093425
0.059014753 0.0012492537 -0.08596425 0.043808296 0.11597939 -0.14398447 0.16698264 -0.1689567
0.083109155 0.028976753 0.01201725 0.055952027 -0.12663195 -0.047827646 -0.12232001 -0.014821738
0.16454549 0.07458523 0.078939885 0.06842198 -0.105341904 -0.048001535 0.03552212 0.030441733
0.0980228 0.17146075 0.1371785 0.021554159 0.15950373 -0.083898574 -0.102075495 0.11225342
-0.007595406 0.023915917 0.01230232 0.019127911 -0.14132948 0.14944838 0.021666706 0.08742171
-0.03339185 -0.0734247 -0.11397069 -0.11733936 0.08900893 -0.14983559 -0.060906515 0.022186771
0.1343087 -0.12621306 0.072266884 0.063510016 0.07313964 -0.08698267 -0.0020075738 0.11961256
-0.013423368 -0.09174351 -0.08752933 0.033253238 -0.113531575 -0.083998375 0.07250488 0.1260309
-0.007176294 -0.073862985 0.009932984 -0.17000991 0.14981395 0.040910218 -0.14303355 0.012652102
0.10365118 0.15599173 -0.03601859 0.05748406 0.068188965 -0.06414306 -0.03133151 0.0044229776
0.07087549 -0.032043837 0.03593971 0.1838169 -0.10313837 -0.16363712 0.041316718 0.13983202
-0.12223831 -0.092995286 -0.052841127 0.05493851 0.08603684 0.06735645 0.15077208 0.04236652
0.1194467 -0.05835115 0.066907406 -0.02087745 0.12354127 -0.06248133 -0.11420013 0.04635981
0.009272784 -0.058704816 0.12906653 0.16482344 -0.12460476 -0.010903892 0.16956078 -0.012564585
-0.16188551 -0.004698321 0.13038339 -0.06381385 0.11151509 0.047119677 -0.08077032 -0.059569597
0.016072452 -0.0927509 0.16741209 -0.17470357 -0.14585818 -0.0031383783 -0.10197873 0.09095876
0.10163249 -0.11394512 -0.10700252 -0.10160421 -0.095173106 0.078918025 0.10506742 0.08615349
-0.07080772 0.0070050806 -0.055968277 0.11076985 0.07792242 -0.15361755 -0.12118968 0.097870484
-0.15253596 -0.15218917 0.11030556 -0.02947362 -0.12297403 0.15544298 -0.0119083375 0.1078814
0.10498582 0.119093664 -0.035068024 -0.05911853 0.0031673163 0.020341262 -0.05363454 0.02936372
0.06437829 0.10672386 -0.12919512 0.016868742 -0.034353424 -0.05027883 0.0551482 -0.15991746
0.14179094 -0.004129218 0.054349657 0.000462445 -0.14464718 -0.08755203 0.004998237 -0.020561174
0.106591344 -0.12586153 -0.10217554 -0.004995365 -0.07393503 0.09630243 0.0930493 0.017560106
-0.10124364 0.06919671 0.010612646 0.026461273 -0.005397264 -0.06512587 -0.12719008 0.10080397
-0.17927665 -0.16298163 -0.10931263 -0.0284824 -0.16064125 -0.09233625 0.0401019 -0.029848453
0.12992309 0.0470556 -0.06927505 0.03147014 -0.14801198 -0.08015737 0.16315325 0.11498724
-0.020290479 0.13604335 -0.15706138 0.03227207 -0.16429117 0.09161426 -0.16433296 0.10634647
-0.066652834 0.05657856 0.14958842 0.16664873 -0.13238868 -0.094098926 0.0092856735 -0.07446484
0.13108288 -0.07584882 0.06791492 0.14632021 -0.07363303 0.16879572 -0.12847885 -0.13980573
-0.07105843 -0.019441202 -0.030213341 -0.11951521 0.014841527 -0.14930397 -0.058186337 -0.17531428
00000000: 4683 b23d 6851 6b3d 902e d3bc ffe0 0f3e
00000010: 7dd5 c8bd 3e8c d8bd da61 9e3d a8c1 06bd
00000020: aae8 963d 65ce 223e d1db 1c3e 4dce 343e
00000030: aeba ebbd a09e 94bb f04b 62bc 60ac f7bd
00000040: 74b9 713d 00be a33a 060e b0bd 5470 333d
00000050: 9a86 ed3d aa70 13be 7ffd 2a3e fc02 2dbe
00000060: 2235 aa3d a860 ed3c 00e4 443c f42d 653d
00000070: ceab 01be ece6 43bd ea82 fabd e0d6 72bc
00000080: 9d7e 283e 24c0 983d 3cab a13d d320 8c3d
00000090: 7fbd d7bd 429d 44bd a47f 113d f160 f93c
000000a0: 2ec0 c83d 6893 2f3e 8578 0c3e 5992 b03c
000000b0: f254 233e 04d3 abbd f50c d1bd 1fe5 e53d
000000c0: e2e2 f8bb 50eb c33c ac8f 493c 23b2 9c3c
000000d0: adb8 10be ff08 193e 607e b13c 270a b33d
000000e0: e4c5 08bd b05f 96bd 7769 e9bd 9e4f f0bd
000000f0: 504a b63d 806e 19be 1c79 79bd 08c1 b53c
00000100: 3888 093e ff3d 01be a900 943d 8a11 823d
00000110: 3cca 953d f823 b2bd 8091 03bb 6ef7 f43d
00000120: b0ed 5bbc 05e4 bbbd 9442 b3bd 8c34 083d
00000130: 3e83 e8bd 5707 acbd 707d 943d 3f0e 013e
00000140: 1e27 ebbb 7a45 97bd f4bd 223c 1417 2ebe
00000150: d468 193e 7991 273d 6377 12be c34a 4f3c
00000160: 1247 d43d 4cbc 1f3e 3b88 13bd 6874 6b3d
00000170: a8a6 8b3d 705d 83bd 7855 00bd a0ee 903b
00000180: 2b27 913d 6640 03bd 8435 133d 7f3a 3c3e
00000190: 363a d3bd 7d90 27be b83b 293d 2030 0f3e
000001a0: 1458 fabd 5074 bebd f06f 58bd 3407 613d
000001b0: 1534 b03d 2ef2 893d ff63 1a3e 8488 2d3d
000001c0: 79a0 f43d 9e01 6fbd c006 893d 3007 abbc
000001d0: 3503 fd3d 6cec 7fbd c2e1 e9bd c9e3 3d3d
000001e0: e0ec 173c 7674 70bd 042a 043e 7ac7 283e
000001f0: c830 ffbd 3da6 32bc 57a1 2d3e b0db 4dbc
00000200: 51c5 25be 60f4 99bb 3983 053e d6b0 82bd
00000210: 0662 e43d 9000 413d e96a a5bd 40ff 73bd
00000220: 60aa 833c 2ff4 bdbd 136e 2b3e 7ee5 32be
00000230: d95b 15be 40ad 4dbb 39da d0bd 9648 ba3d
00000240: b224 d03d 0f5c e9bd 2324 dbbd de15 d0bd
00000250: 1eea c2bd c69f a13d 962d d73d 3e71 b03d
00000260: a303 91bd e08a e53b fe3e 65bd 4edb e23d
00000270: ca95 9f3d eb4d 1dbe 4c32 f8bd 5270 c83d
00000280: 6332 1cbe 7ad7 1bbe e2e7 e13d a972 f1bc
00000290: cfd9 fbbd 722c 1f3e 301b 43bc ecf0 dc3d
000002a0: ce02 d73d 61e7 f33d 7da3 0fbd 4626 72bd
000002b0: c092 4f3b b8a2 a63c e4af 5bbd 2f8c f03c
000002c0: c4d8 833d 0a92 da3d ba4b 04be 5130 8a3c
000002d0: 2db6 0cbd 2df1 4dbd 14e3 613d 67c1 23be
000002e0: a531 113e 644e 87bb bf9d 5e3d 5174 f239
000002f0: 641e 14be 7b4e b3bd 40c8 a33b e86f a8bc
00000300: 904c da3d d8e1 00be 6941 d1bd 29b0 a3bb
00000310: 406b 97bd 353a c53d a290 be3d 36da 8f3c
00000320: d358 cfbd 01b7 8d3d aae0 2d3c 50c5 d83c
00000330: 88db b0bb b660 85bd 1e3e 02be 5072 ce3d
00000340: 4c94 37be a8e4 26be 4ddf dfbd ec53 e9bc
00000350: 247f 24be ca1a bdbd e441 243d be84 f4bc
00000360: 8f0a 053e 5fbd 403d 14e0 8dbd d5e6 003d
00000370: 7490 17be 8c29 a4bd a511 273e 6e7e eb3d
00000380: 3838 a6bc f34e 0b3e b3d4 20be b82f 043d
00000390: f23b 28be 42a0 bb3d e646 28be 2ecc d93d
000003a0: 4881 88bd ecbe 673d b52d 193e f7a5 2a3e
000003b0: e690 07be f0b6 c0bd f022 183c 0681 98bd
000003c0: 973a 063e a056 9bbd fa16 8b3d f7d4 153e
000003d0: eacc 96bd c9d8 2c3e f68f 03be 3c29 0fbe
000003e0: 1587 91bd 2843 9fbc f881 f7bc 64c4 f4bd
000003f0: e029 733c 24e3 18be cc54 6ebd 9685 33be

bias f4 [16]
-0.09222799 -0.03449553 -0.066494666 0.12364953 -0.036515012 0.046198256 0.13497858 -0.14363195
-0.1070234 0.11832649 0.020235194 0.09843995 -0.005361626 -0.04336247 -0.083189234 0.029422358
00000000: 07e2 bcbd 2f4b 0dbd 5b2e 88bd f73b fd3d
00000010: c490 15bd 623a 3d3d d337 0a3e 4114 13be
00000020: 162f dbbd 2955 f23d 47c4 a53c e29a c93d
00000030: 94b0 afbb d89c 31bd 1e5f aabd 2807 f13c

weight f4 [4, 16]
0.2394036 0.22693546 -0.25933236 -0.18303575 0.22542837 -0.06464125 0.052105717 0.09465942
-0.16298273 0.052648515 -0.059975974 -0.061022047 -0.04693398 -0.101172626 0.002700597 -0.18686387
-0.18809631 0.07692696 -0.22288173 0.11274248 -0.08785987 -0.21801925 -0.10990793 0.004012525
-0.16017607 -0.047270354 -0.2347552 -0.079906054 -0.13573211 0.244589 -0.16875401 0.01769051
-0.0059984624 0.004300636 0.06396762 -0.0064869616 0.22447279 -0.19837585 0.23491186 0.1575189
-0.14936802 0.22037691 -0.07463768 -0.0983389 0.2342497 0.061089545 -0.02287224 0.12518081
-0.0816381 0.07756026 -0.07291921 -0.15438451 0.040128767 -0.1572174 0.23193221 0.026055425
-0.2147273 -0.1695052 -0.15537365 0.19441582 -0.015289048 -0.037064284 -0.19355386 -0.1001361
00000000: 3826 753e c561 683e 36c7 84be b96d 3bbe
00000010: b2d6 663e a262 84bd ce6c 553d ccdc c13d
00000020: f2e4 26be f8a5 573d 5ea9 75bd 41f2 79bd
00000030: d83d 40bd 9833 cfbd 80fc 303b 3e59 3fbe
00000040: 529c 40be e28b 9d3d 1c3b 64be 88e5 e63d
00000050: e0ef b3bd 7040 5fbe 6917 e1bd 807b 833b
00000060: 3205 24be 8f9e 41bd ab63 70be c9a5 a3bd
00000070: 5cfd 0abe 8a75 7a3e dacd 2cbe b0eb 903c
00000080: c08e c4bb 59ec 8c3b 7501 833d 9490 d4bb
00000090: 32dc 653e 0a23 4bbe bc8c 703e a24c 213e
000000a0: eef3 18be 7caa 613e a4db 98bd e865 c9bd
000000b0: 27df 6f3e 0839 7a3d 905e bbbc 662f 003e
000000c0: e031 a7bd ead7 9e3d ab56 95bd f916 1ebe
000000d0: 105e 243d 99fd 20be a37f 6d3e 3072 d53c
000000e0: 79e1 5bbe c592 2dbe 451a 1fbe f114 473e
000000f0: ea7e 7abc b8d0 17bd fc32 46be 2814 cdbd

bias f4 [4]
-0.021169806 -0.07438368 0.0021765428 0.031625424
00000000: 4d6c adbc 7956 98bd 54a4 0e3b a989 013d
