trained_model/model0.pth (torch, 384666 bytes, 46 tensors)

weight f4 [4, 1, 3, 3, 3]
000000 23 12 ca 3d 88 17 e7 bd b0 87 31 bd e4 18 2d bc
       0.098667406 -0.11283785 -0.043342292 -0.010565016
000010 1b 39 24 3e 6f 35 3c bd 80 86 28 be 69 d3 ab bd
       0.16037409 -0.045949396 -0.16457558 -0.08389933
000020 4c 1e 1b 3e 95 fe 0f 3e da 45 05 3e a2 2c ec 3d
       0.15148276 0.14061959 0.13014928 0.115319505
000030 3f bc 37 3d b3 ff 31 3e ab dc e4 3d 6c c1 4b 3e
       0.04485726 0.17382698 0.111749016 0.19898003
000040 e6 b1 36 3e 76 d1 76 bd 9d 8a 11 3d 7b d8 2b 3e
       0.178413 -0.06025835 0.035532583 0.167818
000050 cc 42 1d 3d 89 05 16 be b0 59 37 3c e0 03 24 be
       0.03839378 -0.14650549 0.011190817 -0.16017103
000060 7e 17 a7 bc 8d ea 2f be a5 aa ac bd 64 1f 32 3c
       -0.020396944 -0.17179318 -0.08430985 0.010871742
000070 ba 3f 2c 3c 4e 05 b5 bd 7c b7 35 be e3 e1 46 bd
       0.0105132405 -0.088389024 -0.17745775 -0.048555266
000080 2f 28 cc bd d1 b4 d5 3d 63 e7 16 be 31 f8 2c 3c
       -0.09968602 0.104348786 -0.14736705 0.01055722
000090 e3 49 39 be 13 ef 95 3d d2 0a eb bd d9 dc 57 bc
       -0.18094592 0.073209904 -0.11476673 -0.013175213
0000a0 62 0d 33 3e 50 e8 4f 3d 45 b8 30 3d a1 56 14 3e
       0.17485574 0.05075866 0.043144483 0.14486171
0000b0 4e 5d 80 3d 3d 61 56 bd 0e ea 23 be c9 5f ed 3d
       0.062677965 -0.052338827 -0.16007254 0.11590535
0000c0 7a b0 2d be 84 fb fa bd be ef b7 3d af c6 c5 bc
       -0.16961852 -0.12255004 0.08981274 -0.024142591
0000d0 a7 ef 35 be 9e 01 0a 3e f7 d1 3e 3e f3 66 22 be
       -0.17767201 0.1347718 0.18634783 -0.15859585
0000e0 ba f3 7c 3d 53 a8 48 be a4 65 de bc 3c 6e 0f 3e
       0.061755873 -0.1959546 -0.027148075 0.14006895
0000f0 3c ff 3d 3e c1 39 36 be 8d af ce 3d 7b b8 35 3e
       0.18554395 -0.17795469 0.100920774 0.17746155
000100 78 9a 46 be 26 32 c3 3d b3 ae cf bd 07 3f 8f 3d
       -0.19394863 0.095310494 -0.10140743 0.069944434
000110 6d cc a5 3d 67 36 32 be ab 07 3a 3e 0e 7f d1 bd
       0.08095632 -0.17403565 0.18166988 -0.10229312
000120 55 3c 15 be f4 6a 09 be 74 7d 06 be eb b8 34 3e
       -0.14573796 -0.13419706 -0.13133794 0.17648666
000130 2f 6f e9 bd 46 c0 0e be 71 b1 13 be d1 ea d8 3d
       -0.1139816 -0.13940534 -0.14423157 0.10591663
000140 f4 e4 00 be 51 91 88 bd 31 be 63 bd 44 81 10 be
       -0.12587339 -0.06668342 -0.055601303 -0.14111811
000150 81 24 89 bd 1d 8e ce bd e3 21 c8 bd 82 b3 91 3d
       -0.06696416 -0.100857 -0.097720884 0.071143165
000160 26 43 6a 3d c5 84 1a 3e ad 3d 05 be 75 91 b3 3d
       0.057192944 0.1508971 -0.13011809 0.08767978
000170 6d dd 35 3e 20 4e 69 3c 33 60 22 3e a3 fd 2c be
       0.17760248 0.014239818 0.1585701 -0.1689363
000180 16 71 07 3e b8 e8 34 be a4 e8 ce 3d c4 a8 21 be
       0.13226733 -0.176669 0.101029664 -0.15787035
000190 2d 64 2d be 67 f0 35 be 77 4d 6f bd d2 1c 06 3e
       -0.16932745 -0.17767487 -0.058423486 0.13096932
0001a0 e5 c8 1e 3e a4 97 05 3c 73 9b d1 bc 62 92 15 3e
       0.15506323 0.00815383 -0.02558682 0.14606622

bias f4 [4]
000000 e5 2f 35 3d c1 53 fa bd 85 5c 15 be 5d ae 29 be
       0.04423513 -0.12223006 -0.14586075 -0.1657042

weight f4 [8, 4, 3, 3, 3]
000000 b3 33 43 bd a0 34 83 3d eb c3 98 3d c5 a8 30 3d
       -0.047656726 0.06406522 0.074592434 0.0431297
000010 71 e5 34 bd 49 cf a5 3d f3 60 0e bd 76 df a4 3d
       -0.044164125 0.08096177 -0.034760427 0.08050434
000020 ca d3 ae bd 95 d4 7a bd 06 03 c0 3d 6a 5d 58 bc
       -0.08536489 -0.06123789 0.09375577 -0.013205865
000030 df a2 bc bc 33 99 b9 3c 15 c1 2f 3d 70 ac c9 3d
       -0.023026882 0.022656059 0.042908747 0.09847343
000040 d7 5c 39 3d c5 6f e9 3b 23 82 6d 3d 0c 64 96 bc
       0.045254555 0.0071239197 0.057985436 -0.018358253
000050 57 ec a3 3d 19 79 e9 3c 1a 16 bd bc 01 55 c5 3d
       0.080040626 0.028500127 -0.023081828 0.09635354
000060 99 d6 26 3d 87 a0 a6 3d cb c0 15 bd a6 4e ac bd
       0.040732 0.08136087 -0.036560815 -0.084134385
000070 53 db 38 3d 31 ae 55 bd bf 28 53 3d c1 88 86 bd
       0.04513104 -0.052168075 0.05155253 -0.065690525
000080 00 ee 00 3d 26 1e 45 3d 42 37 9f 3d 8b 5a 24 bd
       0.031476974 0.048124455 0.077742115 -0.04012541
000090 fe 70 65 bd a8 e3 40 3b 37 3d 7a bd 3b be 74 3d
       -0.05601596 0.0029432569 -0.061093535 0.05975173
0000a0 07 ef 68 3d aa 98 e8 bc 10 ca 86 3c 4f 35 c5 3d
       0.05686858 -0.028393108 0.016453773 0.096293084
0000b0 f4 ad 9f bc c8 23 b4 3d c0 13 97 bc 7e 3d 14 bd
       -0.019492127 0.08795887 -0.018442035 -0.036191456
0000c0 86 ad b4 bd b5 e0 70 bc 51 0b 8c bd 4e 6b af 3d
       -0.088221595 -0.014702012 -0.06838096 0.085653886
0000d0 0c c0 77 3d 0d 6b ce 3d d8 cc 94 3d 17 37 b7 bd
       0.060485885 0.10079012 0.07265633 -0.089460544
0000e0 e3 fa c6 3d b0 e1 7e 3d 21 83 7e bd e4 09 87 bd
       0.097158216 0.06222695 -0.062136773 -0.06593683
0000f0 76 62 2f 3c ef fb 68 bd 86 65 74 3d bb 92 9a 3d
       0.010704627 -0.056880888 0.059667133 0.07547518
000100 6c 65 3e bd bc 1c b4 3d ee c1 b0 bd 57 d1 a5 bd
       -0.046483442 0.08794543 -0.08630739 -0.08096569
000110 f7 72 20 3d 52 5e af bc 21 a4 fd bc bc 1d 1e 3c
       0.03917214 -0.02140728 -0.030962052 0.009650644
000120 f2 aa 3e 3d 2d 0c 5d ba a9 c2 22 3d 3a 0d c9 3d
       0.046549745 -0.0008432295 0.039736424 0.09816976
000130 57 c6 a0 3d 15 92 50 3c 92 22 52 3b 20 fa 94 bd
       0.0785033 0.012730141 0.0032064063 -0.0727427
000140 6b d0 9d 3d db d1 5c bd 01 2f bb 3d 2f bd 4b bd
       0.07705768 -0.05391107 0.09139825 -0.049740966
000150 f6 72 87 3c e5 bc 9a bd 0d 7b bb bd 39 95 12 bd
       0.01653431 -0.0755556 -0.091543294 -0.03578684
000160 b5 e3 85 bd 9f 1e d3 3d a3 19 58 3d 01 2c 7a 3d
       -0.06537572 0.10308575 0.052758824 0.06107712
000170 40 45 64 bd ed 6f c1 ba f3 15 93 bc 81 c7 81 3d
       -0.055730104 -0.0014758088 -0.017954802 0.063368805
000180 ed 55 ad bd 5d 0b 35 3c 38 5c 2d bd 54 67 4b 3d
       -0.08463655 0.0110500725 -0.042324275 0.04965909
000190 b5 94 a5 bd 9f 72 86 3c c5 6e 1e bd 71 31 6c bd
       -0.08085004 0.016412077 -0.038679857 -0.05766434
0001a0 b0 c1 b6 3d 3b 8c 67 bd f4 3c c5 3b 56 d0 2c bc
       0.08923662 -0.05653022 0.006019229 -0.010547718
0001b0 81 da 72 bc 6c 9d db 3c 2e 90 98 3d 16 a7 41 3b
       -0.014822603 0.026808463 0.07449375 0.0029549054
0001c0 02 65 13 3d fd fc 02 bd cc 93 b2 3c d4 b1 a0 bd
       0.035985 -0.03197955 0.02179899 -0.07846418
0001d0 8d 73 b5 ba 3e c2 a7 3c 80 a5 08 3c ea 7f b5 bd
       -0.0013843641 0.020478364 0.0083402395 -0.08862288
0001e0 0f 6c 57 3d 9e 69 a7 3c f4 db b0 3b fd 6f 0e bd
       0.052593287 0.020436104 0.005397314 -0.03477477
0001f0 31 c1 a2 bd 1c 84 83 bd 4d a4 1c bd ea e4 22 3d
       -0.079470046 -0.06421682 -0.038242627 0.03976909
000200 6c bf 95 3d 40 c2 2b 3d 60 56 9b bd 86 1c 85 3c
       0.073119015 0.041933298 -0.07584834 0.016248953
000210 eb 79 9e bd 38 cf 40 3c 86 21 bd bd 02 12 a0 3d
       -0.07738098 0.011768155 -0.0923491 0.07815935
000220 6b 9f 17 3d 1f f5 26 3d b4 9d c4 bd bf 5b 9c bd
       0.037017267 0.04076111 -0.09600392 -0.07634687
000230 00 26 65 3b b3 4f 69 bc dd 99 57 bd 69 bd ac bc
       0.0034965277 -0.014240193 -0.05263697 -0.021086412
000240 c7 48 ed bc 90 c8 2d bd e0 96 d9 3c ca eb 13 3d
       -0.028965367 -0.0424276 0.0265612 0.036113538
000250 6b 1d 9b bd f1 fa b2 bd 55 31 ce bc b1 45 28 bd
       -0.075739704 -0.087392695 -0.025170008 -0.041082088
000260 59 81 29 bb 6a 90 86 bd 64 38 42 ba ee d2 26 bd
       -0.002586445 -0.065705135 -0.00074089156 -0.040728502
000270 5c 89 4d 3b 4b 04 91 3d f8 b4 69 bd 81 9b 47 3d
       0.003136239 0.07080897 -0.05705735 0.048732284
000280 ad 03 97 bd b2 66 3c bd ab 3e 8e bd 9d fa 03 3d
       -0.07373748 -0.045996375 -0.06945547 0.032221425
000290 d8 0d c7 bd ba ee a5 bc 75 92 46 3d 4a 46 92 3d
       -0.09719437 -0.020255435 0.048479516 0.07142313
0002a0 01 33 56 bd 67 61 8c 3d fe 9c a5 3d 52 9d 75 3d
       -0.052294735 0.068545155 0.080865845 0.059964485
0002b0 da 25 1c 3d 91 37 e2 bc 26 6b 3d 3d 81 69 a7 bd
       0.038122036 -0.027614387 0.046244763 -0.0817442
0002c0 93 75 b8 3d e7 32 ca 3c 26 41 0e 3d f3 c3 8b 3d
       0.090068005 0.024682475 0.0347301 0.06824484
0002d0 3d 18 4e bd f8 6d 03 bd f5 8b 69 bc 79 0e 7f bd
       -0.050316084 -0.032087296 -0.01425456 -0.06226966
0002e0 fb a9 6e 3d f3 5c b6 3d 63 ac 72 3b a8 88 93 3d
       0.058267575 0.089044474 0.003702902 0.072037995
0002f0 cf 4e 7f 3d e2 1a 32 3d 1f 91 18 3d f0 6e 91 3d
       0.062331017 0.04348267 0.037247773 0.07101238
000300 89 ee 82 bc cd 5d 2f bd a2 1a 41 bc bb 4c 67 3d
       -0.015982883 -0.042814065 -0.011786135 0.05646966
000310 f6 94 ac 3c b3 b4 56 bd 88 31 b1 3d 92 f0 3c bd
       0.021067124 -0.052418422 0.086520255 -0.046127863
000320 05 f9 95 3c 48 a7 50 3c 40 9a 83 3d 7a 40 23 bd
       0.018307218 0.012735195 0.06425905 -0.03985641
000330 7a fa c7 bd 59 2d 82 b8 30 54 99 bd 86 1d 5d 3d
       -0.097645715 -6.20733e-05 -0.074867606 0.053983234
000340 bc ec 8e 3d 31 e7 51 3d 27 f9 b9 bd ed bd 15 bd
       0.06978747 0.051245872 -0.09080725 -0.03655808
000350 fb 6d e9 3c 97 66 a5 3d 6a ba bc 3d 29 71 94 3c
       0.028494826 0.08076208 0.09215243 0.018120365
000360 87 c1 36 bc 67 93 d1 3d 65 a8 65 bd c0 4e bf 3d
       -0.011154539 0.10233193 -0.056068797 0.09341192
000370 4d 6c b3 3d d0 bb be bc d1 82 82 3c 8d a5 49 bd
       0.08760891 -0.023282915 0.015931519 -0.049230147
000380 d2 ea 0f bd dc 61 8b 3d fa 7f 49 ba 7f e1 73 3d
       -0.03513605 0.068057746 -0.00076866115 0.05954122
000390 80 82 59 3c e0 1d b5 bd e9 14 cc 3d b9 52 94 3d
       0.0132757425 -0.08843589 0.09964926 0.072423406
0003a0 a3 d6 bc 3d 83 d5 74 3d 39 ca 64 3d 9f 0f 94 bd
       0.09220626 0.059773933 0.055856917 -0.07229542
0003b0 d7 e4 b6 bd f9 95 7a 3d 9c 54 c5 3d 00 93 1a 3d
       -0.089303665 0.06117818 0.096352786 0.037737846
0003c0 5e 0b 9c 3d 07 34 d3 bc 23 18 47 3d 72 c7 bd bc
       0.076193556 -0.025781645 0.048607003 -0.023166392
0003d0 d7 92 49 bd ab 5a ad bd 1b 3a 15 bd eb 80 a8 3d
       -0.049212303 -0.08464559 -0.036432367 0.08227714
0003e0 ca a0 b9 3d a5 17 69 3d ab 87 4d 3d 4b ca c3 3d
       0.09063871 0.056907315 0.05017821 0.09560069
0003f0 c1 48 76 3d 34 f9 8a 3d 61 84 ab 3d 94 11 85 bd
       0.060127977 0.06785813 0.08374859 -0.064974934

bias f4 [8]
000000 e7 78 e6 bc 84 9d c1 bb 95 a7 86 bd 94 00 80 3d
       -0.028133823 -0.00590867 -0.065749325 0.0625011
000010 e5 9f 76 3d c2 a1 64 3d c6 8c b5 3d 88 29 1c 3d
       0.06021108 0.055818327 0.08864741 0.038125545

weight f4 [16, 8, 3, 3, 3]
000000 ab 2b d6 3c d6 f3 63 3d f2 76 25 bd 74 62 65 3d
       0.02614387 0.055652462 -0.04039664 0.056002095
000010 d4 75 0b bd ab 52 b9 3c 7e f7 2f 3b 98 3e 8d bd
       -0.034047917 0.022622427 0.0026850398 -0.068967044
000020 69 e5 de bc d3 34 78 bd f0 72 7a bd e6 a4 68 bd
       -0.027209 -0.060597252 -0.06114477 -0.056797884
000030 0d 54 60 3d b5 5f a8 bb 86 4f 81 3d 1f 6c a3 3c
       0.054767657 -0.0051383623 0.06313996 0.019949017
000040 53 eb 80 3c 9e bb 81 bd ee 85 78 bc c0 59 82 3d
       0.015737211 -0.06334613 -0.01516865 0.06364775
000050 00 66 54 bc 85 2e 09 bd b8 12 de 3a 2f 82 3b bd
       -0.012963772 -0.03349163 0.0016942834 -0.04577845
000060 33 1a 73 3d ca 21 3a bd bc eb 8f 3b 97 29 eb 3c
       0.059351157 -0.04544238 0.0043921154 0.028706355
000070 db 21 2e 3d 71 46 12 bd 81 0f 39 3c 00 ab 84 3b
       0.042512756 -0.03571171 0.0112952 0.004048705
000080 2f a4 41 3d 4a 29 52 bd c1 36 a1 bc c0 35 6e 3c
       0.04727572 -0.051308908 -0.019679429 0.014539182
000090 a9 8a 4d bd ed d7 d8 bc 5f 50 61 3d 74 d2 5c bd
       -0.050181065 -0.026470149 0.05500829 -0.05391164
0000a0 94 ee 8b bd ac f8 8a bd a8 94 f2 bc 53 51 93 bc
       -0.068326145 -0.06785712 -0.0296119 -0.017983114
0000b0 75 92 80 3d e1 cd 76 bc 14 35 76 3d fe 50 48 3d
       0.062779345 -0.015063734 0.060109213 0.048905365
0000c0 1d f6 da bc bb e2 0f bd 85 df d4 bc 96 d2 38 bd
       -0.026728684 -0.035128336 -0.025985489 -0.045122705
0000d0 d0 90 55 bd 4d 04 89 bc 5e ae fe bc f5 69 dd 3c
       -0.052140057 -0.016725684 -0.031089004 0.027028063
0000e0 88 26 83 3d 04 81 9e ba 47 01 8c 3c 5b e5 6a 3d
       0.06403834 -0.0012092893 0.017090453 0.057347637
0000f0 4b f3 64 3d d3 78 8b bd 40 14 60 3c 90 be 5e 3d
       0.055896085 -0.06810155 0.013676703 0.054380953
000100 61 ea 79 bd 09 15 d0 3c a7 f3 f4 3c b4 fe 05 bd
       -0.061014537 0.025400655 0.029901339 -0.032713607
000110 2e 77 24 bc e9 be 25 3c f0 e4 a9 3c c3 38 90 3c
       -0.01003818 0.010116317 0.020739049 0.017605191
000120 d2 cb dd 3c a0 a0 66 3d ce 15 84 3d 9b 3a 67 bd
       0.027074728 0.056305528 0.064494714 -0.056452375
000130 dd 16 3e bc 88 9f f8 3b d8 8f 16 3d 4f 94 50 bd
       -0.011602131 0.007587377 0.036758274 -0.050922688
000140 e6 6c 8b bb bf c4 6c bd 7d 14 59 bc 7c d2 30 bd
       -0.004254925 -0.05780482 -0.013249514 -0.043169484
000150 53 25 0c bd ad 84 40 3d 17 02 a5 3c ae ee 43 3d
       -0.034215283 0.04700153 0.020142598 0.047835045
000160 5b a2 b3 bc 69 0c 80 bd 8d 5e 77 3d de 3a 28 3d
       -0.021928003 -0.06252367 0.060392905 0.041071765
000170 d1 12 58 3d 26 cd 6a bc c5 ad 70 bc 60 dd 81 bd
       0.05275232 -0.014331138 -0.014689867 -0.06341052
000180 ae c7 09 3d 21 42 f1 bb 4a 71 82 3c 51 e1 4c bc
       0.033637695 -0.0073626195 0.015923161 -0.0125048915
000190 98 6b e2 3c 90 bd 4e 3d f7 00 e5 bc 49 e4 71 3d
       0.027639195 0.05047375 -0.027954562 0.0590556
0001a0 5a 1b 8c bd fe a4 53 3d c9 74 f6 bc 2b 90 a4 3b
       -0.068411544 0.05167102 -0.030084984 0.005022069
0001b0 f1 ac 18 3c a2 eb 5c 3c 24 75 6f bd 32 7e ca bc
       0.009318576 0.013483914 -0.058461323 -0.024718378
0001c0 98 e7 50 bd 22 3e 2e bb c3 61 90 bb 3c da 75 bd
       -0.051002115 -0.0026587327 -0.0044061854 -0.060022578
0001d0 94 c1 5b bd ef 73 fe 3c c8 4e 1e bd fd 8e 13 3d
       -0.053651407 0.03106114 -0.03864935 0.036025036
0001e0 59 cf 7b bd d1 dc ec bc b7 dd 0f bc 7d 3e 81 bd
       -0.06147704 -0.028913887 -0.008780888 -0.06310747
0001f0 5a 3a b9 3b 80 90 2d bd 22 ef 4c 3d 9d 30 6f bd
       0.005652708 -0.042374134 0.050032742 -0.05839597
000200 39 fa 13 3d 5d 1b a8 bb c0 7a d9 3c 6b ac 6f bd
       0.036127303 -0.005130215 0.02654779 -0.05851404
000210 a6 db 00 bd 45 92 c0 3c 96 ab 28 3d e0 c0 41 bc
       -0.031459473 0.023507247 0.041179262 -0.01182577
000220 a2 8d 19 bd 10 63 38 bd 2b b5 bc 3c 20 e1 7a 3d
       -0.037488587 -0.04501635 0.023035606 0.061249852
000230 c1 91 68 3c 4c 60 8f 3c 66 52 30 3d e7 d0 3b 3d
       0.014194907 0.017501973 0.04304733 0.04585352
000240 bc 9f 47 bd 76 57 66 3d 38 c9 b0 bc a6 ce 27 3d
       -0.04873632 0.056235753 -0.021580324 0.04096856
000250 fd 79 a4 3c 86 3b 55 3c 98 f0 fd bc 19 4a 2a bd
       0.0200777 0.01301468 -0.030998513 -0.04157457
000260 41 df 91 3c 1a ed 6a 3d b4 0f b3 3c 09 27 e6 bc
       0.017806651 0.057355024 0.021858074 -0.028094785
000270 46 a5 1a 3d db 5d ef bc b0 93 9e 3b a9 4a e1 ba
       0.037755273 -0.029219558 0.004839383 -0.0017188388
000280 1c 8a 2c bd 14 da 91 bd 10 33 9a 3c ea 21 1c 3d
       -0.0421239 -0.07121673 0.018823177 0.03811828
000290 6d 39 38 3d c1 6c 72 bc 75 43 65 3d 09 90 6f bd
       0.04497664 -0.014796437 0.055972535 -0.058486972
0002a0 8a 06 7d 3d 34 7f 6c 3d f1 9b 9f 3b b8 f7 4a 3d
       0.061773814 0.057738498 0.0048708846 0.04955265
0002b0 b6 36 18 3d d8 b6 4e 3d 95 3d fd 3c d0 b1 54 3d
       0.03716155 0.050467342 0.030913154 0.051927388
0002c0 c7 de 44 bd 7f 20 48 bc 61 c6 18 bd 30 2e 80 3d
       -0.04806402 -0.012214779 -0.037298564 0.062588096
0002d0 2a 0b a2 3b b4 aa 86 3c a4 0c 83 3d a9 c2 41 bd
       0.0049451785 0.01643882 0.063988954 -0.047304783
0002e0 62 50 83 bc 8d 95 b7 bc 46 c2 56 bd 4d ca 7a bd
       -0.01602954 -0.022410179 -0.052431367 -0.061228085
0002f0 8b 9a 40 bd 4e 3c 21 3d 54 e2 e7 bc 88 be 22 3c
       -0.047022384 0.03936415 -0.028306164 0.0099331215
000300 7e 7a 91 3c 3b 87 10 3d e8 d0 7e bd ab 3d 4b 3d
       0.017758604 0.035285216 -0.062210947 0.049619358
000310 ab ff 50 bd f9 7e 0d 3d 6d 37 10 bd 84 3d 15 3d
       -0.051025074 0.03454492 -0.03520911 0.03643562
000320 34 b5 0d bd ab 5d 30 bc 11 9e 26 bd 63 73 bd 39
       -0.034596637 -0.01076452 -0.040678088 0.0003613486
000330 1f 9d 72 3d da 1a 9a 3b 64 56 b4 bb 0c 3d d8 3c
       0.059231874 0.004702908 -0.0055034626 0.026396297
000340 6f 6a 13 bc 0a 66 dd bc 17 63 82 bc 42 fe 22 3d
       -0.008997544 -0.027026195 -0.01591639 0.03979326
000350 ad 56 8a 3b c4 34 81 3d c1 49 25 bd f8 4a 8b bd
       0.0042217583 0.06308892 -0.04035354 -0.068014085
000360 cc 3a 44 3d 77 bd 91 3d 7c 44 3c 3c c5 c5 ec 3b
       0.047907636 0.07116216 0.011490937 0.0072257244
000370 8e a5 15 3d 0a 2a 6f 3d 08 41 53 bc f5 95 47 bd
       0.03653484 0.0583897 -0.012893923 -0.048726995
000380 0c 2c 28 bc 9a 31 0f 3d 07 5e 85 3d b3 b7 21 bc
       -0.010264408 0.034959413 0.06512075 -0.009870457
000390 8c cf 34 3d be 9c 14 bd ec 04 d7 3b 66 a6 5e bd
       0.044143245 -0.036282293 0.006561866 -0.05435791
0003a0 be f0 82 3d ee b8 94 ba 0e ed 71 3d 3c b1 44 3c
       0.06393574 -0.0011346617 0.059063964 0.012005147
0003b0 ae 68 03 b9 a3 c1 1c bd 14 1b 41 bd 94 24 3f bd
       -0.0001253213 -0.038270604 -0.047144964 -0.046665743
0003c0 3d e1 71 bd 99 f4 87 bc 00 35 68 3d c4 57 ea bc
       -0.059052695 -0.016596125 0.05669117 -0.028606303
0003d0 9f 43 4f 3d 6d 70 71 3d 02 35 36 3c 2e f9 cf bc
       0.050601598 0.05894511 0.0111210365 -0.025387373
0003e0 17 cc 0e 3d 4d 40 05 bc 62 f5 89 3d 9e 72 b2 bc
       0.034862604 -0.008133006 0.06736256 -0.02178317
0003f0 08 dd 48 bc 9a be 4d bd 99 02 f8 3b e5 6f 1e bc
       -0.012259729 -0.0502306 0.007568669 -0.009670232

bias f4 [16]
000000 5f 5e 1e bd 7f 1a 91 3d d1 56 05 bd 04 fc 0f bd
       -0.038664218 0.07085132 -0.032553498 -0.03515245
000010 0d a6 de bc d8 4b 87 bd 47 be 5f bb 1b e0 39 3b
       -0.027178789 -0.06606263 -0.0034140514 0.0028362337
000020 05 32 23 bd f3 06 14 bd 8b 2c 34 38 16 c8 39 bd
       -0.039842624 -0.03613944 4.2956828e-05 -0.045356832
000030 19 8c 1c bc e7 d3 92 3d 19 4f 8b bd bd 4a 95 bd
       -0.009554886 0.071693234 -0.06802196 -0.07289646

weight f4 [32, 16, 3, 3, 3]
000000 c5 5e 43 bd e2 03 f9 b9 b8 96 8c 3c 5b 6e 0b bd
       -0.0476978 -0.00047495874 0.017161712 -0.03404079
000010 33 5f a5 3c a1 9a 84 bb ee b7 d0 3c c2 92 de 3b
       0.020186996 -0.0040467535 0.02547833 0.0067923972
000020 ef da 06 3d c6 d6 d9 bc 73 e4 1f ba 53 16 2f bc
       0.032923635 -0.02659167 -0.000609941 -0.010686475
000030 46 4d 40 3d e9 a8 97 bb de 4a 28 3d cf d2 1b bd
       0.046948694 -0.00462829 0.041087024 -0.03804284
000040 0b 6e 76 3c e3 3a 4c bc f2 4a 02 bd 59 f5 78 3c
       0.015040885 -0.012465212 -0.031809755 0.015195214
000050 5f a3 03 bd 67 14 af ba 39 51 ae 3c 0c ad ea bc
       -0.032138225 -0.0013357521 0.021278964 -0.028646968
000060 b8 28 55 3d 8f 5f c1 bb 5e 19 6d bb 41 58 ba 3c
       0.052040786 -0.005901284 -0.003617845 0.02274716
000070 63 d1 0c 3b 21 0f 39 bd 92 6c 11 3d b2 e0 fe 3c
       0.002148711 -0.045180444 0.03550393 0.031113002
000080 b1 30 0d 3d de ab d4 3b 87 87 15 bd 10 0d b9 bc
       0.034470264 0.0064902147 -0.036506202 -0.022589236
000090 5b 74 aa bc ba 40 2c bd 75 8e 99 bc e6 b0 06 3d
       -0.020807436 -0.042053916 -0.018744687 0.032883547
0000a0 78 9a f9 3c a5 7c 1a 3d 8c 94 09 3d 53 39 18 3c
       0.030469164 0.037716527 0.03358893 0.009291011
0000b0 0d 80 c6 bc 0d 57 24 bd e4 97 22 3c 96 76 f2 bc
       -0.024230981 -0.04012208 0.009923909 -0.029597562
0000c0 bd c1 00 bd c8 61 ee bc 60 22 d0 bc 6f d0 1d 3b
       -0.031434763 -0.02909936 -0.025407016 0.0024080535
0000d0 32 17 b8 bc 9d 25 89 3b 27 cd 24 bd 2c d0 5a 3c
       -0.022471998 0.004185392 -0.04023471 0.013355296
0000e0 9f d9 33 bd 36 ab cc 3c 15 67 5d 3d 0c b8 19 bb
       -0.04390871 0.024983983 0.054053385 -0.0023455648
0000f0 83 4a 96 3b b6 5e 02 3d 1f 91 2d 3d 15 44 b4 bc
       0.004586519 0.031828605 0.042374726 -0.02200512
000100 77 65 04 bd 79 9b b3 3c 69 31 7b 3c 03 b8 1e bd
       -0.032323327 0.021924721 0.0153316045 -0.038749706
000110 61 fe a7 bc 71 b9 76 ba 73 c5 43 bc c8 67 99 bc
       -0.02050704 -0.0009411788 -0.011948931 -0.018726245
000120 36 56 0e bd e8 7f ca bc f2 89 08 bd 80 7d 07 3d
       -0.034750186 -0.024719194 -0.03333468 0.03307867
000130 d5 b1 e6 3c b9 8f 3e 3d ae 88 c5 bc e9 54 a2 3c
       0.028160969 0.046523783 -0.024113026 0.019815879
000140 16 10 5c 3c e7 21 0f bc 4b cd df 3c 74 b9 f3 3c
       0.01343157 -0.00873611 0.027319571 0.029751517
000150 c7 82 9d bc a0 47 a5 3c bc ce 55 3c 3f f8 3c 3d
       -0.019227399 0.020175755 0.013049778 0.046135183
000160 41 b5 23 3d f6 20 1b 3c 78 b4 bf bc fc 50 02 bd
       0.03996778 0.009468308 -0.023401484 -0.031815514
000170 81 9c da 3c fa ef 1a 39 ab ff e1 bc 02 99 ce 3b
       0.026685955 0.00014775983 -0.027587732 0.006304861
000180 ef 68 1f bc 4e 3d 0f bd 78 6b 16 3d f6 f3 fd bb
       -0.009729608 -0.034970574 0.036723584 -0.0077500297
000190 2a d6 a7 3c 61 9d 0e 3d 57 94 ab 3c 75 f2 45 3d
       0.020487864 0.034818057 0.020944757 0.04832693
0001a0 5b 5c d5 3c 7c b5 05 bc b4 ed 23 3d bb b6 1f 3c
       0.026045015 -0.008160945 0.040021613 0.009748156
0001b0 06 e8 8d bc 58 0d 55 bc b0 b9 59 3b 12 75 c5 3c
       -0.017322551 -0.01300367 0.003322225 0.024103675
0001c0 fd d3 29 3d c5 61 02 3d 78 cf 63 bc 53 3e 43 3d
       0.041461933 0.03183152 -0.013904445 0.04766686
0001d0 00 dd 53 3c 6c f2 4a 3c ea f8 a3 bc 90 09 84 bb
       0.0129311085 0.012386899 -0.020016152 -0.0040294603
0001e0 91 af f7 bc c4 9f 13 bc 38 9e 0c 3c d2 46 d2 3c
       -0.030235084 -0.009010259 0.008582644 0.025668535
0001f0 c2 0f 86 bc 7c 91 26 3c f7 0b ad bc 20 2d a3 3b
       -0.016364936 0.010166522 -0.02112387 0.0049797446
000200 80 1e 33 bc aa 8e cb 3c 3e 96 fd 3c d0 07 6b bc
       -0.010932565 0.024848301 0.03095543 -0.014345124
000210 e4 a4 06 bc 18 b0 f9 3b ce 28 b9 bc b0 96 d5 3c
       -0.008218024 0.007619869 -0.022602465 0.02607283
000220 33 4d 1b 3d ce 3a 85 bc 3b d0 29 bd 8c 61 b1 bc
       0.03791542 -0.016263392 -0.04145835 -0.02165296
000230 2a 4b 0b 3d e9 d9 c0 bc 63 94 2b 3d 36 5d 27 3d
       0.03400723 -0.023541408 0.04188956 0.040860377
000240 37 4a ac 3c 14 20 d6 bb 02 60 4d 3d 7a 39 4e 3d
       0.021031482 -0.0065345857 0.05014039 0.050347783
000250 68 46 56 3c 50 7f aa bc aa b5 5d bc 25 2c 1c 3d
       0.01307831 -0.02081266 -0.013532082 0.038128037
000260 11 08 21 bd d4 ce 53 bd 2c 2e 3d bd 51 a6 4c bd
       -0.039314333 -0.05171092 -0.04618661 -0.0499633
000270 80 7d bf 3c 5a 0f c1 3c 48 93 55 3c d8 71 b9 3c
       0.023375273 0.02356689 0.013035603 0.022637293
000280 47 60 8e bc ff d4 d3 3c 43 4e 87 bc 75 3c b9 bc
       -0.017379893 0.0258584 -0.01651681 -0.022611836
000290 1d 25 f8 bc 9c 9b 62 bc ba 91 d1 3c 46 5b f4 bc
       -0.030291134 -0.0138310455 0.025582183 -0.029828679
0002a0 b2 88 19 3d 06 94 d9 bc bd be 43 3d a3 0e 36 3b
       0.03748388 -0.02655984 0.047789324 0.002777972
0002b0 aa 1b 18 3c eb 8b a5 bb dc 81 29 bd 64 51 2c 3d
       0.009283939 -0.00505208 -0.04138361 0.042069808
0002c0 ce 23 22 bd 53 6d 8a 3c 65 5f 08 bd 55 2e 23 3d
       -0.039584927 0.016897833 -0.0332941 0.039839108
0002d0 3d a4 8e 3c 1d 75 34 bd a1 67 c5 bc bd b6 ae 3c
       0.0174123 -0.044057 -0.024097266 0.02132737
0002e0 2e 77 15 3c 1b c5 39 3d a6 f0 06 3b 4f 2c c4 bb
       0.009122653 0.04535399 0.0020590215 -0.0059867273
0002f0 e3 57 30 3d 3f 37 b5 3c 56 4a 31 bd c4 60 4e bc
       0.043052565 0.02212107 -0.043283783 -0.012596313
000300 8b cf 4e bc 59 14 0d 3d cb 06 86 3b b7 f3 bb bc
       -0.012622724 0.034443233 0.0040901653 -0.02294336
000310 85 91 cc 3c 28 b5 b2 39 e0 9f 95 ba 89 f1 40 bc
       0.024971733 0.00034085778 -0.0011415444 -0.0117763365
000320 ec 16 05 3d d7 56 ab 3c b2 00 1b bd 18 36 8d 3c
       0.032492563 0.020915432 -0.03784246 0.017237708
000330 5d c3 1d 3d ab aa 46 bc d4 7c 2c bd 75 c6 0c 3d
       0.03851639 -0.012125651 -0.042111233 0.03436895
000340 7a 05 0e bc 43 97 b2 bc 2f 9a 18 3d 22 03 37 3d
       -0.008668298 -0.021800643 0.037256416 0.044680722
000350 6f 11 82 3c a0 65 b6 bb 7e f4 dd bc 09 ed 57 3b
       0.015877454 -0.005566314 -0.027094122 0.003294768
000360 a3 3b 8f bb f2 bd 38 bd af 9c 1c 3d b7 c1 80 3c
       -0.004371123 -0.04510302 0.038235363 0.01571737
000370 4d 9d 94 3b 94 d8 cc bc 5c c0 2d bc 26 0e 14 3d
       0.0045353533 -0.025005616 -0.010604944 0.036146306
000380 ee 42 e8 bb ad f0 be 3c 19 c7 03 3d 2f 8f 0e bc
       -0.0070880568 0.023308123 0.032172296 -0.00870113
000390 15 f3 62 3d 39 13 b8 bc 46 60 a4 3c a4 b4 e0 bc
       0.055407602 -0.022470104 0.020065438 -0.027429886
0003a0 4c 59 a0 bb 68 2b 01 bd 18 14 f4 3c 89 3e 02 3d
       -0.0048934575 -0.031535536 0.029794738 0.03179792
0003b0 87 19 c9 3c 1a 62 98 ba f5 67 8f bc e6 b4 84 bc
       0.024548305 -0.0011625916 -0.017505625 -0.01619954
0003c0 8c c3 a1 bb 3f dc f8 bb d2 a2 e4 bc e3 0c 23 3c
       -0.004936641 -0.0075946148 -0.02790967 0.009951803
0003d0 8e 51 85 bc 70 0e 6d 3c 61 ff ba bc d9 73 16 bd
       -0.01627424 0.014468774 -0.022826852 -0.036731575
0003e0 f1 e5 22 bd 3e ca d6 bb 7d 43 ac bc 31 3e 7f 3b
       -0.03977007 -0.006554871 -0.021028275 0.003894698
0003f0 95 f0 b7 bc b9 d7 b9 3b 11 c4 1f bd a6 d1 2e 3d
       -0.022453586 0.005671468 -0.039005343 0.042680405

bias f4 [32]
000000 2e 07 26 3d f0 a5 4b 3d 23 37 0c bd 69 87 b1 3c
       0.04053419 0.049718797 -0.03423227 0.021671014
000010 66 9a 67 bc 71 47 17 3d 8f b5 af 3c 77 7c 18 bd
       -0.014135933 0.036933366 0.021448879 -0.037228074
000020 39 67 a4 bb 46 d0 42 bd 66 70 32 bd 53 90 b9 3c
       -0.005017188 -0.047561906 -0.043564223 0.022651827
000030 34 37 ee 3c 7e 52 de 3b 37 94 ce 3b 9f e3 18 3d
       0.029079057 0.006784736 0.0063042897 0.03732645
000040 5e ec 5b 3c 2d 5d 3a 3d 98 54 a8 bc 1f a6 61 bc
       0.013423054 0.045499016 -0.02054815 -0.0137725165
000050 25 91 be ba e5 43 45 3d a7 b8 c8 3c 9f 04 56 3d
       -0.0014539106 0.048160452 0.024502112 0.0522505
000060 92 0a 76 3c 2d f0 ca bc 3c cb b5 bb 00 c5 25 bd
       0.015017169 -0.024772728 -0.005547909 -0.040471077
000070 ed 38 39 3d cb 75 87 bc d8 c0 dd bc ed a3 31 bd
       0.045220304 -0.01653566 -0.027069494 -0.043369222

weight f4 [64, 32, 3, 3, 3]
000000 74 1b dc 3c f4 9e a4 3c 14 61 f3 bc a0 b3 db bb
       0.02686856 0.020095326 -0.029709376 -0.0067047626
000010 00 66 3d ba e9 4a 01 bd be fa 86 3c 98 41 c6 bc
       -0.0007224977 -0.03156558 0.016476985 -0.0242012
000020 30 7e b5 bb e0 2b 8d 3b 84 8d fb 3c 26 db ce bc
       -0.0055387244 0.004308209 0.030707128 -0.025250982
000030 1c cc 4e 3c 3a 22 c8 3c 5e 59 b3 bb c8 87 b4 3b
       0.012621906 0.024430383 -0.0054733 0.0055093504
000040 5e 3e f0 3c a3 ba de bc 22 67 e0 3c 20 49 41 3c
       0.029326614 -0.027188605 0.027392928 0.0117972195
000050 7d 53 b3 bc 68 a2 39 3c 82 18 b9 3c c4 96 08 3b
       -0.021890396 0.011330225 0.022594694 0.0020841816
000060 58 b7 fa 3b b8 6d d2 3c 41 dd 23 3c 40 cb e1 3a
       0.007651251 0.025687084 0.0100014815 0.0017226711
000070 b0 6b e5 bc 90 80 b5 3b 66 cb 55 bc 22 3e 0b 3d
       -0.028005451 0.0055390075 -0.013048982 0.0339948
000080 1c 26 f1 3c 00 cf ee 3b 2a ee 91 bc f0 db f5 3c
       0.029437117 0.00728786 -0.01781376 0.030012101
000090 06 79 23 bc c0 14 27 bb ae c6 d9 bc b8 21 a3 bc
       -0.009977585 -0.0025494546 -0.026583996 -0.01991354
0000a0 5d 1c 64 3c 31 15 5d bc c4 19 6a 3c b7 f9 08 3b
       0.013922778 -0.013493822 0.01428837 0.0020900795
0000b0 98 14 b7 3c 04 45 07 bc b0 ba f4 3c 04 7c 82 3c
       0.022348687 -0.008256201 0.029874176 0.015928276
0000c0 8c d2 91 3c 82 b5 83 3b 25 58 0a bd 68 fc 1f 3c
       0.017800592 0.00401944 -0.033775467 0.009764768
0000d0 f0 78 7c 3c de 37 d3 bc d4 41 d1 bb 6c be 2e 3c
       0.015409693 -0.025783475 -0.006386021 0.010665517
0000e0 fa e6 9d 3c c8 d2 cd 3c da 53 bd bc b0 5b f2 bc
       0.019275177 0.025124922 -0.023111273 -0.029584736
0000f0 d0 5d b5 3c 40 78 88 bb fc 58 eb bb 9c 0a e2 bb
       0.02213946 -0.0041647255 -0.0071822386 -0.0068982374
000100 b8 31 a5 3b 08 32 a8 bc 28 77 e3 3b a2 b3 ca 3c
       0.0050413273 -0.02053167 0.0069416948 0.024743859
000110 40 5b 91 3c 58 fe c7 bc 86 e5 96 3c 04 48 24 3c
       0.017743707 -0.024413273 0.018419992 0.0100269355
000120 94 8a fc 3c c4 eb 5e 3c a5 b0 9e bc 40 91 e8 ba
       0.030827798 0.013606016 -0.01937134 -0.0017743483
000130 6a 4c a9 bc 96 b2 02 bd ea 80 98 bc d4 56 dc 3c
       -0.02066632 -0.031908594 -0.018616159 0.026896872
000140 08 30 8e 3b 43 b0 80 bc 08 0d 83 3c 40 42 bb bc
       0.004339222 -0.015709048 0.015997425 -0.022858739
000150 67 58 f9 bc 8a 51 a8 bc e4 9a c9 bb ca ea be bc
       -0.030437661 -0.020546693 -0.0061524976 -0.023305316
000160 20 60 99 3c 1a 02 04 bd 08 46 2c 3c 98 e1 f0 bb
       0.018722594 -0.032228567 0.010514744 -0.0073511116
000170 2c e7 ee 3c c8 dc 5a bc 04 a5 c2 bc 76 48 82 bc
       0.029162966 -0.013358302 -0.023760326 -0.015903693
000180 f0 83 de 3c e1 0e b2 3b f9 89 0d bd 74 8d 84 bc
       0.027162522 0.0054339026 -0.03455541 -0.016180731
000190 e0 84 b4 ba d0 fc af bb 78 e9 b2 3c 36 1c c0 bc
       -0.001377251 -0.005370714 0.021839842 -0.023450952
0001a0 9f 75 af bc f8 b7 8c 3b 01 41 2f bc fb 6e 06 bb
       -0.02141839 0.0042943917 -0.0106966505 -0.0020512927
0001b0 ba 45 06 3d e8 48 e0 3b 10 a0 1e 3b 00 01 cc bc
       0.03278134 0.0068446286 0.0024204291 -0.02490282
0001c0 bc ea 9a bc b4 f3 c8 3c 7c 98 a3 bc f8 c7 4d bc
       -0.018910758 0.02453027 -0.019970171 -0.012559883
0001d0 7a d9 ae bc d0 7f c8 3c 98 7b f9 bb e8 38 f0 3b
       -0.021343935 0.024475008 -0.0076136105 0.0073310025
0001e0 36 ca 1d bc eb 31 94 bc 0c 45 a8 3a a0 ae 60 3b
       -0.00963073 -0.018090209 0.001283796 0.0034283772
0001f0 ea 82 48 bc 98 e6 a2 3c 70 d6 71 3c 98 73 88 bb
       -0.012238244 0.019885346 0.014760599 -0.0041641705
000200 ec f8 61 bc e6 ee b4 3c d2 7f 99 3c a8 58 c9 3b
       -0.013792258 0.022086572 0.018737707 0.006144602
000210 86 6c d7 3c be 35 8f bc 12 08 cc bc e0 22 50 3b
       0.026296865 -0.017481681 -0.024906192 0.0031759068
000220 66 2b 87 bc 6a 75 d7 3c 10 aa f6 bc b0 43 ce bb
       -0.016500186 0.026301105 -0.030110389 -0.00629469
000230 00 32 77 ba 80 e3 03 3c 1c 65 53 3c 80 c5 b5 3a
       -0.0009429753 0.008049846 0.012902524 0.0013868064
000240 b4 b9 71 3c f8 52 ed 3b cc a9 6b 3c 62 19 6f bc
       0.014753748 0.0072425567 0.014383744 -0.014593454
000250 b9 9e 3d 3c 9c a0 08 bc 3a 1b d7 3c bf c6 1a bd
       0.011573487 -0.0083390735 0.0262581 -0.037787195
000260 1e ab a3 3c 98 56 9c 3c c8 c7 c9 3b 28 fe 33 3c
       0.019979056 0.01908426 0.006157849 0.010985889
000270 00 ba 27 b9 1c 1f c0 3c d0 34 d6 bc 52 b4 8e bc
       -0.00015995651 0.023452334 -0.02614823 -0.017419968
000280 d3 5c 2a 3a 64 85 bc 3c f8 a9 75 3c 6c 9b 5c bc
       0.0006498817 0.023012824 0.014994137 -0.01346479
000290 30 62 d4 3c 80 fa 64 bc 1d 75 df bc c6 50 fd bc
       0.025925726 -0.0139757395 -0.027277524 -0.030922305
0002a0 ba ed 05 3d 1e 73 49 bc dd 6d f3 bc c4 4e 05 3d
       0.032697417 -0.0122955125 -0.029715473 0.03254582
0002b0 70 51 67 3b d0 6a 3c bb d6 3f a2 3c 94 45 a2 3c
       0.0035296343 -0.0028750189 0.01980583 0.019808568
0002c0 8c 2e 84 3c 50 c6 c7 3b bf a3 0b bd 65 83 2d 3b
       0.016135477 0.0060966387 -0.034091707 0.0026476022
0002d0 f2 c6 a7 3c b2 d5 08 bc f4 4a 90 bc 00 3c 76 39
       0.020480607 -0.00835173 -0.017613865 0.0002348274
0002e0 47 65 08 bd cb 6b 42 bc 38 37 19 bc 18 cd e1 bc
       -0.03329971 -0.01186652 -0.009351544 -0.027563617
0002f0 1a af 9e ba cc 45 fb bc 90 3e 7b 3c 40 49 19 3c
       -0.0012106628 -0.03067293 0.01533474 0.009355843
000300 70 0d 03 3b 20 59 4d bb 4c 6a f6 bb 4a d6 cb bc
       0.0019997023 -0.003133364 -0.007519996 -0.024882454
000310 bc f2 29 3c 9d 3f a6 bc a5 c4 84 bc c0 0c cc 3c
       0.010372814 -0.020294005 -0.016207049 0.024908423
000320 f0 10 3e 3c 84 d4 0a bc 98 dc ce bc 81 9d 29 3c
       0.011600718 -0.008473519 -0.025251672 0.010352493
000330 4a 44 e1 bc fc 18 42 3c e0 6f cd 3c 4c e3 85 bb
       -0.027498383 0.011846777 0.02507776 -0.004085934
000340 46 f1 08 bd 96 66 02 3d e6 59 3e bc 3a 86 e8 bc
       -0.03343322 0.031836115 -0.011618113 -0.028384317
000350 cc 47 2c bc f0 48 da 3c d2 31 90 3c 42 32 2b bc
       -0.010515165 0.026646107 0.017601881 -0.010448994
000360 88 5e df bc 71 88 a4 bc 00 4d ce 39 70 4d 0a 3d
       -0.027266756 -0.020084592 0.0003934875 0.033765256
000370 e6 f9 65 bc 2e 6d cd bc e0 d0 d7 3c d6 78 a0 3c
       -0.014036631 -0.025076475 0.026344717 0.019588869
000380 ae 1b d1 3c a6 5b 9e 3c e0 60 d8 3a c8 2b 98 3b
       0.025525894 0.01933081 0.0016508363 0.004643891
000390 02 7e 01 bd 4a c3 14 bd a5 d6 4f 3c df 14 06 bd
       -0.03161431 -0.036319055 0.012685453 -0.032734748
0003a0 cd e7 07 3c e6 db 01 bd 50 1b 3b 3c 16 3f 91 3c
       0.008295012 -0.031703852 0.011420086 0.017730277
0003b0 8c 32 c0 bc 80 44 45 3b e1 da 08 3c 40 6a bd 3b
       -0.023461603 0.0030100644 0.008352966 0.0057804883
0003c0 8c a9 dd 3c 35 a5 1a bd dc 6f db 3c 98 b7 68 3c
       0.027058385 -0.03775521 0.026786737 0.014203928
0003d0 78 17 ff 3b a6 a6 00 bd 14 2b 8e 3c ae fb ab 3c
       0.00778478 -0.03140893 0.017354526 0.020994034
0003e0 30 52 07 3b d0 56 46 3b 80 60 93 3c fc 0e f6 3c
       0.0020648353 0.0030264147 0.01799035 0.030036442
0003f0 00 79 44 bb b4 d8 24 3c 64 a4 fa bb c0 8c 24 ba
       -0.0029979348 0.010061432 -0.0076489914 -0.0006277077

bias f4 [64]
000000 3c d4 8a bc b1 54 14 bc 07 d6 0a 3c f6 07 c3 bb
       -0.016946904 -0.009053395 0.00847388 -0.0059518768
000010 41 d9 79 3c 7d 98 9c 3c 8c 9e 89 39 ea 21 5a 3a
       0.015249551 0.01911568 0.00026248803 0.00083210936
000020 3b 8f ca 3c a8 93 1c 3a 80 de 08 3c ae 41 a0 bc
       0.0247265 0.000597293 0.008353829 -0.019562569
000030 30 3b eb bc eb e2 c1 bb 94 7e 0c bd 01 9e 62 3c
       -0.028714746 -0.0059169433 -0.0343004 0.013831616
000040 e5 a7 2a 3c a8 4d 07 3d 0c 29 06 3c 08 ac e8 bc
       0.010416006 0.033033043 0.008188497 -0.028402343
000050 51 b8 3a 3b b3 b3 05 3d 61 68 84 bc 9d 88 1b 3d
       0.0028491209 0.032642078 -0.016163053 0.03797208
000060 e3 20 23 3d 3f 9b 09 bd 3a 1c c1 bc e7 2c b4 3c
       0.039826285 -0.03359532 -0.02357303 0.021994067
000070 4a 45 23 3c 38 31 8c 3b 50 88 bc 3b 6f f9 03 3c
       0.00996525 0.0042783283 0.0057535544 0.008055075
000080 5b e8 aa 3b 2b 8c 1d bc f3 4b d0 bc 53 b1 b8 3c
       0.005215687 -0.009615938 -0.02542684 0.022545492
000090 34 93 26 bc 92 df 6f bc db 14 77 bc 29 6d ae bc
       -0.010166932 -0.014640706 -0.015080656 -0.021292286
0000a0 63 3c c1 3c 3e a6 5d bc 30 34 03 bd db ab 21 3d
       0.023588365 -0.013528405 -0.03203219 0.039470535
0000b0 cd b8 e2 3a bd fc 8f bc 1c a4 bd 3c 66 76 f2 bc
       0.0017297507 -0.01757657 0.023149543 -0.029597472
0000c0 1c 9b 7a bc 03 7c ed bc c4 1b b9 bb bf 64 64 bc
       -0.01529577 -0.028989797 -0.005649062 -0.013940035
0000d0 b2 fa aa 3c 70 66 d3 ba f7 44 f1 bc f7 51 7a bc
       0.020871494 -0.0016128551 -0.02945183 -0.015278331
0000e0 7e 03 cd 3c 05 bb bf bc 01 0a 9a bc 55 86 f6 bc
       0.02502608 -0.023404608 -0.018803598 -0.030093351
0000f0 b5 cd 12 3d e4 5c 31 bc a7 9f 15 bc da 66 b0 bc
       0.03584071 -0.0108253695 -0.009132302 -0.021533418

weight f4 [32, 64]
000000 d8 62 05 bd 80 45 16 3b a0 d6 f6 bc 18 3f b9 bc
       -0.032564968 0.0022929609 -0.030131638 -0.022613093
000010 ba 1e ab bd 60 ba f8 bc b8 c0 b8 3d 30 59 15 bd
       -0.0835547 -0.030362308 0.09021133 -0.03646201
000020 a0 94 f3 3b 78 d3 cb bc 14 d8 4c 3d d0 d6 d0 3d
       0.007433489 -0.02488111 0.050010756 0.10197222
000030 00 46 e7 bb 2c e0 b2 bd d8 ae ea 3c 00 17 11 3a
       -0.007057905 -0.08734164 0.028647825 0.00055347383
000040 c8 88 b7 bd 08 c0 c2 bc d4 e4 53 3d e8 4e c7 3d
       -0.08961636 -0.023773208 0.0517319 0.09731847
000050 98 ae f3 bc e0 e4 eb 3d 62 29 94 bd b0 e6 43 bd
       -0.029746339 0.11518264 -0.07234456 -0.047827423
000060 82 70 d4 bd 0c 3a 32 bd 96 39 b7 bd c2 19 e8 bd
       -0.10373022 -0.04351239 -0.089465305 -0.11333038
000070 90 c3 84 3c 40 32 7e 3b ec 87 20 bd a4 86 8c bd
       0.016206533 0.0038787276 -0.039192125 -0.06861618
000080 d8 42 5e 3d c8 54 6c bd 52 73 ed 3d 9c 38 e9 3d
       0.054262966 -0.05769804 0.11594261 0.113877505
000090 78 49 cc 3d bc 52 91 3d f0 29 dc bd 28 75 a2 3c
       0.099749506 0.070958585 -0.107501864 0.019831255
0000a0 70 60 28 bd b2 9e ab 3d a8 b9 af 3c 20 22 d1 bb
       -0.041107595 0.08379878 0.021450832 -0.006382242
0000b0 94 4a 31 bd f2 e3 bd bd 08 79 1a 3d 2c da 95 bd
       -0.043284014 -0.09271993 0.03771308 -0.073170036
0000c0 0a f1 e9 bd 20 e3 cd 3b 22 24 e8 3d 00 71 8d bd
       -0.11422928 0.006283179 0.11335017 -0.06906319
0000d0 f2 99 a6 3d da 85 f6 bd e8 60 41 bd b8 1d 77 bd
       0.081348315 -0.12037249 -0.047211558 -0.060331076
0000e0 fa 44 bc bd 5a 64 b9 3d 90 9b 5b bd e4 93 b3 bd
       -0.09192844 0.09052344 -0.053615153 -0.08768442
0000f0 e0 2a 0e bd be a9 ce bd c6 e2 a8 bd 80 0f 4e bd
       -0.034708858 -0.100909695 -0.082463786 -0.05030775
000100 28 2c bf bc 00 6d a6 3d 8c ef 1c 3d b0 7b 0c bd
       -0.023336485 0.08126259 0.038314387 -0.034297645
000110 04 c9 08 bd 18 c1 ae 3c e8 67 e1 3d 4e 8e a8 3d
       -0.03339483 0.021332309 0.11006147 0.082302675
000120 60 72 c0 bd 98 0a ad 3d f0 07 bf bc 5e 3a 8d 3d
       -0.09396815 0.08449286 -0.023319215 0.06895898
000130 10 2e dc 3d 40 da 10 3d b0 0a a5 bc fc f5 98 bd
       0.10750973 0.03536439 -0.020146698 -0.07468793
000140 aa cb 9c bd e0 8e dd 3b 3c 9d 43 bd e4 a4 6e 3d
       -0.07656033 0.006761417 -0.047757372 0.05826272
000150 64 c7 da 3d 00 98 e1 3b a0 39 3c bd fc 48 bf bd
       0.10682562 0.006884575 -0.045953393 -0.093400925
000160 5e d4 9a bd ee 78 e9 3d d4 1f b1 3d 12 fe 8a bd
       -0.07560037 0.11400019 0.08648649 -0.06786741
000170 74 60 9b bd e0 7b 87 bb e4 91 7d bd 2e 52 91 bd
       -0.07586756 -0.00413464 -0.06190671 -0.07095753
000180 88 e4 a0 bc ee fd cb 3d 54 f4 b8 bd 0a b1 bd 3d
       -0.019640222 0.099605426 -0.09030977 0.09262283
000190 40 f6 42 3b 96 d8 8b bd e2 92 da bd c0 5f 8f 3d
       0.0029748827 -0.0682842 -0.10672547 0.07000685
0001a0 40 e7 4f 3d b8 52 a3 3d a0 13 f7 bb 9c 4d 7e 3d
       0.050757647 0.07974762 -0.0075401813 0.062085733
0001b0 24 96 66 bd e0 b1 8e bb 24 ec c9 3d 20 f4 dd bc
       -0.05629553 -0.0043547004 0.098594934 -0.027093947
0001c0 0e b4 87 bd 2c 1c e6 bd 58 d6 92 bc 36 02 dd 3d
       -0.066261396 -0.11235842 -0.017924473 0.10791437
0001d0 a0 35 0c 3c ec 0a 9d bd cc f8 44 bd 40 90 c8 3b
       0.008557707 -0.07668099 -0.048088834 0.0061207116
0001e0 f8 39 ed bd d8 a2 e8 bc 42 d0 8b 3d 30 da 8b 3c
       -0.11583322 -0.028397962 0.068268314 0.017071813
0001f0 8c 68 d4 bd b4 79 e8 3d ae e3 b3 bd fe e7 8c bd
       -0.10371503 0.11351338 -0.08783661 -0.068801865
000200 2c 60 23 3d c0 9a 15 bb f0 71 69 3c 38 18 63 3d
       0.03988664 -0.0022827834 0.014248356 0.05544302
000210 3e 05 a1 bd 68 13 2f bd a2 92 b1 bd 60 67 fe bd
       -0.07862328 -0.042743117 -0.08670546 -0.12422061
000220 80 0e 43 bc 6c cd dc bd b0 93 66 bc 16 7e eb bd
       -0.011905313 -0.107813686 -0.014073297 -0.11498658
000230 5c 82 fa bd 68 69 d4 bc 3c 42 6b 3d c0 f5 10 bb
       -0.12231895 -0.025929168 0.057436213 -0.0022119135
000240 72 b7 d0 3d d0 ad 5d bd 74 8f e5 3d b2 98 e6 3d
       0.101912394 -0.05412084 0.11209002 0.11259593
000250 80 e8 5a 3d 88 84 b3 bd b0 42 62 3c de 38 d3 bd
       0.053444386 -0.08765513 0.013809845 -0.10313581
000260 88 13 f0 bd 40 f3 a9 3d f2 a8 fc 3d 02 c5 e9 bd
       -0.11722475 0.082983494 0.12336911 -0.114145294
000270 3c f3 81 bd d0 a4 52 3d c8 8e 24 3d 80 65 cf ba
       -0.063452214 0.05142671 0.04017523 -0.0015823096
000280 b0 e9 6a 3c b2 af 9a 3d 0c 79 56 3d 90 81 2a bd
       0.014337942 0.075530425 0.052361533 -0.041627467
000290 88 4d d6 3c c0 c5 8c bc ac e6 5c 3d ce f3 ad 3d
       0.026160017 -0.017184138 0.053930923 0.08493768
0002a0 9a e5 99 bd a4 59 f5 bd da f7 d5 3d 0c 09 b9 bd
       -0.07514496 -0.11979988 0.104476646 -0.09034929
0002b0 60 04 03 bc c4 0e e2 bd 9c 6a a2 3d bc 9b 31 bd
       -0.007996649 -0.110379726 0.079304904 -0.04336141
0002c0 78 1a 58 bd 4a 3e a7 3d 48 14 f8 3c 18 01 6b bd
       -0.052759618 0.081661776 0.030283108 -0.05737409
0002d0 18 5e 79 bd dc 44 da 3d 80 7c b5 bb c8 aa 3f 3d
       -0.06088075 0.10657665 -0.005538523 0.04679373
0002e0 da d9 fb bd 4a a5 c9 3d 30 94 2d 3d 02 b9 fa 3d
       -0.12297411 0.098459795 0.04237765 0.12242319
0002f0 96 e5 d8 bd d8 07 c9 bc 00 d0 be 3a 78 b7 cd 3c
       -0.10590665 -0.024539873 0.0014557838 0.025111899
000300 46 f2 cf 3d cc 2d ba bc 83 23 38 3d 01 a0 5a 3d
       0.10153632 -0.022726916 0.04495574 0.053375248
000310 f0 8c fc bd b6 dc b8 bd 98 ae 6d 3c 06 20 fe bd
       -0.12331569 -0.09026472 0.014506958 -0.12408452
000320 7a fd a4 3d b7 b6 56 3c 7a a4 33 bc 70 3c fb 3c
       0.08056159 0.013105086 -0.010964507 0.030668467
000330 5b 81 33 3c 83 22 4c bd c8 7d 05 3d ac 37 82 3d
       0.010956134 -0.0498376 0.032590657 0.06358275
000340 89 32 cf 3d 05 40 8e bc 59 e2 b8 bb 20 e0 9c bb
       0.10117061 -0.017364511 -0.005642217 -0.00478746
000350 79 9f b1 3d b3 c2 82 3d a0 4e ee bb 76 05 0e bd
       0.08672995 0.06384792 -0.0072725564 -0.034673177
000360 7d 16 79 3d 28 c3 d8 3c 57 8a 1c 3d 55 3c 68 3c
       0.060812462 0.026460245 0.03821787 0.0141745405
000370 e4 23 24 bc 04 a1 c6 3d 1b e6 13 bd c2 ff a7 3d
       -0.010018323 0.0969868 -0.036108118 0.08203079
000380 b8 e3 a9 3d 70 7c cf 3c d0 44 be bc a5 8f e2 bd
       0.08295387 0.025327891 -0.023226172 -0.11062554
000390 08 5d 98 bd ae c2 48 bc 36 91 d1 bd 29 1f c0 bd
       -0.07439619 -0.0122534465 -0.10232775 -0.09380943
0003a0 7c 62 de 3c bb 21 4a 3d 68 35 85 bd c1 3d 02 be
       0.02714657 0.049348574 -0.06504327 -0.1271887
0003b0 bf ac 3a 3d 4f 8c d7 3d a1 4f c6 bd 00 88 5a 3d
       0.0455749 0.105248086 -0.09683157 0.053352356
0003c0 7e 9d 13 bd 60 4c 6b 3d 67 01 d2 3c b7 d4 71 bc
       -0.036038868 0.057445884 0.025635434 -0.014760188
0003d0 36 0d d8 bd 20 0f e0 3d bf 7e 15 3d e6 80 ae 3d
       -0.10549395 0.10940385 0.036497828 0.08520679
0003e0 5f 1e 99 bd 86 59 df bd b6 b9 db ba a0 3a d2 bb
       -0.07476496 -0.10905747 -0.001676372 -0.00641568
0003f0 90 0f 0f 3d d0 f3 c0 bc b8 81 ee bc 48 b4 35 bd
       0.03492695 -0.023553759 -0.02911459 -0.044361383

bias f4 [32]
000000 e0 47 12 3c 9a b3 dd bd 82 68 87 bd ce 60 c2 3d
       0.008928269 -0.10825272 -0.0661173 0.0949112
000010 73 08 52 3d 78 a0 e0 3d b2 c2 d2 3d 28 10 2b 3d
       0.05127759 0.10968107 0.102910414 0.041763455
000020 0c 6c 81 bd d7 53 dd 3d 84 21 07 bd 6c e6 c2 bd
       -0.063194364 0.10807007 -0.032990947 -0.09516606
000030 40 a6 34 bd 33 17 53 3d 9c 4b 71 bd ac b4 03 3d
       -0.04410386 0.051535796 -0.058909997 0.032154724
000040 1e 8e da 3c 1d 48 bc 3d 54 73 ca 3d 40 6e 82 bd
       0.026679095 0.09193442 0.09885278 -0.06368685
000050 28 ba f1 bd c2 01 a3 bd 86 c0 c7 bd 88 ca 55 bd
       -0.118030846 -0.0795932 -0.09753518 -0.052195102
000060 d3 5e f2 3d ca 9d 03 bd 20 d4 8b 3b 5c 72 99 bb
       0.118344925 -0.0321329 0.0042672306 -0.004682822
000070 87 f5 d8 3d 6a aa dd 3d bc 08 3b bd 86 e5 9a 3d
       0.105937056 0.108235195 -0.045662627 0.07563309

weight f4 [16, 32]
000000 4e 12 fa 3d 79 84 19 3e 6f e2 1c be 2e bd a0 3d
       0.122105226 0.1499194 -0.15320753 0.07848583
000010 43 55 d0 bd 35 f0 19 3e 6c fe 8d 3d b6 d2 ff 3d
       -0.101725124 0.15033038 0.06933293 0.12491362
000020 dc c7 3a 3d 93 ec 09 be 58 66 f4 3c fe 09 e9 3d
       0.045600757 -0.13469152 0.029833958 0.11378859
000030 2a 5b 61 bd 0b db 20 be bc 8a ad bd 7d a2 31 be
       -0.05501858 -0.15708558 -0.08473727 -0.1734714
000040 88 11 e8 3c e0 96 92 bd 7a 40 b6 3d 56 ad 8c bd
       0.028328672 -0.07157683 0.08899017 -0.06868999
000050 f0 fd bb bc 5e be c8 bd c0 4a c4 bb b2 84 bc 3d
       -0.022948235 -0.09801935 -0.005990356 0.09204997
000060 02 4d dd bd 00 d3 86 bc 00 be 67 3c c7 5f 25 3e
       -0.10805704 -0.016458035 0.014144421 0.16149817
000070 b3 34 2b be fd 60 b8 bd f0 53 03 bc 36 fb 0e be
       -0.16719322 -0.09002874 -0.008015618 -0.13963017
000080 59 44 11 3e fe fe 88 3d b9 d6 cb bd cc 16 f8 bd
       0.14186229 0.06689261 -0.099530645 -0.12113723
000090 10 21 24 3c d3 6e 19 3e 45 d9 10 be ed 0c 08 be
       0.010017648 0.14983682 -0.14145382 -0.13286181
0000a0 70 bd ce bd 1a d6 ca 3d b1 57 ad bd 47 b4 ee bd
       -0.10094726 0.09904118 -0.084639914 -0.11655479
0000b0 28 c4 0c bd 0a 17 c8 3d 00 46 75 bb 88 79 f5 bd
       -0.034366757 0.09770019 -0.0037425756 -0.11986071
0000c0 c7 73 87 bd 38 de 26 be 87 16 0d be ce bd db 3d
       -0.0661388 -0.16295707 -0.13778125 0.10729562
0000d0 d8 50 1a bd f5 6b 28 be e0 56 cc bb 6a 84 bf 3d
       -0.037674755 -0.16447432 -0.0062359422 0.09351428
0000e0 ca fd 66 bd 88 05 ff 3c 80 52 a0 ba be e0 d5 3d
       -0.056394376 0.031130567 -0.0012231618 0.10443257
0000f0 a4 f7 db bd 90 3c 9a bc 5e 2f ff 3d 8a 0f af 3d
       -0.10740593 -0.018827707 0.124602064 0.08547886
000100 29 de 19 be a0 8a 80 bc e3 fe 16 be cc d0 2b be
       -0.15026154 -0.015691102 -0.14745669 -0.16778868
000110 b3 fd 07 be e7 7c dd bd 5a de f9 3d 76 26 c3 3d
       -0.13280372 -0.10814839 0.12200613 0.0952882
000120 80 40 49 3b 10 a1 a7 bd c0 11 5c bc a5 f8 26 be
       0.003070861 -0.08185017 -0.013431966 -0.16305788
000130 04 e7 f2 bd 2e 57 e0 3d b0 68 2b bc 14 fb 09 be
       -0.11860469 0.10954128 -0.010461971 -0.13474685
000140 96 18 c4 3d ff 8e 2f 3e 12 7a 5a bd b0 a8 9e 3c
       0.09575002 0.17144392 -0.05333907 0.019367546
000150 18 74 cc 3c d6 a5 df 3d c0 b0 19 be 66 06 da 3d
       0.024957702 0.109203026 -0.15008831 0.10645752
000160 4c 69 93 3d 56 58 06 be 3e 42 24 be 77 b8 25 3e
       0.07197818 -0.13119635 -0.16040894 0.16183649
000170 4a 3c fe 3d 20 11 fe 3b c3 10 32 3e 7a 22 b0 3d
       0.12413843 0.0077535063 0.17389207 0.08600326
000180 b4 e2 4b bd 34 57 08 bd 76 0b fd 3d 5e 47 e1 3d
       -0.049776748 -0.03328629 0.123557016 0.1099994
000190 86 88 e3 3d 52 9f 86 3d 68 a3 67 bd 53 01 1a be
       0.11110024 0.06573357 -0.05655232 -0.15039568
0001a0 70 f3 a9 bc b3 ce 20 3e d5 1f 2c be 0b 03 b8 bd
       -0.020745963 0.1570385 -0.16809018 -0.089849554
0001b0 94 f2 87 3d 00 f4 67 b9 1a d5 ee 3d df ee 28 3e
       0.06638065 -0.00022120774 0.1166174 0.16497372
0001c0 97 6a 23 be d7 52 04 be 0e e8 e5 3d 0a a0 b0 3d
       -0.1595863 -0.12922226 0.112259015 0.08624275
0001d0 fc 2f 44 3d 24 42 27 3d 6a 70 94 3d 6c 05 5c 3d
       0.047897324 0.04083456 0.07248004 0.05371611
0001e0 e0 94 4c bd b8 6b 02 3d 80 8b fb 3c 60 80 c5 bb
       -0.049946666 0.03184101 0.030706167 -0.0060272664
0001f0 1a bd f2 3d 89 b5 06 3e 64 9d 6e 3d c5 87 1e be
       0.118524745 0.13155188 0.05825557 -0.1548148
000200 a6 cb d7 3d 64 1b 04 be 56 22 31 be e3 dd 9c bd
       0.1053689 -0.12901074 -0.17298254 -0.07659509
000210 18 b1 2f be 0f cc 2d 3e 58 69 f5 bd 42 f6 bb 3d
       -0.171574 0.16972373 -0.11982983 0.09177829
000220 0c 61 50 bd 00 af 7f 3a e7 17 2f 3e 96 38 1f be
       -0.0508738 0.0009753555 0.17098962 -0.1554893
000230 f6 7e 1e be 30 1b 09 3d 68 d5 eb bd 0c db 87 3d
       -0.15478119 0.033473194 -0.115153134 0.06633577
000240 d2 1e d3 bd c8 57 ab bc 2c 3f 2a bd 64 b5 6d bd
       -0.10308613 -0.02091588 -0.04156415 -0.058034316
000250 c4 6b 8e 3d a8 92 f4 bd 34 3c 32 bd 20 7a dc 3b
       0.069541484 -0.11942035 -0.043514445 0.0067284256
000260 dc 07 f8 bd a1 ef 05 be cc dc 63 3d 93 e7 a7 bd
       -0.12110874 -0.13079692 0.05563049 -0.08198466
000270 a1 59 31 3e 10 23 0c bc 38 f9 61 bd fe d4 c4 bd
       0.17319347 -0.008553281 -0.055169314 -0.096109375
000280 8c d5 3d bd db 80 a3 bd 36 16 cd 3d e6 66 c5 bd
       -0.046346232 -0.079835616 0.10014002 -0.09638767
000290 8e 4e a1 3d 4a 41 95 3d 4a 5c e5 3d cb 1d 20 3e
       0.07876311 0.072878435 0.11199243 0.15636365
0002a0 e0 a7 30 3d 8a 73 e0 3d fa a5 b9 3d 77 2f 31 be
       0.043128848 0.10959537 0.09064861 -0.17303263
0002b0 94 c5 4d 3d d8 e8 2a bd 21 f6 1a 3e 78 bf 3f bd
       0.050237253 -0.041725963 0.15132953 -0.04681346
0002c0 85 3e 24 3e 28 8b 31 be d4 96 f1 bd 20 6c d8 bd
       0.16039474 -0.1733824 -0.11796346 -0.10567498
0002d0 c4 0a 0a 3d 7e aa f4 bd 0e 6d 94 bd 89 ed 2e 3e
       0.033701673 -0.11946581 -0.07247363 0.170828
0002e0 64 7f 67 3d 24 14 65 3d 60 3a 8a 3d 00 d0 9a bc
       0.056517974 0.05592741 0.067494154 -0.01889801
0002f0 78 95 1e be 53 30 0d 3e b3 f0 2a be bc b2 e9 bd
       -0.15486705 0.13787965 -0.16693382 -0.11411044
000300 54 94 60 3d a5 8b a6 bd 40 2a ea 3c 08 18 c5 3c
       0.054828957 -0.08132104 0.0285846 0.02405931
000310 5e c0 04 be 36 f5 19 be 13 dd b4 bd e2 64 b5 bd
       -0.12964007 -0.15034947 -0.08831229 -0.088571325
000320 20 8c f1 bb 66 30 b2 3d 3c a8 60 3d db 02 0a be
       -0.0073714405 0.087006375 0.05484794 -0.13477652
000330 75 8f 16 be 4b 86 0f 3e 5e 94 99 3d d4 1a 16 3d
       -0.14703162 0.14016072 0.07499002 0.03664668
000340 5f 82 2d be 48 8f 84 bd df 76 08 3e f5 9e 03 be
       -0.16944264 -0.06472641 0.13326596 -0.12853606
000350 f8 d0 f6 bc 62 d9 e5 bd 83 71 29 3e 72 2a 98 bd
       -0.030128941 -0.11223103 0.16547208 -0.07429971
000360 ac 94 88 3d e0 5c 55 bc 80 0d 32 bd 02 ee ef 3d
       0.06668982 -0.013022631 -0.043469906 0.11715318
000370 35 e8 87 bd 6a 97 a3 3d d8 c9 c5 3c d4 d9 39 bd
       -0.06636087 0.07987864 0.024144098 -0.045373753
000380 c0 82 c6 bb 00 82 d2 39 e4 cc 1f be 98 e8 a5 bd
       -0.006058067 0.0004015118 -0.15605503 -0.08101004
000390 eb 5e 1c bd f1 4c ea 3d 08 83 18 3e 7b 22 43 bd
       -0.03817646 0.11440457 0.14893734 -0.047640305
0003a0 5e c6 9d 3d 25 98 b2 3d 0a 15 04 be 73 44 9f bd
       0.07703851 0.087204255 -0.12898651 -0.077767275
0003b0 30 85 72 bc 0a 09 25 3e 54 94 04 bd be 6a e9 bc
       -0.014802262 0.1611673 -0.03236802 -0.028493281
0003c0 f9 35 c7 bd 4e 04 ac bd 42 b0 62 bd 5b b5 1b 3e
       -0.09727091 -0.083992586 -0.055343874 0.152059
0003d0 6d 45 02 3e 8b ec 20 be 68 fd af bd 4a e2 96 3d
       0.12721796 -0.15715234 -0.08593255 0.0736738
0003e0 37 31 f3 bd 43 4b f6 bd 72 e4 a3 bd 32 97 9d bd
       -0.11874621 -0.12026074 -0.08002557 -0.07694854
0003f0 99 3d 19 3e 50 90 46 3d 88 3b 87 3d 5e d5 62 3b
       0.14964904 0.04847747 0.066031516 0.003461204
