trained_model/model0.pth (torch, 384666 bytes, 46 tensors)

weight f4 [4, 1, 3, 3, 3]
-0.11778223 0.093269765 0.042230118 -0.16983624 0.13397233 0.11415836 0.015049263 -0.10539202
0.14886346 -0.093538545 -0.19581684 -0.11099719 0.0961805 0.15845416 -0.058932215 -0.12813613
-0.1935457 -0.12708834 -0.053263273 -0.19198035 -0.03132574 -0.017643139 0.16753808 -0.1427661
-0.09010034 -0.121202424 0.15387526 -0.033991996 0.18503192 -0.18193316 -0.057442114 0.15865993
0.07926414 -0.03817952 -0.052049328 0.004238626 -0.03685485 0.059440944 -0.14161313 -0.15920866
0.13516909 -0.016723527 0.017426036 -0.0561319 -0.19027314 -0.09864553 -0.14522633 -0.005701194
-0.13225636 -0.07687085 0.13066605 0.049691793 0.0122075835 0.0772641 0.12876187 -0.026843896
-0.13704996 -0.110247225 0.019778324 -0.07434538 -0.161688 0.12543367 0.11373383 -0.1503107
-0.10408623 0.12624367 -0.088735834 -0.109308586 -0.032706995 -0.11933189 -0.07062687 0.111240804
0.16108337 -0.03885986 0.13850431 -0.023590814 -0.06268495 -0.12651977 -0.08366631 -0.08639379
0.08827483 0.16272509 0.015172756 0.12076106 0.087747924 -0.059702348 -0.11784348 0.17854309
-0.042357877 -0.03578298 -0.10281004 0.15287076 -0.06376948 0.033712175 -0.10566995 -0.12588094
0.14420375 0.020332195 0.14949355 -0.15343675 -0.15077944 -0.16169915 -0.10170529 -0.07056113
0.033594985 0.055509176 -0.03019294 0.101630375
00000000: cf37 f1bd 3804 bf3d 7df9 2c3d 8de9 2dbe
00000010: 0b30 093e dccb e93d 2f91 763c c5d7 d7bd
00000020: aa6f 183e 2391 bfbd 3684 48be 7f52 e3bd
00000030: 48fa c43d cf41 223e e862 71bd 1e36 03be
00000040: d830 46be 7223 02be 972a 5abd 7f96 44be
00000050: 6b4f 00bd 5888 90bc 1a8f 2b3e 4731 12be
00000060: 8786 b8bd fa38 f8bd 7a91 1d3e 313b 0bbd
00000070: 0279 3d3e b04c 3abe 6c48 6bbd c077 223e
00000080: 3d55 a23d 2162 1cbd ad31 55bd 2ce4 8a3b
00000090: 1cf5 16bd 5978 733d 0803 11be 9807 23be
000000a0: c469 0a3e c7ff 88bc 0cc1 8e3c 90ea 65bd
000000b0: f6d6 42be ab06 cabd 36b6 14be 15d1 babb
000000c0: 366e 07be 776e 9dbd 52cd 053e 9f89 4b3d
000000d0: 5102 483c a43c 9e3d 27da 033e bbe7 dbbc
000000e0: d356 0cbe 4cc9 e1bd 2706 a23c 6442 98bd
000000f0: 8a91 25be af71 003e 48ed e83d 0ceb 19be
00000100: 292b d5bd 0546 013e 22bb b5bd 2edd dfbd
00000110: c5f7 05bd 4764 f4bd d2a4 90bd 38d2 e33d
00000120: 0af3 243e 842b 1fbd 13d4 0d3e 8641 c1bc
00000130: f860 80bd 668e 01be 3e59 abbd 3aef b0bd
00000140: 6fc9 b43d 68a1 263e 2797 783c 9351 f73d
00000150: 2fb5 b33d 738a 74bd ec57 f1bd 00d4 363e
00000160: 747f 2dbd 2d91 12bd 128e d2bd 278a 1c3e
00000170: 9399 82bd c715 0a3d 7d69 d8bd efe6 00be
00000180: 26aa 133e b48f a63c d614 193e 861e 1dbe
00000190: ed65 1abe 7694 25be dd4a d0bd 5b82 90bd
000001a0: e59a 093d 975d 633d 2f57 f7bc 9623 d03d

bias f4 [4]
-0.061176784 0.047263555 0.13692921 -0.040243868
00000000: 8294 7abd 6e97 413d 2c37 0c3e c1d6 24bd

weight f4 [8, 4, 3, 3, 3]
-0.04105723 0.060566496 0.08714794 0.09375197 0.032397926 -0.08791695 -0.056444306 -0.031055305
0.074802764 -0.083305284 -0.010238135 -0.0587078 0.018554624 -0.078170106 -0.033238605 0.012960919
-0.04155862 -0.067768164 0.002840418 0.009590139 -0.0036986212 0.012736629 0.025700884 -0.08688298
0.09751184 0.090741806 -0.075671054 -0.019087985 -0.06259584 0.009518213 0.021176836 -0.06136734
0.060229488 -0.050500195 0.043651376 0.0434747 0.09057923 0.016896915 -0.041464746 0.1028167
-0.07873633 0.06498914 0.0036123344 -0.05379699 -0.053123247 -0.02708316 0.09982049 0.081815355
-0.0397779 0.07622847 0.003723596 -0.03455147 -0.08942048 0.037421066 -0.012532544 -0.04661896
-0.043248605 0.037003372 0.07950336 0.032084808 -0.023984427 -0.025799427 -0.039231572 0.037592635
-0.01714457 -0.046284225 0.017700922 0.058474697 -0.047834855 -0.08847878 0.07729807 0.07660644
-0.018197877 0.0027671063 0.031798027 0.057968292 0.012350605 0.068396606 0.016926037 -0.06928354
-0.08668807 -0.05161776 -0.092961945 -0.0881925 -0.05572923 0.05264752 -0.07834154 0.046242844
-0.0071701617 0.07869859 0.08170138 0.080725424 0.026591543 -0.08859289 -0.000256526 0.05347025
0.050579023 0.08953111 -0.0068357023 0.010417384 0.0017680062 -0.0089602135 -0.047247868 -0.08021517
0.0053089205 -0.055482544 0.006838246 0.05674497 -0.07231165 -0.005994827 -0.047158964 0.0445281
0.048873797 0.06663013 -0.059873752 -0.05306734 -0.06467819 -0.007617054 0.09855007 0.09085117
0.039132595 -0.053028002 -0.026435826 0.054977365 -0.059023574 0.005274221 0.011296399 0.07282715
-0.014978552 -0.09202393 -0.041358892 -0.031169886 0.053264562 0.022244884 -0.0014691704 0.069342665
-0.05433257 0.074088894 0.04476738 -0.056138534 0.02111638 0.092912056 -0.028405067 0.021642998
-0.025260856 0.0852732 -0.05793227 -0.076352 -0.0011717763 0.0071795876 -0.061312735 0.060889184
-0.02177317 0.06553038 -0.07511809 -0.001235149 -0.08818851 0.068626426 -0.011128671 -0.07885837
0.050196182 -0.09003152 0.031935997 0.03089613 0.08027853 0.0749226 -0.045059577 -0.016516963
0.021157479 0.051021576 -0.019217506 -0.081269465 0.02946752 -0.04706387 0.084883556 -0.03656602
-0.06423669 0.023816125 -0.080820024 0.0678325 0.034104936 -0.07391715 -0.00041272974 0.04949314
0.083442375 0.04456465 -0.048359163 0.057411294 0.09453423 -0.022038879 -0.058335144 0.09828579
0.04489626 -0.057691306 -0.030355223 -0.05358355 0.06860634 0.060509752 -0.06875012 -0.06823205
0.06489355 -0.06614712 0.030532038 0.09154306 0.013451237 0.02516553 0.034928873 0.08427691
-0.029644538 -0.052906435 -0.012617132 -0.07294666 0.08451749 -0.06212303 0.019755678 -0.08487111
-0.0043720566 -0.06469789 0.006686723 -0.044079404 -0.099242434 -0.087243654 0.06882537 0.07954924
-0.0418933 -0.07485233 -0.01708223 0.098786734 0.047808114 0.040284462 -0.009424482 -0.05850533
-0.100179836 0.08493545 0.040162038 0.08139778 0.029189406 -0.069381595 -0.06994502 0.033901043
0.027197327 -0.03835045 0.0010194378 0.028541602 -0.07597758 0.045773603 0.045508947 0.056258786
0.09089746 0.049244605 -0.04256977 0.072723635 -0.08879514 0.015577816 0.011577937 -0.046556205
00000000: a02b 28bd 9314 783d 9f7a b23d 0801 c03d
00000010: b0b3 043d cd0d b4bd 2532 67bd b267 febc
00000020: 3132 993d f69b aabd dabd 27bc 9777 70bd
00000030: deff 973c a617 a0bd 3425 08bd 095a 543c
00000040: 5f39 2abd 09ca 8abd 4e26 3a3b f51f 1d3c
00000050: 9164 72bb 4bad 503c a98a d23c b4ef b1bd
00000060: 4ab4 c73d d7d6 b93d 6df9 9abd 685e 9cbc
00000070: 3f32 80bd 47f2 1b3c 0b7b ad3c 525c 7bbd
00000080: 32b3 763d 4bd9 4ebd c9cb 323d 8712 323d
00000090: 9a81 b93d 666b 8a3c f0d6 29bd 9091 d23d
000000a0: 8340 a1bd 0719 853d eabc 6c3b 3c5a 5cbd
000000b0: c397 59bd 81dd ddbc af6e cc3d cf8e a73d
000000c0: 27ee 22bd ac1d 9c3d 9307 743b d885 0dbd
000000d0: 1622 b7bd d546 193d 4d55 4dbc 86f3 3ebd
000000e0: 7325 31bd d990 173d a8d2 a23d 5c6b 033d
000000f0: fd7a c4bc 5259 d3bc 49b1 20bd bcfa 193d
00000100: c572 8cbc 8794 3dbd 8601 913c 2a83 6f3d
00000110: 7bee 43bd 5d34 b5bd 734e 9e3d d6e3 9c3d
00000120: b713 95bc 5758 353b a63e 023d 2970 6d3d
00000130: 315a 4a3c 8513 8c3d 79a8 8a3c 87e4 8dbd
00000140: 8489 b1bd 256d 53bd d562 bebd 459e b4bd
00000150: 5544 64bd eda4 573d 8871 a0bd 2369 3d3d
00000160: adf3 eabb ba2c a13d 0e53 a73d 5f53 a53d
00000170: 82d6 d93c 3070 b5bd 567e 86b9 9f03 5b3d
00000180: f32b 4f3d 165c b73d 07fe dfbb adad 2a3c
00000190: 72bc e73a dccd 12bc fb86 41bd da47 a4bd
000001a0: 74f6 ad3b aa41 63bd 5d13 e03b 6a6d 683d
000001b0: 2118 94bd 4170 c4bb c229 41bd 1963 363d
000001c0: e42f 483d 6175 883d 2e3e 75bd 245d 59bd
000001d0: 0076 84bd 7b98 f9bb 9ed4 c93d 2e10 ba3d
000001e0: 8049 203d e433 59bd f28f d8bc f22f 613d
000001f0: b4c2 71bd 5fd3 ac3b 8814 393c 6726 953d
00000200: 9a68 75bc 0b77 bcbd f167 29bd fd57 ffbc
00000210: f12b 5a3d e73a b63c 2e91 c0ba 8703 8e3d
00000220: d48b 5ebd ebbb 973d 005e 373d 85f1 65bd
00000230: 42fc ac3c ad48 be3d beb1 e8bc a84c b13c
00000240: dbef cebc b7a3 ae3d 634a 6dbd 705e 9cbd
00000250: 4a96 99ba bf42 eb3b 1023 7bbd f066 793d
00000260: a65d b2bc cb34 863d 83d7 99bd b9e4 a1ba
00000270: 2d9c b4bd 038c 8c3d 0755 36bc 7f80 a1bd
00000280: 839a 4d3d 7262 b8bd 52cf 023d e119 fd3c
00000290: 1269 a43d 0571 993d 6490 38bd 954e 87bc
000002a0: 7352 ad3c 00fc 503d 086e 9dbc 9b70 a6bd
000002b0: de65 f13c 0bc6 40bd 6ed7 ad3d 40c6 15bd
000002c0: 878e 83bd 091a c33c f884 a5bd c4eb 8a3d
000002d0: 9eb1 0b3d e061 97bd a663 d8b9 52b9 4a3d
000002e0: d6e3 aa3d 6c89 363d 4214 46bd 1b28 6b3d
000002f0: 2a9b c13d e18a b4bc d5f0 6ebd 0f4a c93d
00000300: 24e5 373d b84d 6cbd 84ab f8bc 6d7a 5bbd
00000310: 7b81 8c3d 13d9 773d ddcc 8cbd 3fbd 8bbd
00000320: e9e6 843d 2478 87bd 531e fa3c ee7a bb3d
00000330: 9462 5c3c f127 ce3c 9411 0f3d 5f99 ac3d
00000340: 1ad9 f2bc 6bb4 58bd 16b8 4ebc 0f65 95bd
00000350: 8117 ad3d b874 7ebd a9d6 a13c e8d0 adbd
00000360: 7843 8fbb 5480 84bd 4c1c db3b 9b8c 34bd
00000370: 9e3f cbbd cdac b2bd 51f4 8c3d b6ea a23d
00000380: 4f98 2bbd 2e4c 99bd 08f0 8bbc b350 ca3d
00000390: 71d2 433d 5201 253d 2469 1abc 49a3 6fbd
000003a0: 162b cdbd a3f2 ad3d f380 243d e1b3 a63d
000003b0: 9f1e ef3c f017 8ebd 563f 8fbd d2db 0a3d
000003c0: eecc de3c 5d15 1dbd a89e 853a 14d0 e93c
000003d0: 229a 9bbd 1a7d 3b3d 9767 3a3d 9d6f 663d
000003e0: 7328 ba3d b6b4 493d a45d 2ebd 21f0 943d
000003f0: 3ada b5bd 193a 7f3c 63b1 3d3c b8b1 3ebd

bias f4 [8]
-0.08919552 0.028281737 -0.0063469205 -0.020891417 -0.010538378 -0.08443175 0.06372377 0.026462395
00000000: 24ac b6bd 1aaf e73c d4f9 cfbb 7a24 abbc
00000010: 29a9 2cbc 8eea acbd 9c81 823d aac7 d83c

weight f4 [16, 8, 3, 3, 3]
-0.037562788 0.035867356 -0.045451887 0.06597011 0.0330645 -0.046577238 -0.06459661 -0.06486579
0.049682178 0.01846619 -0.021871328 0.018282346 0.048084013 -0.052258935 0.03201501 0.046214655
0.06636508 0.04928176 -0.0028171763 -0.02719289 0.012636788 -0.009196155 -0.010653246 -0.06653493
0.033883467 0.06701788 -0.06301351 -0.0016129157 -0.012904306 0.045002226 -0.033825386 0.05043628
0.021669528 0.03029994 -0.017322185 -0.044927362 -0.003658989 -0.04019691 -0.038781654 -0.029141525
0.06255169 -0.020686496 0.016172716 0.009793051 -0.06967572 -0.02722615 -0.05956825 0.025019199
-0.06671296 -0.032498844 -0.032116592 0.03760785 -0.06649524 -0.0028438554 0.054713555 -0.016208094
-0.018281303 0.05719724 -0.0058419476 -0.01391122 0.019118197 -0.00039020096 -0.029602837 -0.04913759
0.018253839 0.045289546 -0.023282494 -0.0336324 -0.0393542 -0.028719014 0.04865896 -0.06309878
0.008683786 0.038943484 0.0009592399 0.06341511 -0.009661487 -0.036141835 -0.036072664 -0.060720176
-0.026686724 -0.064163715 -0.0143725835 -0.06965275 0.022938231 0.023877524 -0.021669324 0.057652876
-0.00418669 0.05387204 -0.008235714 0.037676387 -0.0547161 -0.04058291 -0.057150993 -0.0008923737
0.044516116 0.00045515597 -0.068346106 0.04127668 0.051329248 -0.05667403 0.007235892 -0.013494797
-0.027494721 0.039278455 0.015867405 0.052272327 0.012307483 -0.042723488 -0.01253489 -0.020722173
-0.05949797 -0.05289967 0.0187063 0.027243584 0.0081269825 0.06092555 -0.066705234 -0.037338674
0.019949503 -0.004682688 0.0232983 0.061627418 -0.059318297 -0.022083579 -0.03529105 -0.030603446
0.01958701 -0.024268933 -0.05518274 -0.015891606 -0.027555846 -0.03346952 -0.056710497 0.060515217
-0.0035015438 -0.057281636 -0.022597635 -0.0013102953 0.0099513605 -0.046216425 0.0037767068 -0.016889129
-0.012032719 -0.06920248 0.0009060811 0.05918125 0.0027273297 0.021618277 -0.070125 0.04931488
-0.04431322 0.0675582 -0.004394099 -0.02441166 0.06251946 0.029426724 -0.035079543 -0.0078114085
0.053352386 -0.043976724 0.06338253 -0.061771873 0.037135497 -0.01308028 -0.03548041 0.0294692
0.049470857 -0.02183757 -0.05651157 0.01991904 -0.044751145 -0.028225278 -0.058473986 -0.025774643
-0.0056348275 -0.032856256 0.031295266 0.062529504 0.013980889 -0.0129795475 -0.04110179 -0.05357755
-0.0015296482 -0.044354595 -0.041136794 -0.06774834 0.025442615 0.027290333 0.028255133 0.048367895
0.0121980375 0.04843654 0.018444646 -0.014124994 0.05580623 0.046205923 0.018843453 0.057564475
-0.0020019636 -0.03638955 -0.024124557 0.051795397 -0.06836538 0.047426563 -0.054897297 0.021514729
-0.020728346 -0.03605869 -0.013666182 -0.057393774 -0.031553052 -0.04090718 0.045353122 0.030501336
-0.012406719 0.061223734 -0.036153216 0.027407907 -0.025842886 -0.034409955 0.0559736 0.05952428
0.055264857 0.009234591 -0.017528465 -0.01462525 0.07511574 0.055225797 -0.023631059 0.029007664
0.06444115 -0.013440043 -0.012985725 0.06094644 -0.01624256 -0.052873224 0.05885474 0.009262312
-0.022229934 -0.029092817 -0.06349697 -0.061026365 0.06242926 -0.0018424703 0.06720353 -0.050928127
-0.04883606 -0.03300746 0.061708145 -0.053135984 -0.055630263 0.0640336 -0.048243366 0.0017851598
00000000: 70db 19bd a6e9 123d c22b 3abd 561b 873d
00000010: a46e 073d c6c7 3ebd 3a4b 84bd 5bd8 84bd
00000020: 8a7f 4b3d 6846 973c 802b b3bc dcc4 953c
00000030: bef3 443d 770d 56bd 2c22 033d 944b 3d3d
00000040: 6aea 873d acdb 493d 60a0 38bb a0c3 debc
00000050: 880a 4f3c 78ab 16bc f48a 2ebc 7743 88bd
00000060: 64c9 0a3d ac40 893d 3a0d 81bd 7868 d3ba
00000070: 956c 53bc 4154 383d 7d8c 0abd 4696 4e3d
00000080: 4b84 b13c 9437 f83c 41e7 8dbc c105 38bd
00000090: a6cb 6fbb 84a5 24bd 83d9 1ebd 35ba eebc
000000a0: 1a1b 803d ba76 a9bc a57c 843c 0873 203c
000000b0: 25b2 8ebd 6009 dfbc d6fd 73bd 10f5 cc3c
000000c0: cea0 88bd 821d 05bd b08c 03bd b00a 1a3d
000000d0: a82e 88bd fa5f 3abb 521b 603d d6c6 84bc
000000e0: acc2 95bc a747 6a3d cf6d bfbb e3eb 63bc
000000f0: c49d 9c3c e393 ccb9 a681 f2bc 7f44 49bd
00000100: 1389 953c 8881 393d eeba bebc 21c2 09bd
00000110: df31 21bd 2344 ebbc 9e4e 473d ef39 81bd
00000120: 7046 0e3c 3483 1f3d 8075 7b3a c8df 813d
00000130: 374b 1ebc 7609 14bd eec0 13bd b8b5 78bd
00000140: 1e9e dabc 4468 83bd fc7a 6bbc 1aa6 8ebd
00000150: f5e8 bb3c cc9a c33c de83 b1bc 6c25 6c3d
00000160: 8030 89bb eea8 5c3d 17ef 06bc 8e52 1a3d
00000170: fd1d 60bd 443a 26bd 2917 6abd 2fee 69ba
00000180: 8856 363d 00a2 ee39 0bf9 8bbd bc11 293d
00000190: 9e3e 523d 0723 68bd 101b ed3b 4819 5dbc
000001a0: 9c3c e1bc 72e2 203d 5cfc 813c 821b 563d
000001b0: 53a5 493c d3fe 2ebd 245f 4dbc 8cc1 a9bc
000001c0: 25b4 73bd 53ad 58bd f43d 993c f02d df3c
000001d0: 0927 053c 128d 793d c19c 88bd 70f0 18bd
000001e0: 246d a33c 3c71 99bb 14dc be3c 086d 7c3d
000001f0: bef7 72bd 9fe8 b4bc 598d 10bd 14b4 fabc
00000200: f074 a03c a4cf c6bc 4c07 62bd 1d2f 82bc
00000210: ccbc e1bc 5617 09bd 4449 68bd cede 773d
00000220: 287a 65bb 26a0 6abd ad1e b9bc 37be abba
00000230: 080b 233c 6f4d 3dbd a082 773b 125b 8abc
00000240: e224 45bc 08ba 8dbd 1386 6d3a 0a68 723d
00000250: 00bd 323b d018 b13c b29d 8fbd 66fe 493d
00000260: c781 35bd f45b 8a3d 60fc 8fbb f6fa c7bc
00000270: 340a 803d 5010 f13c 91af 0fbd d8f6 ffbb
00000280: 0888 5a3d f020 34bd b3ce 813d 8104 7dbd
00000290: 641b 183d ac4e 56bc e853 11bd 6469 f13c
000002a0: f4a1 4a3d b4e4 b2bc ad78 67bd 412d a33c
000002b0: fa4c 37bd b338 e7bc 6b82 6fbd 5825 d3bc
000002c0: 5ca4 b8bb 4894 06bd 772f 003d 780f 803d
000002d0: 1910 653c 2ba8 54bc 5a5a 28bd 2274 5bbd
000002e0: 7a7e c8ba 2aad 35bd 0e7f 28bd a4bf 8abd
000002f0: 086d d03c fa8f df3c 4f77 e73c 6a1d 463d
00000300: 47da 473c 6565 463d 3a19 973c 856c 67bc
00000310: 1395 643d 6c42 3d3d 965d 9a3c bac8 6b3d
00000320: 6033 03bb 350d 15bd dda0 c5bc 6927 543d
00000330: 2603 8cbd 5b42 423d fddb 60bd a83f b03c
00000340: 7ece a9bc 47b2 13bd 1fe8 5fbc bc15 6bbd
00000350: c63d 01bd 4a8e 27bd 32c4 393d f0dd f93c
00000360: 8d45 4bbc bdc5 7a3d 6515 14bd 8c86 e03c
00000370: 76b4 d3bc 74f1 0cbd 9344 653d bbcf 733d
00000380: 675d 623d af4c 173c db97 8fbc bf9e 6fbc
00000390: 48d6 993d 7234 623d ec95 c1bc 7ba1 ed3c
000003a0: b9f9 833d a033 5cbc 14c2 54bc f9a2 793d
000003b0: 1e0f 85bc 9891 58bd ab11 713d f4c0 173c
000003c0: 8d1b b6bc 0f54 eebc b30a 82bd c8f6 79bd
000003d0: d3b5 7f3d 0b7f f1ba 01a2 893d 039a 50bd
000003e0: 5208 48bd d532 07bd aec1 7c3d 1ea5 59bd
000003f0: 8fdc 63bd 0c24 833d d69a 45bd 06fc e93a

bias f4 [16]
-0.03709989 0.03431568 -0.029353809 -0.024897167 0.038746104 -0.056308463 -0.017557045 -0.05616865
0.060153063 0.0011247682 0.01825619 0.055372596 -0.039026633 0.048993744 0.030016333 -0.044254318
00000000: 0ef6 17bd 998e 0c3d 6677 f0bc 25f5 cbbc
00000010: 3cb4 1e3d b4a3 66bd cbd3 8fbc 1911 66bd
00000020: 0f63 763d f56c 933a 018e 953c 60ce 623d
00000030: 64da 1fbd aaad 483d d0e4 f53c 0444 35bd

weight f4 [32, 16, 3, 3, 3]
-0.017058026 0.006571237 0.034181822 -0.03992761 0.03529675 -0.016855638 0.043483134 0.037349384
-0.0042303205 -0.04556049 -0.032447618 0.015564274 0.038572382 0.037435915 0.046367925 0.045615356
0.0010020919 -0.042730056 -0.0036352128 -0.0134646185 -0.003129892 -0.0009837858 -0.019540723 -0.01940493
-0.0014828071 -0.010463085 -0.032545257 -0.048246346 -0.019710476 0.021651521 -0.017657558 -0.040272996
-0.033332583 -0.042831324 -0.038003527 -0.02589996 -0.01308134 0.0019120593 -0.004568401 -0.04470429
-0.018074464 -0.021526359 -0.024962222 0.0045726546 0.020837586 -0.030045304 -0.0040808655 -0.039187036
0.0042901253 -0.028796915 0.05031822 -0.035358634 0.040825933 -0.023446307 0.036907498 0.02969699
-0.030871503 0.03643437 0.018686196 -0.03786924 -0.022499742 -0.00440741 -0.0055598575 0.050473243
0.0022223052 0.019703602 -0.0048526437 0.042849272 0.041083246 0.016823307 0.036897298 -0.036884535
-0.013425228 0.029668052 0.026157958 0.0115449475 0.02496616 0.041294545 -0.032603707 -0.0034090695
0.030885285 0.04484694 -0.04329731 -0.03922811 -0.02308595 0.010441953 0.029470272 -0.04236039
0.013271559 -0.027340742 -0.018124102 -0.017978769 0.017762614 -0.027196871 0.031536344 -0.0026018128
0.010748638 0.02701467 -0.0018151418 -0.013495575 0.015024029 0.0017435179 -0.035898235 -0.025605798
0.04492737 -0.021873435 -0.045126133 -0.03320536 -0.015332989 0.03205088 0.027194258 0.03466333
0.0017398554 -0.018822756 0.02591673 -0.012358134 -0.010111757 0.027521597 0.022379072 -0.011027728
-0.036291648 -0.00720382 0.042281527 -0.015710605 0.030576563 0.00077627884 0.00017788236 0.0027658667
-0.02847562 0.031987928 0.006282985 0.040129967 -0.034449987 0.039105047 0.018290915 0.045265526
0.0112994155 -0.048948713 0.003430822 0.04273995 0.03887997 0.027752623 -0.029257162 -0.044141326
0.016479708 -0.03858308 -0.04148007 0.036975637 0.04897972 -0.012477943 0.045366984 0.022778662
-0.020270579 -0.0095695965 0.027960217 -0.0030243134 0.037558638 -0.021625841 -0.003936696 -0.027212165
0.03414841 0.019713774 0.013687018 -0.030662246 -0.027947726 0.038984388 -0.034439042 -0.021984562
-0.037878405 0.009466071 -0.028548842 -0.007188672 -0.044450093 -0.023143891 0.016485214 0.0045626676
0.021589141 -0.0410236 -0.027715746 0.04663821 -0.012720865 -0.029733742 -0.017711626 0.033897858
0.029336378 -0.01863318 -0.02188577 -0.011765508 0.026905967 0.00594182 0.017225193 -0.012362626
0.017889118 -0.0149730295 0.0011858013 -0.0019417201 -0.0059760823 -0.012079355 -0.010752324 -0.03153348
-0.003555169 0.018579364 -0.042446036 -0.040355355 -0.023192078 -0.006014718 0.031555858 -0.02513721
0.011003409 0.024394346 -0.032485228 0.04651211 0.03235905 -0.0053435685 0.044710692 0.011388094
0.020114318 -0.02963737 0.016979285 -0.018850718 -0.021171987 0.04045427 0.035320666 0.042337827
-0.032689292 0.040798567 0.04439679 -0.018034859 0.023945574 0.043287877 0.0090373885 0.020787738
-0.029349122 0.03937437 -0.0057657775 0.04454982 0.01890996 -0.034308948 0.015423016 0.047912076
-0.012675076 -0.037660345 0.00021555356 -0.021554792 -0.031070273 -0.039268762 0.022069266 -0.040625338
0.005987915 0.025387459 -0.0265621 0.034509398 -0.03605347 -0.021000152 0.009406869 0.023053313
00000000: 46bd 8bbc 8853 d73b 3d02 0c3d 228b 23bd
00000010: 5393 103d d614 8abc 5f1b 323d abfb 183d
00000020: 809e 8abb a39d 3abd cbe7 04bd 4c01 7f3c
00000030: 13fe 1d3d 6756 193d 4bec 3d3d 2bd7 3a3d
00000040: a058 833a b605 2fbd c03c 6ebb b49a 5cbc
00000050: e01e 4dbb 60f2 80ba de13 a0bc 16f7 9ebc
00000060: c05a c2ba 5c6d 2bbc 2d4e 05bd f69d 45bd
00000070: dd77 a1bc 885e b13c 95a6 90bc 4cf5 24bd
00000080: bf87 08bd e66f 2fbd 96a9 1bbd 272c d4bc
00000090: 1e53 56bc 109e fa3a 86b2 95bb d81b 37bd
000000a0: e610 94bc 0c58 b0bc 937d ccbc 35d6 953b
000000b0: 96b3 aa3c 9221 f6bc c8b8 85bb 9682 20bd
000000c0: 2e94 8c3b 82e7 ebbc 7a1a 4e3d 37d4 10bd
000000d0: 1839 273d 7812 c0bc 512c 173d 1a47 f33c
000000e0: 3ce6 fcbc 353c 153d cb13 993c c71c 1bbd
000000f0: 6151 b8bc 096c 90bb 772f b6bb 08bd 4e3d
00000100: 18a4 113b 7369 a13c ed02 9fbb b882 2f3d
00000110: e846 283d 08d1 893c 9f21 173d 3d14 17bd
00000120: 7df5 5bbc 6a0a f33c 3749 d63c 0527 3d3c
00000130: d585 cc3c 7824 293d 778b 05bd b26a 5fbb
00000140: 2303 fd3c 6db1 373d 8558 31bd a8ad 20bd
00000150: bf1e bdbc ba14 2b3c a46b f13c 1782 2dbd
00000160: f470 593c b1f9 dfbc ff78 94bc 3648 93bc
00000170: e782 913c f9cb debc 412c 013d 2d83 2abb
00000180: 0e1b 303c df4d dd3c 0dea edba 8b1c 5dbc
00000190: 5827 763c c186 e43a 070a 13bd 40c3 d1bc
000001a0: c305 383d eb2f b3bc 2ed6 38bd 5802 08bd
000001b0: 3837 7bbc c947 033d 7ec6 de3c 23fb 0d3d
000001c0: dc0b e43a 2e32 9abc 524f d43c c579 4abc
000001d0: c8ab 25bc f974 e13c 5154 b73c a5ad 34bc
000001e0: 8da6 14bd 060e ecbb 652f 2d3d 87b3 80bc
000001f0: b37b fa3c 317f 4b3a ef85 3a39 8b43 353b
00000200: b445 e9bc c605 033d 80e1 cd3b 525f 243d
00000210: 6e1b 0dbd 9d2c 203d d4d6 953c 5868 393d
00000220: 2f21 393c 727e 48bd a4d7 603b 1610 2f3d
00000230: 9a40 1f3d 7859 e33c b7ac efbc 89cd 34bd
00000240: 7400 873c 4b09 1ebd 02e7 29bd c473 173d
00000250: f59e 483d 4970 4cbc bbd2 393d 519a ba3c
00000260: 7c0e a6bc ccc9 1cbc d30c e53c 8f33 46bb
00000270: 16d7 193d ad28 b1bc 66ff 80bb 0cec debc
00000280: 34df 0b3d c87e a13c 843f 603c 642f fbbc
00000290: a1f2 e4bc 18ae 1f3d f40f 0dbd f818 b4bc
000002a0: 6326 1bbd 9417 1b3c 43df e9bc f48e ebbb
000002b0: 4d11 36bd 4298 bdbc 000c 873c 6e82 953b
000002c0: b6db b03c 5d08 28bd 220c e3bc b507 3f3d
000002d0: 2d6b 50bc 2d94 f3bc f917 91bc 7bd8 0a3d
000002e0: d852 f03c 9ca4 98bc c949 b3bc 1ec4 40bc
000002f0: e769 dc3c 99b3 c23b d91b 8d3c 9d8c 4abc
00000300: 338c 923c 7051 75bc e46c 9b3a 5181 feba
00000310: 03d3 c3bb 7de8 45bc 842a 30bc 4029 01bd
00000320: d7fd 68bb c033 983c e5db 2dbd a84b 25bd
00000330: 50fd bdbc 1d17 c5bb b740 013d 8dec cdbc
00000340: a447 343c a7d6 c73c 3b0f 05bd 7b83 3e3d
00000350: ec8a 043d 1a19 afbb 8f22 373d 2195 3a3c
00000360: c8c6 a43c 12ca f2bc 2418 8b3c d26c 9abc
00000370: e070 adbc 60b3 253d 67ac 103d 6e6a 2d3d
00000380: 35e5 05bd 661c 273d 69d9 353d d7bd 93bc
00000390: 8229 c43c a14e 313d 8e11 143c 0c4b aa3c
000003a0: 926d f0bc 0547 213d d9ee bcbb df79 363d
000003b0: 0fe9 9a3c 8a87 0cbd d1b0 7c3c 743f 443d
000003c0: 1fab 4fbc bc41 1abd 3806 6239 ad93 b0bc
000003d0: 1687 febc 48d8 20bd 9bca b43c c166 26bd
000003e0: 4636 c43b 5cf9 cf3c c398 d9bc ba59 0d3d
000003f0: ceac 13bd 8308 acbc 451f 1a3c 4dda bc3c

bias f4 [32]
-0.025691342 0.019588416 -0.043487802 -0.034315646 -0.032671932 -0.017684245 0.03518644 -0.002255919
0.037429824 -0.021521771 0.04059257 0.010371203 -0.00774583 0.035005454 0.01219193 0.027062701
0.038212694 0.02937716 -0.01637623 -0.020660048 -0.02495062 0.02935846 0.019469377 -0.023946788
0.0032823049 -0.008591893 0.008149968 0.03772406 -0.045073148 -0.04136746 -0.03239896 0.02718829
00000000: a676 d2bc e377 a03c 4420 32bd 908e 0cbd
00000010: 01d3 05bd 8dde 90bc a81f 103d 0ad8 13bb
00000020: 0450 193d 6d4e b0bc 6544 263d faeb 293c
00000030: bbd0 fdbb e161 0f3d a9c0 473c 99b2 dd3c
00000040: ea84 1c3d 5fa8 f03c 7227 86bc 433f a9bc
00000050: 3e65 ccbc 2781 f03c 3e7e 9f3c 0e2c c4bc
00000060: f01b 573b 03c5 0cbc 7287 053c 8b84 1a3d
00000070: 9f9e 38bd ed70 29bd c6b4 04bd fab9 de3c

weight f4 [64, 32, 3, 3, 3]
0.0035524778 -0.013428037 0.018895682 -0.02731223 0.010791697 -0.004526127 -0.001917474 -0.021977551
-0.02423551 -0.0346417 0.002917142 -0.00097480416 0.024778273 0.023639688 0.029326424 -0.0040533673
-0.0044078752 -0.01988859 -0.0018533331 -0.017019587 0.0035942309 0.016109897 0.0015131845 0.010413695
-0.01908809 -0.0053887498 0.009527046 -0.017763885 0.020296546 0.026337696 0.013828676 0.0051143346
-0.019078862 0.01259831 0.03021095 0.0061426274 -0.02905842 -0.016061535 -0.01414327 -0.003037672
0.01566581 -0.037032824 0.00680482 -0.0064711478 -0.028849395 0.027436262 0.015240279 -0.013137719
0.010942389 0.0047109397 0.008585546 0.010917809 -0.016341913 -0.011937207 -0.022754062 -0.021569291
-0.02816429 0.009564158 -0.019631173 0.0017844029 -0.019192707 -0.0019072071 0.010276359 -0.01652441
-0.0094203185 -0.030201014 -0.011620376 -0.013241529 0.006582644 -0.023185214 0.026222635 -0.00014843792
-0.033971198 -0.029542433 0.026900962 -0.03176952 -0.0001408644 -0.015474424 -0.0042306017 0.013660997
-0.0059561376 -0.023782216 -0.02017156 -0.016093634 -0.011754002 -0.023807973 -0.00033786893 -0.02616914
0.032971755 0.028842144 0.0039257035 0.028407272 0.032853805 -0.01794852 0.0321209 -0.026632253
-0.01626695 -0.027991468 0.014034141 -0.018763032 -0.0027509853 0.016633071 -0.010633653 0.01849847
0.005838271 0.016095817 0.025239713 0.002426099 -0.0020914748 0.011561405 -0.031544495 -0.027251374
0.019861747 0.022255331 -0.017539969 -0.009518128 0.009141579 -0.0007360205 -0.006508963 0.013561819
-0.019269703 0.0007172823 0.0316924 0.026708096 0.009707451 -0.030389449 -0.0023244992 -0.00048228726
-0.013358055 -0.03159146 0.01619551 0.0019300096 -0.017360436 -0.001225736 0.0068045333 0.016136002
-0.001962646 -0.0013837826 0.0006359853 0.0005291868 0.014126208 -0.01778467 0.003808964 0.03137075
0.030856557 0.022687672 -0.019142732 -0.0014345013 0.02451603 0.0035424565 0.0042238906 -0.018726528
0.02938743 -0.013375576 0.02484696 -0.021224258 -0.02361591 -0.021733737 0.0016708188 0.010999341
-0.019643214 0.022274483 -0.015068781 -0.007191314 0.020360835 0.03111162 -0.026520165 0.01927921
0.012404602 -0.025268676 0.014619704 -0.0357751 0.01765452 -0.022797307 0.014979453 -0.031200124
0.019551815 -0.023796856 0.01644656 -0.01361216 0.016929658 -0.00076595444 -0.0163457 0.011630121
0.014411347 -0.0064686704 -0.005211821 -0.012497302 0.008244228 -0.021855734 0.015958972 -0.03200837
-0.028019127 0.015377173 0.010127015 0.0039634556 0.015675507 0.016447756 0.028159186 -0.033282477
-0.0109321205 -0.021904193 -0.0030060932 0.005440775 -0.031789906 -0.018177629 0.007838264 -0.022266556
0.0034804624 -0.024305504 -0.01589494 -0.033423826 -0.010652889 -0.010951176 -0.028384803 -0.022764444
-0.00980141 -0.019506723 -0.031543538 -0.033067096 -0.026457345 0.0027859358 0.03355457 -0.002731815
0.009865541 0.007568222 -0.028953414 0.0019587944 -0.025603697 0.012774024 -0.03131621 0.027809676
0.007048011 0.023170501 -0.017287314 -0.030315967 0.0059175976 -0.0068181283 0.005739774 -0.02339058
-0.020402001 -0.01466886 -0.010568572 -0.008952597 0.028495729 0.030429177 -0.013578452 0.032878943
0.020999808 0.020647515 -0.01243633 0.0037158616 -0.016690783 0.028462939 0.017138734 0.008201715
00000000: b0d0 683b 4501 5cbc 1ecb 9a3c e6bd dfbc
00000010: a8cf 303c e84f 94bb c053 fbba 440a b4bc
00000020: 8c89 c6bc 75e4 0dbd 852d 3f3b 008a 7fba
00000030: cefb ca3c 05a8 c13c f83d f03c 1cd2 84bb
00000040: f06f 90bb 65ed a2bc 8aeb f2ba a96c 8bbc
00000050: 308d 6b3b e7f8 833c 0c56 c63a 349e 2a3c
00000060: a05e 9cbc 1c94 b0bb 5417 1c3c 9185 91bc
00000070: f144 a63c 27c2 d73c ac91 623c 2696 a73b
00000080: 464b 9cbc 2469 4e3c f47c f73c 1848 c93b
00000090: ec0b eebc 7b93 83bc 2db9 67bc ae13 47bb
000000a0: 9655 803c bbaf 17bd f8fa de3b ec0b d4bb
000000b0: 9155 ecbc 03c2 e03c 5db2 793c 963f 57bc
000000c0: b547 333c 3a5e 9a3b 64aa 0c3c 9ce0 323c
000000d0: 7adf 85bc 4694 43bc ba66 babc 15b2 b0bc
000000e0: ccb8 e6bc fcb2 1c3c 8ed1 a0bc a0e2 e93a
000000f0: 063a 9dbc 40fb f9ba 2c5e 283c 335e 87bc
00000100: ae57 1abc 1e68 f7bc 6463 3ebc 00f3 58bc
00000110: 38b3 d73b ebee bdbc dad0 d63c 00a6 1bb9
00000120: 6225 0bbd f902 f2bc 685f dc3c c220 02bd
00000130: 00b5 13b9 7088 7dbc dca0 8abb 60d2 5f3c
00000140: b42b c3bb ecd2 c2bc d43e a5bc ccd6 83bc
00000150: dc93 40bc f008 c3bc 0024 b1b9 aa60 d6bc
00000160: 640d 073d 5c46 ec3c 30a3 803b 5eb6 e83c
00000170: b691 063d c608 93bc 3491 033d e22b dabc
00000180: 4442 85bc 5d4e e5bc 74ef 653c eeb4 99bc
00000190: e049 34bb 1442 883c c638 2ebc 1a8a 973c
000001a0: f84e bf3b 60db 833c 84c3 ce3c 30ff 1e3b
000001b0: 2011 09bb 0c6c 3d3c cd34 01bd 463e dfbc
000001c0: 1ab5 a23c d050 b63c fbaf 8fbc ecf1 1bbc
000001d0: 90c6 153c 80f1 40ba 2449 d5bb 6432 5e3c
000001e0: 7fdb 9dbc 0008 3c3a e4cf 013d f0ca da3c
000001f0: 000c 1f3c 4bf3 f8bc a056 18bb 80db fcb9
00000200: bedb 5abc 0c66 01bd 72ac 843c 60f8 fc3a
00000210: 7937 8ebc e0a8 a0ba 90f8 de3b a62f 843c
00000220: bc9f 00bb 0a60 b5ba 40b8 263a 20b9 0a3a
00000230: 9c71 673c 28b1 91bc d09f 793b 9e7e 003d
00000240: e4c6 fc3c 7fdb b93c 38d1 9cbc e005 bcba
00000250: d7d5 c83c 8f28 683b 9068 8a3b 6068 99bc
00000260: e8bd f03c 3b25 5bbc da8b cb3c 7fde adbc
00000270: 2776 c1bc f30a b2bc 60ff da3a 9436 343c
00000280: ceea a0bc fa78 b63c 0ce3 76bc 1da5 ebbb
00000290: c4cb a63c ccdd fe3c d140 d9bc 6fef 9d3c
000002a0: ac3c 4b3c 4100 cfbc 7c87 6f3c e988 12bd
000002b0: 36a0 903c 6bc1 babc 616c 753c 6797 ffbc
000002c0: 212b a03c a0f1 c2bc f0ba 863c 8a05 5fbc
000002d0: 11b0 8a3c 55ca 48ba 6be7 85bc 438c 3e3c
000002e0: 921d 6c3c 24f7 d3bb ecc7 aabb 7cc1 4cbc
000002f0: cc12 073c cc0a b3bc 64bc 823c 351b 03bd
00000300: 5e88 e5bc 8af0 7b3c c8eb 253c e0df 813b
00000310: ec69 803c 72bd 863c 18ae e63c 3553 08bd
00000320: a31c 33bc 6c70 b3bc e001 45bb 8748 b23b
00000330: 2236 02bd 40e9 94bc 106c 003c 5a68 b6bc
00000340: 7818 643b 561c c7bc 1b36 82bc 6ce7 08bd
00000350: 7489 2ebc 906c 33bc 3f87 e8bc 807c babc
00000360: 1896 20bc 90cc 9fbc cc33 01bd 5d71 07bd
00000370: 13bd d8bc 3f94 363b 8470 093d 4008 33bb
00000380: 14a3 213c d9fe f73b b62f edbc 1e5f 003b
00000390: d8be d1bc 244a 513c 6d45 00bd 1ed1 e33c
000003a0: 00f3 e63b 10d0 bd3c 209e 8dbc 3159 f8bc
000003b0: 68e8 c13b 9b6a dfbb b714 bc3b 9a9d bfbc
000003c0: 1922 a7bc a855 70bc ce27 2dbc eaad 12bc
000003d0: e06f e93c 9c46 f93c 2878 5ebc 12ac 063d
000003e0: ca07 ac3c fa24 a93c c0c1 4bbc d085 733b
000003f0: 1cbb 88bc 1c2b e93c 8866 8c3c 7c60 063c

bias f4 [64]
0.012929862 0.026018372 0.0012334302 0.00052688125 -0.014074919 0.016803661 -0.016676242 -0.027793033
0.015356339 0.0062178285 -0.03233331 0.017127113 0.020644391 -0.016377369 -0.027727297 -0.031099321
0.021767894 -0.008448244 0.017635176 -0.019328145 0.019538073 0.040444456 0.006535548 -0.031227697
-0.023924634 0.02088001 -0.010618364 0.01802857 -0.028509565 -0.0030217331 -0.029656837 -0.028899496
-0.01647918 -0.015038239 -0.00045367738 -0.030444888 0.024621565 -0.0009950869 0.002821311 -0.029632894
0.008866289 -0.033430267 0.038632467 0.014207756 -0.018629435 -0.0029090864 -0.003843538 -0.02686269
-0.0072750077 0.008477413 -0.015944216 0.0059375456 0.03465897 0.014955055 0.019024098 -0.0071815364
-0.021903995 0.016874878 0.007555533 -0.034325074 -0.02522592 -0.02505681 0.007813888 0.024421362
00000000: c6d7 533c 7b24 d53c 0dab a13a 671e 0a3a
00000010: 7d9a 66bc d5a7 893c 9d9c 88bc 37ae e3bc
00000020: 2799 7b3c edbe cb3b ef6f 04bd 294e 8c3c
00000030: 6d1e a93c d529 86bc 5b24 e3bc 01c4 febc
00000040: 9552 b23c 816a 0abc a577 903c 0f56 9ebc
00000050: 4f0e a03c 16a9 253d 2628 d63b 3ad1 ffbc
00000060: 98fd c3bc 8e0c ab3c a6f8 2dbc a7b0 933c
00000070: e48c e9bc 4508 46bb e5f2 f2bc a3be ecbc
00000080: 58ff 86bc f262 76bc 8cdb edb9 8f67 f9bc
00000090: 2ab3 c93c 936d 82ba bee5 383b afc0 f2bc
000000a0: e943 113c 2dee 08bd 143d 1e3d a6c7 683c
000000b0: c29c 98bc 5fa6 3ebb dee3 7bbb 250f dcbc
000000c0: 3063 eebb d9e4 0a3c 729d 82bc be8f c23b
000000d0: 90f6 0d3d 0c06 753c 6dd8 9b3c 1853 ebbb
000000e0: 0270 b3bc 2f3d 8a3c 6894 f73b 7398 0cbd
000000f0: 97a6 cebc f043 cdbc d205 003c 4f0f c83c

weight f4 [32, 64]
0.09127253 -0.026287926 0.08071457 -0.120408975 -0.049072016 -0.058886234 -0.105137385 0.04220657
0.042745937 0.09099217 0.05858477 -0.026275478 0.024240516 0.02319955 0.09015161 0.032633737
0.011705573 -0.11026065 -0.09395714 -0.06418114 -0.018110687 0.10632828 0.0050939796 0.04618299
0.08507638 -0.04631808 -0.078921065 0.08742352 -0.07101038 -0.033095006 5.0386625e-06 -0.051770654
-0.019255107 -0.023012817 0.020525264 0.035717264 -0.090675205 -0.050711587 -0.04961169 0.06454445
0.09647853 0.09654422 0.0960969 -0.091656774 0.025205377 0.11651863 0.09610897 0.0061784666
-0.021300085 0.06948723 -0.11613129 -0.03459378 -0.11004367 0.11555126 0.107694075 -0.05305693
-0.08249092 0.034829512 -0.07191313 0.07192543 -0.09836064 -0.069924295 -0.07272887 0.06492431
-0.075666025 0.032780807 -0.0935692 0.06110929 0.062366977 0.10248514 -0.028789852 -0.08819282
-0.107259564 0.11259764 -0.027709922 -0.060038637 0.054041564 0.014322885 -0.10503209 -0.11747624
0.06979143 -0.07392348 -0.0132774105 0.0648182 0.010671666 0.08703801 -0.07757049 0.09344676
0.08887748 -0.014738706 0.0593462 -0.025081564 -0.07658133 -0.11870462 0.0019146063 0.06340496
0.034778737 -0.009466961 0.05684552 -0.079089016 0.05703655 -0.10486814 -0.0940187 -0.102505565
-0.023787962 0.06884201 -0.024308506 0.07829791 -0.100223765 0.015370479 -0.13079602 -0.08048668
-0.0606949 -0.037261758 0.017800799 -0.11027239 -0.04214332 0.02263169 0.0193773 0.061591163
0.025488764 0.057470314 -0.00096651993 -0.044796962 0.11996939 -0.07532999 -0.08380892 0.033188824
-0.046252713 -0.06873211 0.11068782 0.024138048 -0.094503194 -0.08481687 -0.019894496 -0.05861281
-0.017482191 -0.06470938 0.07218255 -0.025391847 -0.12343533 -0.1000921 -0.054203287 0.05645296
0.05362934 -0.0966579 -0.049299777 0.062427253 -0.0344622 -0.04825391 -0.058413833 -0.09804833
-0.09769674 -0.07870534 -0.10319814 0.099405944 0.034238353 -0.078462034 -0.119698524 0.008144692
-0.11481026 -0.107819125 -0.062424973 -0.08349319 0.01971592 0.017003387 -0.03913723 -0.1114814
0.0812899 0.04399568 -0.109760866 0.070508316 -0.098630935 -0.056088194 -0.079191655 0.011350706
-0.014206588 -0.08094378 0.105546266 0.02115962 0.11352521 0.10147676 0.08574475 -0.11990422
0.019803584 -0.037745044 -0.07677597 -0.085979715 -0.017912298 -0.021176577 -0.11901106 -0.03166789
0.068785414 0.06421593 -0.11088982 0.005736634 -0.07416743 -0.09284976 0.11119895 0.024771258
-0.015537113 -0.12259121 -0.12459861 0.075515196 0.08197664 0.08067672 0.039439514 0.021331877
-0.08951296 0.10750085 -0.12338857 -0.007452503 -0.07790126 -0.015599549 0.059911773 -0.07759629
-0.06539413 0.059803903 -0.078054115 0.088414535 -0.053927258 -0.05133532 0.10964981 -0.09227504
0.0758581 0.06672962 0.033469602 0.024668306 0.019614518 -0.052610025 -0.052272618 -0.043969497
-0.09723291 -0.03227125 0.008183166 -0.091373935 -0.08284864 0.08972998 0.104090124 -0.031260476
-0.0033658296 0.10325292 -0.035241783 -0.05174303 0.029079571 -0.0037945062 -0.028466657 -0.069996715
-0.038702488 -0.059016615 0.11383721 -0.10134143 0.0651578 0.07097258 -0.056691855 -0.027767226
00000000: 18ed ba3d c759 d7bc ae4d a53d fb98 f6bd
00000010: bdff 48bd b132 71bd 4552 d7bd cce0 2c3d
00000020: 5d16 2f3d 1a5a ba3d 95f6 6f3d ac3f d7bc
00000030: 0c94 c63c fc0c be3c 68a1 b83d f4aa 053d
00000040: bbc8 3f3c 56d0 e1bd 9a6c c0bd 6771 83bd
00000050: dd5c 94bc a4c2 d93d 66eb a63b 602a 3d3d
00000060: 863c ae3d 07b8 3dbd 5ea1 a1bd 1a0b b33d
00000070: e46d 91bd a18e 07bd c811 a936 770d 54bd
00000080: e3bc 9dbc 6085 bcbc 9924 a83c 444c 123d
00000090: ecb3 b9bd f4b6 4fbd a135 4bbd e12f 843d
000000a0: 8996 c53d fab8 c53d 74ce c43d 8cb6 bbbd
000000b0: 827b ce3c 52a1 ee3d c8d4 c43d bc74 ca3b
000000c0: 847d aebc 524f 8e3d 3ed6 edbd 35b2 0dbd
000000d0: 935e e1bd 24a6 ec3d b68e dc3d 3952 59bd
000000e0: 00f1 a8bd 64a9 0e3d 3147 93bd a44d 933d
000000f0: 4e71 c9bd 7834 8fbd e0f2 94bd 09f7 843d
00000100: caf6 9abd 2b45 063d 35a1 bfbd bc4d 7a3d
00000110: 8474 7f3d bbe3 d13d b2d8 ebbc 709e b4bd
00000120: e7aa dbbd 9799 e63d ebff e2bc 13eb 75bd
00000130: b05a 5d3d 89aa 6a3c 101b d7bd 6297 f0bd
00000140: cfee 8e3d 3265 97bd 7f89 59bc 68bf 843d
00000150: 36d8 2e3c fc40 b23d 47dd 9ebd 0461 bf3d
00000160: 6505 b63d 9d7a 71bc 0015 733d da77 cdbc
00000170: acd6 9cbd 681b f3bd 87f3 fa3a 76da 813d
00000180: 2674 0e3d 501b 1bbc d9d6 683d 6cf9 a1bd
00000190: 289f 693d 1bc5 d6bd e08c c0bd 70ee d1bd
000001a0: f9de c2bc 0afd 8c3d a222 c7bc a85a a03d
000001b0: 1e42 cdbd 76d4 7b3c 64ef 05be 33d6 a4bd
000001c0: 379b 78bd c99f 18bd fbd2 913c 7ed6 e1bd
000001d0: 799e 2cbd 1866 b93c 25bd 9e3c 0447 7c3d
000001e0: d0cd d03c fe65 6b3d 0e5e 7dba 057d 37bd
000001f0: 83b2 f53d 9c46 9abd 03a4 abbd 01f1 073d
00000200: 7c73 3dbd 6cc3 8cbd 4cb0 e23d 28bd c53c
00000210: e48a c1bd 78b4 adbd c8f9 a2bc fc13 70bd
00000220: d036 8fbc 5a86 84bd 72d4 933d 9002 d0bc
00000230: aacb fcbd 16fd ccbd 4404 5ebd 383b 673d
00000240: 70aa 5b3d 94f4 c5bd 90ee 49bd b8b3 7f3d
00000250: 3c28 0dbd e4a5 45bd 5843 6fbd 90cd c8bd
00000260: 3a15 c8bd 4430 a1bd 8c59 d3bd 5895 cb3d
00000270: 843d 0c3d b4b0 a0bd 8024 f5bd 5071 053c
00000280: a421 ebbd 46d0 dcbd 54b1 7fbd 7afe aabd
00000290: 4883 a13c b04a 8b3c 5c4e 20bd 5c50 e4bd
000002a0: 527b a63d d034 343d 4eca e0bd aa66 903d
000002b0: 04ff c9bd bcbc 65bd 3c2f a2bd 50f8 393c
000002c0: c0c2 68bc dac5 a5bd a428 d83d f056 ad3c
000002d0: e87f e83d 0cd3 cf3d f29a af3d 5890 f5bd
000002e0: 203b a23c 8c9a 1abd b83c 9dbd 2216 b0bd
000002f0: d0bc 92bc 807a adbc 12bc f3bd 30b6 01bd
00000300: 5edf 8c3d a483 833d 341a e3bd 60fa bb3b
00000310: 18e5 97bd 0428 bebd 46bc e33d 18ed ca3c
00000320: 608f 7ebc 1a11 fbbd 8e2d ffbd b6a7 9a3d
00000330: 5ee3 a73d d639 a53d 548b 213d 30c0 ae3c
00000340: 9252 b7bd 6829 dc3d 26b3 fcbd 2034 f4bb
00000350: b28a 9fbd 4095 7fbc 0c66 753d ceea 9ebd
00000360: 5ced 85bd f0f4 743d d6da 9fbd ae12 b53d
00000370: d4e2 5cbd fc44 52bd 1490 e03d b2fa bcbd
00000380: 7e5b 9b3d 8aa9 883d 6c17 093d 3015 ca3c
00000390: a0ae a03c 9c7d 57bd d01b 56bd 5c19 34bd
000003a0: 0c22 c7bd dc2e 04bd b012 063c 4222 bbbd
000003b0: 8cac a9bd 5ac4 b73d 342d d53d fc0a 00bd
000003c0: 4095 5cbb 4476 d33d b059 10bd 80f0 53bd
000003d0: 4838 ee3c 40ad 78bb e832 e9bc 705a 8fbd
000003e0: 8086 1ebd 68bb 71bd 7c23 e93d 188c cfbd
000003f0: 7471 853d 125a 913d b835 68bd 1878 e3bc

bias f4 [32]
0.013714467 0.07191893 -0.10641247 -0.069725335 0.004053159 -0.084597215 0.08557932 -0.08458612
0.09785109 0.09443688 0.07260499 0.02082735 -0.06688705 0.051444747 -0.028868333 -0.030949578
-0.06940512 -0.07779142 -0.03778267 -0.026822105 0.07115945 -0.02404888 0.071591385 0.009437125
-0.017119262 0.042061947 0.023590285 0.006426172 -0.058535427 0.0518695 0.021061536 -0.089370534
00000000: a5b2 603c 3b4a 933d c8ee d9bd 28cc 8ebd
00000010: 5dd0 843b 4e41 adbd 3644 af3d 7d3b adbd
00000020: 2766 c83d 1f68 c13d edb1 943d 1e9e aa3c
00000030: 14fc 88bd bab7 523d 487d ecbc f889 fdbc
00000040: 4624 8ebd 1c51 9fbd 00c2 1abd 08ba dbbc
00000050: 0cbc 913d 2802 c5bc 819e 923d 2c9e 1a3c
00000060: b23d 8cbc 2649 2c3d 6a40 c13c a392 d23b
00000070: d8c2 6fbd 1d75 543d 3e89 ac3c e607 b7bd

weight f4 [16, 32]
0.008096816 -0.037425123 -0.1412477 0.07324602 0.050952848 0.089689836 0.16752027 -0.060184408
-0.16072184 0.0856485 -0.082096644 0.087131314 -0.10587933 0.0056416932 -0.084444605 0.0075553954
-0.059017368 0.04739 0.032101005 0.17639701 0.075312376 0.03272073 -0.15518513 -0.074587926
-0.055609006 -0.09389956 0.10599048 0.0076825977 0.17574377 0.10454336 -0.010520389 0.12716682
0.056961358 0.02425903 0.024526268 -0.13296682 0.08462472 0.16364802 -0.1514017 -0.1734506
-0.025011986 -0.05501283 -0.07765441 0.03923945 -0.023193493 0.047017798 -0.13718326 -0.043538585
0.16533168 -0.11493913 -0.04180935 -0.17168978 -0.15248519 0.14175619 -0.048994973 -0.17302166
0.15243684 0.10383101 -0.07740551 -0.039852336 0.09103094 -0.15289994 -0.044137374 0.06511423
-0.11929648 0.02929962 -0.10480992 0.06388229 0.0046174526 0.16747253 0.1077228 0.17589335
0.10288932 -0.001963419 0.068590716 -0.11272101 0.09034948 -0.15529038 -0.14392373 0.072141975
-0.16767542 0.07111426 0.106616065 -0.095446065 0.06270366 -0.15401419 -0.007676229 0.07100799
0.02837976 -0.10940598 0.06195809 0.10305393 -0.04756154 0.07859407 -0.03254021 -0.058584332
0.1461471 0.052761275 -0.046514392 -0.0851977 0.081782624 -0.07251216 -0.047130316 0.0599769
-0.16088642 0.14068976 -0.064050965 -0.12287255 0.0070340782 0.029363684 -0.013589203 -0.04308133
-0.1469469 0.1500056 -0.090840995 -0.034911647 0.09540959 0.08782826 -0.010671451 0.05338978
0.06602011 0.10090427 -0.10460207 0.12031197 0.11977954 -0.045913566 0.15219525 0.051232502
-0.076822065 -0.093278185 0.14759271 -0.121821314 0.11325199 0.031732798 0.13564463 -0.117779255
0.040194873 -0.07801329 0.04075186 0.011766333 0.12991782 0.15141165 0.030264318 -0.08477716
0.02258125 0.16094913 -0.060280174 0.117774084 0.0149032865 -0.119668975 -0.028876746 0.109579094
0.08065349 0.0077972454 -0.030667761 -0.012341567 -0.010501176 0.09533561 -0.06618259 0.048386052
-0.04024683 0.029668704 0.1421132 0.06843285 0.1643775 -0.17341758 -0.12182473 0.16066669
-0.10769162 -0.036751673 -0.08231945 0.01688908 0.05022867 -0.014836013 0.1649832 0.13701014
0.022477716 -0.1586337 -0.090061195 0.046848997 -0.097528584 0.099987105 -0.12379728 -0.13284126
0.12430899 0.084191546 -0.09039348 -0.07669295 0.13561241 0.030964598 -0.1548497 0.09939419
-0.04123135 -0.07763192 -0.13425735 -0.11729653 0.034522146 0.031283036 -0.022154287 -0.00038336217
0.123781994 -0.0942142 -0.14575863 -0.0071083456 -0.14342774 -0.06040878 -0.008027032 0.056067422
0.057181403 0.0049927384 0.07276742 -0.1290625 -0.06872994 -0.05216968 -0.07947644 0.13833754
0.1467049 0.16593124 -0.013900682 -0.010647699 -0.14350435 0.077586964 -0.009903967 0.008201793
0.06671386 0.08262062 0.043673426 0.037415802 -0.11513807 -0.10725422 0.099746294 0.17411995
-0.074453406 0.04936844 0.007411197 0.06335333 -0.049733326 -0.037850775 0.115384296 0.16023622
-0.06266669 0.07787593 -0.16259512 -0.039849043 -0.18377264 0.12264432 0.13373302 0.088872254
-0.016948052 -0.058323186 0.07590209 -0.095158696 -0.105617195 -0.09845733 -0.10167862 -0.07448522
00000000: 82a8 043c 164b 19bd 3da3 10be 0202 963d
00000010: efb3 503d 4eaf b73d 6f8a 2b3e ed83 76bd
00000020: 4494 24be 7b68 af3d 4922 a8bd e771 b23d
00000030: 43d7 d8bd f4dd b83b 4bf1 acbd 4093 f73b
00000040: 32bc 71bd 041c 423d 587c 033d 6ba1 343e
00000050: 603d 9a3d 2c06 063d dae8 1ebe 8ec1 98bd
00000060: 45c6 63bd 6a4e c0bd 8911 d93d 4dbe fb3b
00000070: 2df6 333e d41a d63d b65d 2cbc 0538 023e
00000080: 5050 693d e0ba c63c 50eb c83c 7428 08be
00000090: ba4f ad3d 5993 273e 0c09 1bbe 099d 31be
000000a0: f0e5 ccbc 2255 61bd 4609 9fbd 8cb9 203d
000000b0: 4800 bebc bc95 403d c579 0cbe 8455 32bd
000000c0: b54c 293e 3565 ebbd 4840 2bbd 72cf 2fbe
000000d0: 1425 1cbe 8928 113e f4ae 48bd 972c 31be
000000e0: 6718 1c3e 5aa5 d43d c886 9ebd 343c 23bd
000000f0: 6e6e ba3d cd91 1cbe 64c9 34bd 9c5a 853d
00000100: b751 f4bd c205 f03c 95a6 d6bd b8d4 823d
00000110: 004e 973b eb7d 2b3e c59d dc3d 631d 343e
00000120: a3b7 d23d b4ac 00bb 4a79 8c3d 46da e6bd
00000130: 2609 b93d 7104 1fbe be60 13be 2cbf 933d
00000140: 1bb3 2bbe 5aa4 913d 8659 da3d 3a79 c3bd
00000150: c76a 803d e5b5 1dbe e088 fbbb a36c 913d
00000160: ac7c e83c 3e10 e0bd c4c7 7d3d f00d d33d
00000170: e4cf 42bd eef5 a03d e248 05bd 20f6 6fbd
00000180: 96a7 153e 351c 583d e085 3ebd 227c aebd
00000190: a67d a73d 4181 94bd b80b 41bd 57aa 753d
000001a0: 69bf 24be fa10 103e 272d 83bd 9aa4 fbbd
000001b0: 207e e63b 1c8c f03c 40a5 5ebc 0c76 30bd
000001c0: 4079 16be 119b 193e d80a babd 84ff 0ebd
000001d0: 1a66 c33d 4edf b33d 4fd7 2ebc 3eaf 5a3d
000001e0: 8d35 873d e6a6 ce3d 9c39 d6bd 1f66 f63d
000001f0: fa4e f53d dd0f 3cbd 12d9 1b3e 2cd9 513d
00000200: e354 9dbd a208 bfbd 8b22 173e 747d f9bd
00000210: a9f0 e73d 40fa 013d 6de6 0a3e 4036 f1bd
00000220: 61a3 243d 6fc5 9fbd 6ceb 263d 94c7 403c
00000230: 2d09 053e a80b 1b3e e0ec f73c a69f adbd
00000240: 50fc b83c d9cf 243e 58e8 76bd 8a33 f13d
00000250: ea2c 743c 0215 f5bd ed8e ecbc 016b e03d
00000260: a82d a53d 0980 ff3b f53a fbbc 4934 4abc
00000270: 200d 2cbc 513f c33d bd8a 87bd 7430 463d
00000280: dcd9 24bd c80b f33c 1f86 113e 8626 8c3d
00000290: 9352 283e 6194 31be 3e7f f9bd cf85 243e
000002a0: 6d8d dcbd ec88 16bd 1a97 a8bd f85a 8a3c
000002b0: 94bc 4d3d c012 73bc 5bf1 283e 634c 0c3e
000002c0: 3023 b83c df70 22be 0172 b8bd bce4 3f3d
000002d0: 11bd c7bd 0ac6 cc3d 6e89 fdbd 8a07 08be
000002e0: b695 fe3d 9e6c ac3d 3820 b9bd 3211 9dbd
000002f0: fbdd 0a3e 78a9 fd3c eb90 1ebe 2e8f cb3d
00000300: 34e2 28bd 7cfd 9ebd c27a 09be 2a39 f0bd
00000310: 1867 0d3d a422 003d e87c b5bc 00fe c8b9
00000320: 6a81 fd3d 60f3 c0bd c041 15be 20ed e8bb
00000330: b9de 12be 326f 77bd d083 03bc f4a6 653d
00000340: 0c37 6a3d 209a a33b 1607 953d f628 04be
00000350: 48c2 8cbd e0af 55bd 8bc4 a2bd 5ba8 0d3e
00000360: cf39 163e e1e9 293e b0bf 63bc b073 2ebc
00000370: cef2 12be eae5 9e3d 4044 22bc d060 063c
00000380: 47a1 883d 0035 a93d e8e2 323d 5041 193d
00000390: 82cd ebbd 1aa8 dbbd c947 cc3d 804c 323e
000003a0: 077b 98bd 9036 4a3d a0d9 f23b 64bf 813d
000003b0: 2cb5 4bbd 6a09 1bbd 9a4e ec3d f714 243e
000003c0: 6557 80bd 6a7d 9f3d 567f 26be c038 23bd
000003d0: e52e 3cbe f22c fb3d 4ff1 083e a802 b63d
000003e0: a4d6 8abc 4be4 6ebd 8e72 9b3d 90e2 c2bd
000003f0: d44d d8bd ffa3 c9bd e13c d0bd b58b 98bd

bias f4 [16]
0.15899675 -0.120051146 0.025252433 0.14512914 0.09320569 -0.09491082 -0.12042393 0.05725897
0.10195114 0.13625585 0.16273892 0.025491325 0.1396694 0.058177844 -0.15371193 0.08544311
00000000: 0bd0 223e 60dd f5bd 31de ce3c bc9c 143e
00000010: a0e2 be3d 9b60 c2bd d2a0 f6bd 6288 6a3d
00000020: c2cb d03d a786 0b3e 08a5 263e 2fd3 d03c
00000030: 7f05 0f3e e44b 6e3d a966 1dbe ccfc ae3d

weight f4 [4, 16]
0.20543918 0.10933152 -0.23806374 -0.008105568 -0.06972166 0.006009251 0.06397393 0.048684515
-0.105321564 0.059358604 0.19874482 -0.17175798 -0.06741399 -0.2499111 0.18563694 -0.0440524
0.14600103 0.09848446 0.04386615 0.031972997 -0.16165283 -0.17498904 -0.16056508 0.07801757
-0.04229371 -0.06744462 0.21515846 -0.23703934 0.21823424 -0.10204738 -0.18897915 -0.024539929
-0.06724676 0.031102896 -0.08298134 -0.059696753 0.23813668 0.107524544 -0.13682508 0.19483373
-0.006475736 0.14991443 0.114044435 0.16366404 0.15306942 0.026323598 0.16870168 0.013437649
0.038502783 -0.057466954 0.008344807 0.01575455 0.11508567 0.027240932 0.15712935 0.22049205
-0.22160144 0.0831434 0.04791651 0.124486856 -0.03480004 0.02300728 -0.2439357 0.18052603
00000000: a65e 523e 34e9 df3d fbc6 73be 37cd 04bc
00000010: 3bca 8ebd 40e9 c43b c404 833d 6a69 473d
00000020: d5b2 d7bd 0222 733d c383 4b3e 53e1 2fbe
00000030: 5910 8abd b2e8 7fbe 9c17 3e3e 4a70 34bd
00000040: 4b81 153e 38b2 c93d feac 333d 1ef6 023d
00000050: 5288 25be 5430 33be 2c6b 24be adc7 9f3d
00000060: 2b3c 2dbd 6820 8abd 8052 5c3e 71ba 72be
00000070: cc78 5f3e 37fe d0bd c083 41be f607 c9bc
00000080: abb8 89bd 80cb fe3c 1ff2 a9bd 9584 74bd
00000090: 1ada 733e d435 dc3d e01b 0cbe 7e82 473e
000000a0: 6932 d4bb 2b83 193e 2190 e93d 8c97 273e
000000b0: 3bbe 1c3e 96a4 d73c 22c0 2c3e 9629 5c3c
000000c0: 18b5 1d3d 7862 6bbd a8b8 083c b00f 813c
000000d0: 09b2 eb3d 6028 df3c 84e6 203e abc8 613e
000000e0: 7deb 62be 1647 aa3d 1a44 443d f7f2 fe3d
000000f0: 7d8a 0ebd c379 bc3c 48ca 79be d1db 383e

bias f4 [4]
-0.18778723 -0.19831346 0.062095497 0.20019013
00000000: 4c4b 40be af12 4bbe d957 7e3d a4fe 4c3e
